saved_trials/ppo-small/MiniWorld-MazeS2-v0.pt (torch_old, 812358 bytes, 23 tensors)

weight f4 [32, 12, 5, 5]
0	0x3d4ff597	0.050771322
1	0xbae31e32	-0.0017327724
2	0x3d0af4b0	0.03392476
3	0xbdd01bdc	-0.10161564
4	0x3c0176f5	0.007901897
5	0x3dfd2ac9	0.12361676
6	0xbd3103ae	-0.0432164
7	0x3d3677bc	0.04454778
8	0x3dbb110c	0.09134111
9	0xbe3e1cbd	-0.1856565
10	0x3de25ba4	0.11052635
11	0x3d3e7904	0.04650213
12	0xbd9ee50f	-0.07758533
13	0xbd404040	-0.046936274
14	0xbccdb816	-0.025112193
15	0x3da4d5e8	0.08048612
16	0xbe0bb2c3	-0.13642411
17	0xbe266e88	-0.16253102
18	0xbe099b13	-0.13438062
19	0xbd8e785d	-0.06956551
20	0x3dcb1b51	0.099173196
21	0x3e142bc0	0.14469814
22	0x3cab76ee	0.020930734
23	0x3c8cabc7	0.017171754
24	0xbb8843a8	-0.004158456
25	0x3d80de60	0.06292415
26	0x3c2154fa	0.00984692
27	0xbd1a37ed	-0.03765099
28	0xbc6a1fce	-0.014289809
29	0xbcecd58e	-0.028910425
30	0x3dea41af	0.114383094
31	0x3d16d039	0.03681967
32	0xbdbdb416	-0.09262864
33	0x3c6ba535	0.01438265
34	0xbd5f3708	-0.05449584
35	0x3c5d8b16	0.01352193
36	0x3bdc360f	0.0067203115
37	0xbdc141db	-0.09436389
38	0xbcf700c4	-0.030151732
39	0xbe53eaaa	-0.20694986
40	0x3d581fcd	0.052764703
41	0x3ca13da1	0.019682707
42	0x3dbd618a	0.0924712
43	0xbd6a90f0	-0.05726713
44	0xbdb49129	-0.088167496
45	0xbcab2c88	-0.020895258
46	0xbe02cb2d	-0.12772818
47	0x3c89d50c	0.016825221
48	0x3da59729	0.08085472
49	0xbdbb3cd1	-0.09142459
50	0x3d3ced89	0.04612497
51	0x3e06b163	0.13153605
52	0xbde69254	-0.112583786
53	0xbdbaedc0	-0.091273785
54	0xbda5f7dd	-0.08103917
55	0x3de50ee8	0.11184484
56	0x3cefff99	0.029296683
57	0x3d7d97c8	0.061912328
58	0xbe52cd05	-0.20586021
59	0xbd96c1fd	-0.07361219
60	0x3d12124f	0.03566199
61	0xbd14d4be	-0.0363357
62	0xbcff1e40	-0.031142354
63	0x3be9587a	0.007121143
64	0x3de4a0fa	0.11163516
65	0x3e190003	0.1494141
66	0x3d943e00	0.07238388
67	0x3d820a3a	0.06349607
68	0xbd8bde03	-0.06829455
69	0x3d2c28b7	0.042031016
70	0x3dfeede5	0.124477185
71	0xbdaea207	-0.08526998
72	0xbd8d663d	-0.06904266
73	0x3d896196	0.06708066
74	0x3c2005dd	0.009767023
75	0x3d9bf0d0	0.07614291
76	0xbcf42c2e	-0.029806223
77	0x3c299787	0.010351068
78	0xbc6e3c87	-0.014540798
79	0x3dae6084	0.08514503
80	0xbbffad35	-0.0078026303
81	0xbde7f63a	-0.11326261
82	0xbd9915a3	-0.0747483
83	0x3d89fbbf	0.0673747
84	0x3dcc20d4	0.09967199
85	0x3d31c66d	0.043402124
86	0xbe217b26	-0.15769634
87	0xbd46cd10	-0.048535407
88	0x3dcfb561	0.10142017
89	0x3e064b58	0.13114679
90	0x3c774340	0.015091717
91	0xbb349485	-0.0027554345
92	0xbd2f9c0a	-0.04287342
93	0x3d343a3c	0.04400085
94	0x3e5290f6	0.2056311
95	0xbdd54040	-0.10412645
96	0xbe28933c	-0.16462415
97	0xbd4c7362	-0.049914725
98	0xbdb57588	-0.08860308
99	0xbd27eaa3	-0.04099525
100	0x3d13811d	0.036011804
101	0xbd683409	-0.05669025
102	0xbd703305	-0.058642406
103	0xbd9956b6	-0.07487242
104	0xbd14eaba	-0.036356665
105	0x3c45b5ea	0.0120672975
106	0x3d0a6d66	0.033795737
107	0xbd7e928e	-0.062151484
108	0x3d0fa8b0	0.035072982
109	0x3e0a0c3c	0.1348123
110	0x3da60f03	0.08108332
111	0xbd93c6c9	-0.0721565
112	0x3bfb3999	0.0076667783
113	0xbd1d9049	-0.03846768
114	0x3d758cde	0.059948795
115	0xbba7c0d7	-0.005119424
116	0xbd9edad2	-0.077565804
117	0xbc64e5f6	-0.013970843
118	0xbcad9211	-0.021187814
119	0x3e3efe48	0.18651688
120	0xbdabe9a5	-0.083941735
121	0xbcce2ead	-0.025168741
122	0x3d4298d6	0.047509037
123	0xbdd2744e	-0.102760896
124	0xbcb122dd	-0.02162307
125	0x3dfbfe7c	0.123043984
126	0xbe159d3c	-0.14610761
127	0x3d71da81	0.059046272
128	0xbddd8da4	-0.108180314
129	0x3da13463	0.0787132
130	0x3dfd97bc	0.12382457
131	0xbdaef687	-0.08543115
132	0x3d41700f	0.047226008
133	0xbe4b0f15	-0.19829972
134	0xbcc7e54a	-0.024401326
135	0xba98e179	-0.0011663876
136	0x3db7d9d3	0.089770935
137	0xbdaafc40	-0.08348894
138	0x3dfcc914	0.1234304
139	0xbd531c2b	-0.051540535
140	0x3c1398c0	0.009008586
141	0x3e388ada	0.18021718
142	0x3d759514	0.059956625
143	0xbbeaf4fa	-0.0071703168
144	0xbc9e5e1d	-0.019331986
145	0x3d14dd7d	0.03634404
146	0xbd3f31c2	-0.046678312
147	0x3de03600	0.109478
148	0xbcdd0de7	-0.026984168
149	0x3db569ca	0.08858068
150	0x3d0b3fd6	0.033996426
151	0xbe0a0224	-0.13477379
152	0xbda4fafd	-0.08055685
153	0xbd810ee9	-0.06301672
154	0xbdf2a055	-0.11846987
155	0x3caaa38c	0.020829938
156	0xbdcb185d	-0.09916756
157	0x3c7cb2f1	0.015423522
158	0xbda71338	-0.081579626
159	0x3cef08a4	0.029178925
160	0x3d5be0df	0.05368125
161	0x3e102ee4	0.14080387
162	0x3d792ca4	0.06083359
163	0xbdac6a27	-0.084186845
164	0xbd6ab383	-0.057300102
165	0x3dbbcb2f	0.091696136
166	0xbc1d06fa	-0.009584183
167	0xbc096233	-0.008385229
168	0x3d0e74c6	0.034779333
169	0xbc4d55a2	-0.0125326235
170	0x3da13a12	0.07872404
171	0x3d8a4e01	0.06753159
172	0x3e0baa49	0.13639177
173	0xbe077a2c	-0.13230199
174	0x3d01e8cf	0.031716164
175	0x3db89a31	0.09013785
176	0xbc45a47b	-0.012063141
177	0x3d5aa42c	0.053379223
178	0x3dfd21f5	0.123599924
179	0x3e0f1cb4	0.13975793
180	0x3caaabdc	0.020833902
181	0x3d627c27	0.055294182
182	0xbcee4fec	-0.029090844
183	0x3d029957	0.031884518
184	0xbd20704d	-0.0391696
185	0x3b83fe91	0.0040281494
186	0x3de37b6f	0.111075275
187	0xbdc1dea1	-0.09466291
188	0x3e3e708e	0.18597624
189	0xba252747	-0.0006300103
190	0xbd653460	-0.05595815
191	0x3d4976d5	0.049185593
192	0x3d3a5502	0.045491226
193	0x3b39d5cf	0.00283562
194	0x3a402007	0.0007328991
195	0x3d97c72c	0.07411036
196	0x3d925984	0.0714598
197	0xbbe0ed81	-0.00686425
198	0xbdb9c0bd	-0.09069965
199	0xbde2a4e3	-0.11066606
200	0x3d9aacd8	0.075524986
201	0x3e5bce99	0.2146553
202	0xbce4d989	-0.02793576
203	0xbcbb878e	-0.022891786
204	0xbd46bfc7	-0.048522737
205	0xbe0e0619	-0.13869514
206	0x3de5e482	0.11225225
207	0xbdb8fb96	-0.09032361
208	0x3d224146	0.03961303
209	0xbc92f668	-0.017939761
210	0xbe84fc49	-0.25973728
211	0x3dea87c5	0.11451677
212	0xbdfc9239	-0.12332577
213	0xbdbf252d	-0.093332626
214	0xbe85a215	-0.2610022
215	0xbc29a684	-0.010354642
216	0x3cf32522	0.029680792
217	0x3dd571d9	0.10422105
218	0xbbc3b8ae	-0.0059729433
219	0xbd545e80	-0.051847935
220	0xbd8267ee	-0.06367479
221	0xbde37e82	-0.11108114
222	0xbd8cc1e7	-0.068729214
223	0x3e081e90	0.13292909
224	0xbb87fe44	-0.004150184
225	0xbd0d311f	-0.034470674
226	0xbcef3d3e	-0.029204007
227	0xbd483e14	-0.048887327
228	0xbd2e8e3d	-0.042616118
229	0xbc814c52	-0.015783463
230	0xbd1cc0b7	-0.038269725
231	0xbe082e5b	-0.13298933
232	0x3c5235be	0.012830196
233	0xbe15eed0	-0.14641881
234	0x3c088b22	0.008333953
235	0x3df25243	0.118320964
236	0x3e05a3aa	0.13050714
237	0x3c83ec1d	0.016103799
238	0xbe0c232c	-0.13685292
239	0xbd9892e6	-0.07449894
240	0xbd02751e	-0.031849973
241	0xbd59e4f8	-0.053196877
242	0x3dfc6b18	0.12325114
243	0x3c9a1dc5	0.018813023
244	0xbd821ca2	-0.063531175
245	0xbc19855d	-0.009370175
246	0x3cb39a84	0.021924265
247	0x3c82599b	0.015911868
248	0x3db293ef	0.08719622
249	0xbd61d97f	-0.05513906
250	0xbe2cbd6b	-0.16869132
251	0xbc17da70	-0.009268388
252	0x3d9e15d4	0.07719007
253	0xbdab634b	-0.08368548
254	0xbdb4c564	-0.08826712
255	0xbc2d6938	-0.010584168

bias f4 [32]
0	0xb8f78ee7	-0.000118044954
1	0xb8a42b4a	-7.8281926e-05
2	0x37c2f5b8	2.3241024e-05
3	0xb87afbe3	-5.9839233e-05
4	0xb8a4a264	-7.850377e-05
5	0x38ba720a	8.8904126e-05
6	0x3618d64d	2.2774504e-06
7	0x388956cb	6.5488355e-05
8	0x383677d6	4.3503787e-05
9	0xb9284090	-0.0001604578
10	0x3803d419	3.1430365e-05
11	0xb6f100f7	-7.182472e-06
12	0xb7ebf56f	-2.8128472e-05
13	0x388d73d1	6.7449764e-05
14	0x386bfec5	5.626564e-05
15	0x382d555b	4.1325908e-05
16	0x370de2ee	8.457091e-06
17	0x38846b9c	6.314294e-05
18	0x3774232a	1.4551721e-05
19	0xb7590ae6	-1.2936745e-05
20	0x3841f617	4.6243975e-05
21	0xb8a4de3f	-7.861526e-05
22	0x3780e5c3	1.536578e-05
23	0xb8dee567	-0.000106285144
24	0xb82a7eff	-4.0649433e-05
25	0x37f868ce	2.9612707e-05
26	0x37577a99	1.2843543e-05
27	0xb80d6655	-3.3712324e-05
28	0xb8783cde	-5.9184495e-05
29	0x38626156	5.397325e-05
30	0xb8a88c38	-8.036982e-05
31	0xb8ba9499	-8.8968496e-05

weight f4 [32]
0	0x3f7d3659	0.9891105
1	0x3f81750f	1.0113848
2	0x3f782db1	0.9694472
3	0x3f6dcc67	0.9289002
4	0x3f835d35	1.026282
5	0x3f8801c7	1.0625542
6	0x3f860b71	1.0472242
7	0x3f7164d6	0.9429449
8	0x3f860481	1.0470124
9	0x3f799d09	0.9750524
10	0x3f700804	0.9376223
11	0x3f9073e0	1.1285362
12	0x3f741026	0.9533714
13	0x3f88eaa3	1.0696605
14	0x3f80fd4c	1.00773
15	0x3f83ea5b	1.0305895
16	0x3f7a6fd8	0.9782691
17	0x3f813dc3	1.0096973
18	0x3f896a5b	1.0735582
19	0x3f62c6ed	0.88584787
20	0x3f8ecbd6	1.1155956
21	0x3f8090cd	1.004419
22	0x3f7b9b39	0.98283726
23	0x3f8597c5	1.0436941
24	0x3f7e4cf3	0.99336165
25	0x3f6f492d	0.9347103
26	0x3f7fc478	0.9990916
27	0x3f66f33e	0.9021491
28	0x3f85b05f	1.0444449
29	0x3f820151	1.0156652
30	0x3f758277	0.959022
31	0x3f888c8c	1.0667892

bias f4 [32]
0	0x3cc335a3	0.023829287
1	0x3d1692f9	0.036761258
2	0x3d470453	0.04858811
3	0xbd67ada5	-0.056562085
4	0x3d3f6765	0.046729464
5	0xbd108198	-0.03527984
6	0xbd0e8404	-0.03479387
7	0x3d4098b3	0.047020625
8	0x3d097758	0.03356108
9	0x3d738d21	0.059460763
10	0xbbe20829	-0.0068979454
11	0x3cbdb29d	0.023156459
12	0x3da79cce	0.08184205
13	0x3d267ee0	0.04064834
14	0x3d183ce1	0.037167434
15	0x3ba5ca24	0.0050594974
16	0xbd48b0e6	-0.04899683
17	0xbd191fbd	-0.037383784
18	0x3d7876bd	0.060660113
19	0xbc77c981	-0.015123726
20	0x3c58c5ae	0.013230724
21	0x3d9f9718	0.07792491
22	0x3e124966	0.14285812
23	0x3dc33c74	0.09533015
24	0x3b843243	0.004034312
25	0x3d82f177	0.06393712
26	0x3d273099	0.04081783
27	0xbcd46a18	-0.025929496
28	0x3d3a9b88	0.045558482
29	0x3be65681	0.007029355
30	0x3d9ca95a	0.07649489
31	0x3db8c479	0.09021849

running_mean f4 [32]
0	0xbd50d61c	-0.05098544
1	0xbe0e1e52	-0.13878754
2	0xbd32e263	-0.04367293
3	0xbd1cb56b	-0.03825895
4	0x3de8c885	0.11366371
5	0x3d1cabf7	0.038249936
6	0xbe576279	-0.21033658
7	0x3dbd63f8	0.09247583
8	0xbe6bfaea	-0.23044935
9	0x3c648b6a	0.0139492545
10	0xbdb94a9f	-0.09047436
11	0xbe847a21	-0.25874427
12	0xbdf2236c	-0.118231624
13	0xbe83bf2d	-0.25731793
14	0x3d82af0e	0.06381045
15	0xbe6fb203	-0.2340775
16	0xbe629501	-0.22127153
17	0xbdb14ba4	-0.086570054
18	0x3d86be73	0.06579294
19	0xbe9537d0	-0.29144144
20	0xbdd3fda9	-0.10351116
21	0xbd28e3f0	-0.041233003
22	0xbd3eecac	-0.046612427
23	0xbb6eeb2e	-0.0036456096
24	0xbe31c6ae	-0.17360947
25	0x3e77d9f3	0.24204235
26	0xbbe1f00b	-0.0068950704
27	0x3e0cdf5c	0.1375708
28	0x3dfafab8	0.12254852
29	0x3df6011f	0.120119326
30	0xbe09ec35	-0.13469012
31	0x3a3f26a9	0.00072918326

running_var f4 [32]
0	0x3c6506f0	0.013978705
1	0x3c52d5b7	0.012868336
2	0x3c914097	0.017730994
3	0x3cb5eeff	0.022208689
4	0x3c486db0	0.012233183
5	0x3c2c158a	0.010503182
6	0x3c3f16c0	0.011663139
7	0x3c26be37	0.010177187
8	0x3c73df06	0.014884716
9	0x3c66d6aa	0.014089266
10	0x3c7707be	0.0150775295
11	0x3c5660e0	0.01308462
12	0x3c62233b	0.013802345
13	0x3c16ce3d	0.0092044445
14	0x3c0472cb	0.008084009
15	0x3c86b672	0.016444419
16	0x3c53a9a7	0.012918866
17	0x3c49e72f	0.012323185
18	0x3c6c8c85	0.014437799
19	0x3cb4b7cd	0.0220603
20	0x3c17c85d	0.009264079
21	0x3c1b047c	0.009461518
22	0x3c9009d3	0.01758281
23	0x3c46d511	0.01213576
24	0x3c636c1f	0.013880759
25	0x3c5aa4f8	0.013344996
26	0x3c3fcf20	0.011707097
27	0x3c948055	0.0181276
28	0x3c98d575	0.018656472
29	0x3c77aa1e	0.015116243
30	0x3c7940b8	0.015213184
31	0x3c4a8bfd	0.012362477

weight f4 [32, 32, 5, 5]
0	0x3cc4a7c5	0.02400578
1	0xbc495b5a	-0.012289846
2	0x3cedbb53	0.029019987
3	0xbdc847d9	-0.09779329
4	0x3cbe6116	0.023239654
5	0x3bdc5a32	0.0067246193
6	0xbc5dbcc6	-0.013533777
7	0xbc228188	-0.009918578
8	0xbd910e5e	-0.070828184
9	0x3dace18e	0.08441459
10	0x3a861fe9	0.0010232899
11	0x3d2b4dcd	0.041822243
12	0x3d0c79d8	0.034295887
13	0x3d89a46a	0.067208126
14	0x3cb1b8f7	0.021694643
15	0xbc3e7c7d	-0.01162636
16	0x3c160a24	0.009157691
17	0x3dd7e45e	0.105416045
18	0xbc552393	-0.01300897
19	0xbd1c4afa	-0.03815744
20	0xbcb0d240	-0.02158463
21	0x3cc96c97	0.024587912
22	0x3d146749	0.036231313
23	0x3cbfb2d6	0.023400705
24	0xbd8b2b2c	-0.06795344
25	0xbdeaf43d	-0.11472366
26	0x3cb952ee	0.022622552
27	0x3c6ffb87	0.014647371
28	0xbc6503ed	-0.013977987
29	0xbd622565	-0.055211443
30	0xbd9e5a3c	-0.077320546
31	0x3d022164	0.031770125
32	0x3cd2b32f	0.025720207
33	0xbcd47f87	-0.025939716
34	0xbd0c1944	-0.034203783
35	0xbde29843	-0.11064198
36	0xbdb37699	-0.08762855
37	0x3d17c246	0.037050508
38	0xbd43eae7	-0.047831442
39	0xbd89d2a5	-0.067296304
40	0xbd097976	-0.0335631
41	0xbcad8ecf	-0.02118626
42	0x3df9e66e	0.12202154
43	0xbbe397ed	-0.006945601
44	0xbd2f079e	-0.042731874
45	0xbcb5e0bb	-0.022201886
46	0xbcb0c820	-0.021579802
47	0xbcfa79ea	-0.030575711
48	0x3d17fe63	0.037107836
49	0x3d774a27	0.06037345
50	0xbd0a703e	-0.03379845
51	0xbcf5eee2	-0.030021135
52	0x3c92426e	0.017853942
53	0x3d778191	0.0604263
54	0xbd822c3e	-0.06356095
55	0xbdbdde7d	-0.09270952
56	0x3d0d1dc3	0.03445221
57	0x3da2ed8d	0.079554655
58	0x3cd8de69	0.02647324
59	0x3cfa820d	0.030579591
60	0xbd544974	-0.051827863
61	0xbb0cd789	-0.0021490774
62	0xbd2f599c	-0.042810068
63	0x3e06c3ab	0.13160579
64	0xbd44c7cd	-0.048042107
65	0x3d2237cf	0.039604004
66	0x3c0d57fc	0.008626934
67	0xbc80e4bc	-0.015734069
68	0x3c90790e	0.017635848
69	0x3da66cb0	0.08126199
70	0xbd9203bd	-0.07129619
71	0x3dd0e62c	0.10200152
72	0xbd462fd8	-0.04838547
73	0xbd075377	-0.033038583
74	0xbbf0ec31	-0.007352375
75	0xbdc1f737	-0.094709806
76	0xbc86fe73	-0.016478753
77	0x3d05de3a	0.032682635
78	0x3da38139	0.07983632
79	0x3c93c5a5	0.01803858
80	0x3d82588c	0.06364545
81	0xbe04bc00	-0.12962341
82	0xbdba68b0	-0.09101999
83	0xbac76b5e	-0.0015214493
84	0xbd7d1758	-0.06178984
85	0xbd5c4ed8	-0.05378613
86	0xbdf86edc	-0.1213052
87	0xbdbf678e	-0.09345923
88	0xbc76c511	-0.015061633
89	0xbc59e48f	-0.0132991215
90	0xbd7e3058	-0.062057823
91	0x3c8c97ce	0.01716223
92	0x3d078c8a	0.033093013
93	0xbaa59320	-0.0012632348
94	0x3d82ed3c	0.06392905
95	0xbd8cdfb4	-0.068786055
96	0x3da12863	0.07869031
97	0xbdaa4827	-0.08314543
98	0x3c25d6b7	0.010121993
99	0x3e4fffc8	0.20312417
100	0xba37d737	-0.00070129655
101	0x3d1d6ba4	0.038432732
102	0xbbe24a86	-0.0069058565
103	0xbd2aa47b	-0.041660767
104	0x3c8e5ab1	0.01737723
105	0x3d0c9018	0.034317106
106	0xba2e523f	-0.0006649829
107	0xbd245989	-0.04012445
108	0xbc88e131	-0.016708942
109	0xbd5678b6	-0.052361213
110	0xbd3432f5	-0.04399391
111	0xbc56b217	-0.013103983
112	0x3d4f2d61	0.050580386
113	0xbe0564bb	-0.13026707
114	0x3d796e10	0.06089598
115	0x3c4e838e	0.012604607
116	0x3d054d17	0.03254422
117	0x3de55bbb	0.11199137
118	0xbd9a81a7	-0.075442605
119	0x3e0c5591	0.13704516
120	0x3ceac0c8	0.028656378
121	0xbc5aa0b2	-0.013343977
122	0xbcf36f4b	-0.029716155
123	0xbd70f65b	-0.058828693
124	0xbd2fe53a	-0.042943217
125	0xbd3fac27	-0.046795037
126	0x3b374c90	0.0027969219
127	0xbd9bea4d	-0.07613049
128	0xbc693141	-0.014232934
129	0xbc63b4d7	-0.013898096
130	0x3cf6195b	0.030041387
131	0x3c896516	0.016771834
132	0xbe19626d	-0.14978953
133	0x3d753123	0.059861314
134	0xba8422e8	-0.0010081204
135	0x3d21a490	0.03946358
136	0x3c58eca0	0.01324001
137	0xbe024788	-0.127226
138	0x3dc347cb	0.09535178
139	0x3c2c7c47	0.010527677
140	0xbd42a289	-0.047518287
141	0xbd7b18ba	-0.061302878
142	0xbd772ce2	-0.060345538
143	0x3dd54463	0.10413434
144	0x3c5e1943	0.013555828
145	0xbabf9de0	-0.0014619194
146	0xbd090832	-0.03345508
147	0xbd9e1e9d	-0.07720683
148	0x3c6d1673	0.014470684
149	0xbd5f223a	-0.054476
150	0x3d832619	0.06403751
151	0xbcafd169	-0.02146216
152	0x3da13d1f	0.07872986
153	0x3d4ac7a2	0.04950679
154	0xbd27635f	-0.040866252
155	0xbc8c9156	-0.017159145
156	0x3d408359	0.047000263
157	0x3d86c303	0.06580164
158	0x3ce4596b	0.027874669
159	0xbd8ef91b	-0.06981107
160	0xbc37b381	-0.011212231
161	0xbcc9dc23	-0.024641102
162	0xbd0375fe	-0.032094948
163	0xbe0d0b87	-0.13773929
164	0xbcb2c141	-0.021820666
165	0x3e04b4ab	0.12959544
166	0xbd2dec95	-0.04246195
167	0x3d610ca6	0.054943703
168	0xbe0e13d7	-0.13874756
169	0xbc6e9727	-0.014562405
170	0x3e0de5d0	0.13857198
171	0x3d148548	0.03625992
172	0x3cd7f803	0.026363378
173	0xbd0aff7b	-0.03393505
174	0xbddb1ee9	-0.10699255
175	0xb9cb69e9	-0.00038798086
176	0x3d1afd22	0.037839063
177	0xbc490c69	-0.012271025
178	0xbcd7404a	-0.026275773
179	0x3d6a9341	0.05726934
180	0x3dfb730f	0.12277805
181	0x3e051ab7	0.12998472
182	0x3bb42967	0.0054980996
183	0xbd8b22d1	-0.0679375
184	0x3cf14593	0.02945212
185	0xbc7c8090	-0.015411511
186	0xbc4fc450	-0.012681082
187	0xbd128f7b	-0.035781365
188	0x3d8ae6b0	0.067822814
189	0x3c1e5447	0.009663648
190	0xbd4abffa	-0.04949949
191	0xbcd35ef1	-0.025802108
192	0xbc9df059	-0.019279646
193	0xbc0e8b7a	-0.008700246
194	0x3d5d775a	0.0540689
195	0xbd37e87f	-0.04489946
196	0x3c0052c9	0.0078322375
197	0xbb2bfb62	-0.0026242365
198	0xbd48f3bd	-0.049060572
199	0xbcbcfc9d	-0.023069674
200	0xbd85a8e1	-0.06526352
201	0x3aad1d0e	0.0013207512
202	0xbda10ce0	-0.07863784
203	0x3d67039c	0.056399927
204	0xbc9b1372	-0.01893017
205	0x3a9bf6fc	0.0011899169
206	0xbcca3c20	-0.024686873
207	0xbdfb8b6a	-0.122824505
208	0xbd8a4710	-0.06751835
209	0x3e11c4f0	0.14235282
210	0xbd26778d	-0.040641356
211	0xbd47a215	-0.048738558
212	0x3bfaf90e	0.007659084
213	0x3d93aec6	0.0721107
214	0xbd8a109c	-0.06741449
215	0xbd1e1b70	-0.038600385
216	0xbd5c54b5	-0.05379172
217	0xbc0dfcc0	-0.008666217
218	0xbbfc92ef	-0.0077079455
219	0x3ca4fcf8	0.020140156
220	0xbd35dfd0	-0.044402897
221	0xbd9189ca	-0.07106359
222	0x3df0db5e	0.11760591
223	0xbbd13951	-0.0063850065
224	0xbb53ed39	-0.003233744
225	0x3d17c7ce	0.037055783
226	0xbd92e747	-0.07173019
227	0xbdcdb151	-0.10043586
228	0x3daf302a	0.085541084
229	0xbd66d28a	-0.05635313
230	0x3cc10ec1	0.023566606
231	0xbdac8db7	-0.084254675
232	0x3da7f522	0.08201052
233	0x3d53a3a7	0.051669743
234	0xbcd1c460	-0.025606334
235	0xbd429c0e	-0.047512107
236	0xbd9025b6	-0.07038443
237	0x3dd695e5	0.10477809
238	0xbd922d9b	-0.07137605
239	0xbe1e7149	-0.15472902
240	0x3d97f117	0.07419031
241	0x3d3b4095	0.045715887
242	0x3d002ad6	0.03129085
243	0x3d3787be	0.04480719
244	0xbd8a33f5	-0.06748191
245	0x3e58a789	0.2115766
246	0xbd071986	-0.032983325
247	0x3c7e8a66	0.015535926
248	0xbd322a95	-0.04349764
249	0x3daf294c	0.08552799
250	0xbd5f794e	-0.054559045
251	0xbd70dfee	-0.058807306
252	0xbbc60007	-0.0060424837
253	0x3cce6070	0.02519247
254	0x3d805ea1	0.06268049
255	0x3c5a4e0b	0.013324271

bias f4 [32]
0	0xb63955ff	-2.7617205e-06
1	0x3664526a	3.4022619e-06
2	0x36a37ad7	4.872079e-06
3	0x36b638c5	5.4306315e-06
4	0xb5890551	-1.0208843e-06
5	0x34c0581d	3.5826898e-07
6	0x36810cba	3.845981e-06
7	0xb6a9a078	-5.0552735e-06
8	0xb4b9ed07	-3.4631395e-07
9	0xb622df24	-2.4269766e-06
10	0x36a3ce77	4.881814e-06
11	0xb52de604	-6.478224e-07
12	0xb4b69e7b	-3.4015451e-07
13	0xb6a4a167	-4.9063706e-06
14	0x358efdb4	1.0653662e-06
15	0xb681d5cc	-3.869389e-06
16	0xb5acb347	-1.2867175e-06
17	0xb5d7dcf2	-1.6083052e-06
18	0x36b6005a	5.4240636e-06
19	0xb64008d0	-2.861536e-06
20	0x3639e265	2.7698927e-06
21	0x35ba6549	1.3887558e-06
22	0x3694f5fa	4.439379e-06
23	0xb69d4b38	-4.6877212e-06
24	0x3602f37e	1.951324e-06
25	0x35d41770	1.5802052e-06
26	0x36665bd0	3.4326113e-06
27	0xb6107b21	-2.1529343e-06
28	0x3562c6b4	8.448071e-07
29	0xb673d697	-3.633473e-06
30	0xb64f126c	-3.0856127e-06
31	0x36325e57	2.657898e-06

weight f4 [32]
0	0x3f75bbde	0.9598979
1	0x3f80ba0b	1.0056776
2	0x3f784e21	0.96994215
3	0x3f82ab6d	1.0208565
4	0x3f835da6	1.0262954
5	0x3f838487	1.0274819
6	0x3f818e1d	1.0121495
7	0x3f88f808	1.0700693
8	0x3f8026ea	1.0011876
9	0x3f6fb215	0.93631107
10	0x3f82e65f	1.0226554
11	0x3f804ab7	1.0022801
12	0x3f87982f	1.0593318
13	0x3f75472e	0.95811737
14	0x3f80541c	1.0025668
15	0x3f82c19d	1.0215336
16	0x3f6dab6e	0.92839706
17	0x3f80a081	1.0048982
18	0x3f80ba9a	1.0056946
19	0x3f873d7d	1.056564
20	0x3f7ce1db	0.9878213
21	0x3f80bb48	1.0057154
22	0x3f8230e3	1.0171169
23	0x3f7e1cc6	0.99262655
24	0x3f819894	1.0124688
25	0x3f8eaff6	1.1147449
26	0x3f80f715	1.0075403
27	0x3f8240f3	1.0176071
28	0x3f855f40	1.0419693
29	0x3f840901	1.0315248
30	0x3f83e947	1.0305566
31	0x3f77261a	0.96542513

bias f4 [32]
0	0x3cbb4df0	0.022864312
1	0x3bfe7c3d	0.007766275
2	0xbb600bc0	-0.003418669
3	0xbd23f662	-0.04002989
4	0xbb60b3d6	-0.0034286878
5	0x3d66fa6f	0.056391176
6	0x3cf488ab	0.029850325
7	0x3a6e0a3f	0.0009080506
8	0x3d4a4496	0.049381815
9	0xbd152b8e	-0.03641849
10	0x3c40614e	0.011741949
11	0xbca473ea	-0.020074803
12	0x3d891118	0.066927135
13	0xbc5df930	-0.01354818
14	0xbd5c6a3b	-0.053812247
15	0x3d597a8b	0.05309538
16	0xbd7cf69a	-0.061758615
17	0xbd940c34	-0.0722889
18	0x3db5b152	0.08871712
19	0x3ddd41ab	0.10803541
20	0x3c88cbb2	0.016698692
21	0xbcc8ac4b	-0.024496218
22	0x3d9ff8ed	0.07811151
23	0x3d9d40dd	0.07678387
24	0x3d385663	0.04500426
25	0x3e277300	0.16352463
26	0x3d0dee28	0.03465095
27	0xbc2f3084	-0.010692719
28	0x3d62eb18	0.055399984
29	0x3d01c5e4	0.031682864
30	0x3c9583ba	0.018251289
31	0xbd4d9c32	-0.050197788

running_mean f4 [32]
0	0xbe9ffca3	-0.31247434
1	0xbee0a57a	-0.4387625
2	0x3d90ad1c	0.07064268
3	0xbee5f091	-0.449101
4	0x3f2cf51a	0.67561495
5	0xbf0c2d4b	-0.5475661
6	0xbe4cac19	-0.19987525
7	0x3e0ddb56	0.13853201
8	0xbe0f3b9e	-0.13987586
9	0x3e183889	0.14865316
10	0x3ed7ceb2	0.42149884
11	0xbd5d6d19	-0.05405912
12	0xbedf1446	-0.43570155
13	0x3cab1f41	0.020888926
14	0xbeee5d7d	-0.465557
15	0xbe47cd74	-0.19511968
16	0xbf50e8c5	-0.8160518
17	0x3c05f3b5	0.00817578
18	0x3f023f41	0.5087777
19	0x3e1cc734	0.15310365
20	0xbec0ab4b	-0.37630686
21	0xbee528f0	-0.44757795
22	0x3e6b13a3	0.2295671
23	0x3e27a114	0.1637004
24	0xbedb1267	-0.42787477
25	0x3d8a2e14	0.0674707
26	0xbea5a608	-0.32353234
27	0x3d27050a	0.04077629
28	0x3e73b928	0.238011
29	0xbe2f8a69	-0.17142643
30	0xbea9caf6	-0.3316266
31	0xbef44199	-0.47706297

running_var f4 [32]
0	0x3faeb7aa	1.36498
1	0x3f9c58fb	1.2214655
2	0x3fc558d5	1.5417734
3	0x3f911b51	1.1336461
4	0x3fa7e207	1.3115853
5	0x40057211	2.085087
6	0x3f8688d3	1.0510505
7	0x3fa307c1	1.2736741
8	0x3f81a8c3	1.0129627
9	0x3fc0d781	1.5065767
10	0x3fc4027c	1.5313258
11	0x3fb4eac2	1.4134142
12	0x3f958a40	1.1682816
13	0x3fb2b81c	1.3962436
14	0x3ffaeefb	1.9604181
15	0x3f976e17	1.1830472
16	0x3f9cf2db	1.2261614
17	0x3f8103e6	1.0079315
18	0x3fb83871	1.4392225
19	0x3fb48193	1.4102043
20	0x3fb7ba30	1.4353695
21	0x3f9cb355	1.2242228
22	0x3f8ee493	1.1163505
23	0x3fa35a7a	1.2761986
24	0x3fbe1bdc	1.4852252
25	0x401765ee	2.3655963
26	0x3fb5b928	1.419713
27	0x3f9767c4	1.1828542
28	0x3f7318cc	0.9495971
29	0x3fb2a083	1.3955234
30	0x3f96c241	1.1778032
31	0x3f914f7e	1.1352384

weight f4 [32, 32, 4, 4]
0	0x3e0fd462	0.14045861
1	0xbbc55be8	-0.006022919
2	0xbd85f9f0	-0.065418124
3	0x3d0569d8	0.032571644
4	0x3dc9c647	0.098522715
5	0xbd2e6acb	-0.042582314
6	0xbde2458c	-0.11048421
7	0xbdc084ec	-0.09400353
8	0xbceb7581	-0.028742554
9	0xbdad70f0	-0.08468807
10	0xbae1c51d	-0.0017224882
11	0xbe04d9f9	-0.12973775
12	0xbcdc6fe1	-0.026908817
13	0xbde4b56a	-0.111674145
14	0xbda12425	-0.07868222
15	0xb913b6b5	-0.00014087076
16	0xbd9c26df	-0.076246016
17	0xbb204126	-0.0024452894
18	0x3c6ed68e	0.014577521
19	0xbcd71eeb	-0.02625986
20	0xbd03e540	-0.03220105
21	0x3e0230e6	0.12713966
22	0x3d93465e	0.07191156
23	0xbd445089	-0.047928367
24	0xbd35eaf1	-0.04441351
25	0x3da45663	0.080242895
26	0xbc1d4cc3	-0.009600821
27	0xbd219a2b	-0.039453667
28	0x3de9f8eb	0.114244305
29	0xbd8cbc88	-0.06871897
30	0x3c22f70e	0.009946598
31	0x3d7b41f5	0.0613422
32	0xbd69f5cc	-0.057119176
33	0x3dd1b899	0.10240287
34	0x3de69ef6	0.11260788
35	0xbcf51b8a	-0.029920358
36	0xbd97ad97	-0.074061565
37	0xbb90dff7	-0.00442123
38	0x3d29908a	0.04139761
39	0x3d98d900	0.074632645
40	0x3daffa5d	0.08592675
41	0xbcc8d018	-0.02451329
42	0xbd88ad59	-0.066736884
43	0x3d731a10	0.059351027
44	0xbdfd2d80	-0.12362194
45	0xbdd8cc75	-0.10585872
46	0x3d780c6f	0.060558733
47	0x3d1dc747	0.038520124
48	0x3dc3e249	0.09564645
49	0xbdd1a15a	-0.102358535
50	0x3dc2b500	0.09507179
51	0x3dab2a5c	0.08357689
52	0xbd12cf9f	-0.035842534
53	0xbcfe6a68	-0.031056598
54	0x3e053029	0.13006653
55	0xbd930f36	-0.07180636
56	0x3d954dea	0.072902516
57	0x3e05f55a	0.13081875
58	0x3c6a5381	0.014302135
59	0x3e058455	0.13038762
60	0xbe004301	-0.1252556
61	0xbda9e8ab	-0.08296331
62	0xbdca2c16	-0.0987169
63	0x3d64c6b8	0.055853575
64	0x3ccc5778	0.024944052
65	0x3dac2ad1	0.08406604
66	0x3df9c0f3	0.12195005
67	0x3db88ab0	0.090108275
68	0x3db33333	0.0875
69	0x3af246ba	0.0018484213
70	0xbad7825a	-0.0016442046
71	0x3d8898eb	0.06669792
72	0x3dfe0161	0.12402607
73	0x3de7714a	0.11300905
74	0xbcdcc6c9	-0.026950257
75	0x3d47b834	0.048759654
76	0x3d8a289e	0.06746028
77	0xbd59f59d	-0.05321275
78	0x3d72aca8	0.05924669
79	0xbdb59d0e	-0.088678464
80	0xbcb8eb09	-0.022573011
81	0x3d61d6d0	0.0551365
82	0xbcba0ec7	-0.022712125
83	0x3db9756d	0.090556
84	0xbd850dad	-0.06496749
85	0xbccfc1bd	-0.025360936
86	0xbe34192a	-0.17587724
87	0x3cd3f6b8	0.02587448
88	0xbe4abffc	-0.19799799
89	0x3bf95b6b	0.007609775
90	0xbd9ab523	-0.0755408
91	0x3e32944d	0.17439385
92	0xbc934dea	-0.017981488
93	0xbc247a53	-0.01003893
94	0x3cdf1f63	0.027236646
95	0x3d8d102e	0.06887852
96	0x3d9ac36b	0.07556804
97	0x3b3e03fd	0.0028994076
98	0xbc0ee027	-0.008720434
99	0x3c6e5c22	0.014548333
100	0xbc75e052	-0.015007095
101	0xbd9ecfdb	-0.07754489
102	0xbd953ad0	-0.07286608
103	0xbd04cc70	-0.03242153
104	0xbdcf0ac1	-0.10109473
105	0x3d126960	0.035745025
106	0x3c8240aa	0.015899975
107	0x3d971b84	0.07378295
108	0xbd2e4a91	-0.04255158
109	0xbd0125a8	-0.031530052
110	0xbdc09417	-0.09403246
111	0xbdde8968	-0.10866052
112	0x3d91b8d3	0.071153305
113	0xbe25697a	-0.16153517
114	0x3d3a92ce	0.04555016
115	0x3ddf4348	0.10901505
116	0x3d9e18a0	0.077195406
117	0x3d2c6031	0.042083923
118	0xbcfefd41	-0.03112662
119	0x3c90c240	0.01767075
120	0x3de42e37	0.11141627
121	0xbd9b4176	-0.07580845
122	0x3d037179	0.032090638
123	0xbdcb4230	-0.09924734
124	0x3bc3a995	0.0059711435
125	0xbcb729f9	-0.022358881
126	0xbe0a2747	-0.13491546
127	0xbdb8590c	-0.09001359
128	0xbd176876	-0.036964856
129	0xbdd9d40a	-0.10636146
130	0x3be0b8ac	0.006857952
131	0xbdef736f	-0.11691939
132	0x3c0c6ee4	0.00857136
133	0xbdb9cf3e	-0.090727314
134	0x3d09d766	0.033652686
135	0x3cba9c75	0.022779683
136	0xbca4bb25	-0.020108769
137	0xbb81e338	-0.003963854
138	0xbd2b6e16	-0.041853033
139	0x3bb1c3f6	0.0054249717
140	0x3cbe6ff4	0.023246743
141	0xbdd4b753	-0.10386529
142	0x3cdeca31	0.027196022
143	0x3e072b19	0.13200034
144	0x3d01e54c	0.031712815
145	0xbd2d8a8e	-0.042368464
146	0xbdba30da	-0.09091349
147	0x3dba082d	0.09083591
148	0x3dc82817	0.097732715
149	0xbc803ed9	-0.015654968
150	0x3be26827	0.0069093886
151	0xbd850de1	-0.06496788
152	0xbd89fd46	-0.06737761
153	0xbd2ca603	-0.04215051
154	0x3d1fd77c	0.03902386
155	0x3e15a92f	0.1461532
156	0xbd4d4bc1	-0.050121073
157	0xbd86dd73	-0.06585207
158	0x3d86c1e4	0.065799505
159	0x3d6c2c8a	0.057659663
160	0x3d01be4f	0.031675633
161	0xbd623bec	-0.055232927
162	0x3dbacb0e	0.09120761
163	0x3c985830	0.018596739
164	0xbccae907	-0.02476932
165	0x3dc407e4	0.095718175
166	0x3d04c5bd	0.03241514
167	0xbddfdb6b	-0.109305225
168	0x3cbc3373	0.022973752
169	0x3d7150a1	0.058914784
170	0x3dfa5ec2	0.12225105
171	0xbc13501e	-0.008991269
172	0x3c25e8da	0.010126317
173	0x3c560e96	0.013065001
174	0x3d5c557c	0.05379246
175	0x3df2b2d0	0.11850512
176	0x3cd4c1db	0.025971344
177	0xbe14974c	-0.1451084
178	0xbe38e8aa	-0.18057504
179	0x3b199282	0.0023433273
180	0x3e41bb8e	0.18919203
181	0xbcd6824b	-0.026185175
182	0xbdb75d27	-0.08953314
183	0x3e023be5	0.1271816
184	0x3df773d4	0.12082639
185	0x3da7adfb	0.08187481
186	0xbcf6cfcc	-0.030128382
187	0x3d5b740a	0.05357746
188	0x3bb6e259	0.005581182
189	0x3ddff98d	0.1093627
190	0xbcddb5ec	-0.027064286
191	0xbd96ee40	-0.07369661
192	0x3c99c601	0.018771173
193	0x3c673f6a	0.01411424
194	0x3d3688f1	0.04456419
195	0x3cf47df7	0.029845221
196	0xbc53efc1	-0.01293558
197	0x3e1770e9	0.14789166
198	0xbc25f6f9	-0.010129684
199	0x3c8e1ddf	0.017348228
200	0xbd18c53a	-0.037297465
201	0x3e0e117d	0.13873859
202	0x3d0cf6f7	0.03441521
203	0xbccbd80b	-0.02488329
204	0xbdffaf07	-0.12484556
205	0xbbbae68c	-0.005703753
206	0xbb4324ca	-0.0029776567
207	0x3a87f7a7	0.0010373489
208	0x3e540c33	0.20707779
209	0x3d5f95e6	0.054586314
210	0xbdc62869	-0.096756764
211	0x3b5b8c8e	0.0033500525
212	0xbdbd38ae	-0.092393264
213	0x3d898422	0.067146555
214	0xbda1983c	-0.078903645
215	0x3ccca014	0.024978675
216	0xbdb7108e	-0.089387044
217	0xbe03978d	-0.12850781
218	0xbd1bb075	-0.03801008
219	0x3c4c187a	0.012457008
220	0xbdb769ad	-0.08955703
221	0x3d8efcb9	0.06981797
222	0xbdc6ccff	-0.09707069
223	0xbb126a8c	-0.002234134
224	0xbce92435	-0.028459648
225	0x3dc3b7a5	0.09556512
226	0xbcbd8d9e	-0.023138817
227	0x3cfb7572	0.03069565
228	0x3d6889b3	0.056771945
229	0xbc959c2a	-0.018262941
230	0xbdea1ddf	-0.11431479
231	0xbb2cf106	-0.0026388778
232	0xbd381410	-0.044941008
233	0xbd057d3d	-0.03259014
234	0xbd35c83c	-0.04438041
235	0xbda43d9f	-0.08019566
236	0xbbf56c42	-0.007489712
237	0x3dd8abac	0.10579619
238	0x3c870bec	0.016485177
239	0xbdd458bc	-0.10368487
240	0xbd9d251c	-0.07673094
241	0xbd7e729f	-0.06212103
242	0x3d8f3da1	0.06994177
243	0x3db630d4	0.08896032
244	0xbe1efca7	-0.15526067
245	0x3caabe0d	0.020842576
246	0xbd487424	-0.048938885
247	0xbcc4c714	-0.02402071
248	0x3d8ead30	0.06966627
249	0xbc9fc63c	-0.019503705
250	0xbc3bce0d	-0.011462701
251	0x3de49095	0.11160389
252	0x3d10f8d5	0.035393555
253	0xbdd10686	-0.10206322
254	0xbcf88287	-0.030335678
255	0xbdbd448d	-0.09241591

bias f4 [32]
0	0xb4763614	-2.2930209e-07
1	0x3639ef2a	2.770636e-06
2	0x34f12004	4.4913043e-07
3	0x3400ea96	1.2006271e-07
4	0x361f9abc	2.3782914e-06
5	0x35b7d728	1.3697181e-06
6	0x3617cd43	2.2620231e-06
7	0x354616f1	7.379413e-07
8	0x35d80e33	1.6097387e-06
9	0x35fd0148	1.8850342e-06
10	0x34f049ed	4.4757272e-07
11	0x35a0169c	1.1927509e-06
12	0xb59eb5b6	-1.1824802e-06
13	0xb57c729d	-9.40441e-07
14	0x359caa2e	1.1672435e-06
15	0x360bc438	2.0826828e-06
16	0x3644631b	2.9263963e-06
17	0xb61b6af2	-2.315905e-06
18	0xb413612d	-1.3725794e-07
19	0xb63720ce	-2.728822e-06
20	0xb5e026e8	-1.6700624e-06
21	0xb5888529	-1.0171544e-06
22	0x363dde89	2.8292727e-06
23	0x3508621a	5.0806705e-07
24	0xb59e5ede	-1.1799527e-06
25	0xb5864e70	-1.0006606e-06
26	0xb5d2cbaa	-1.5705493e-06
27	0x34242011	1.5285356e-07
28	0x347ff501	2.3837858e-07
29	0xb5e5db79	-1.7125705e-06
30	0x363c6305	2.807182e-06
31	0xb6001c4d	-1.908996e-06

weight f4 [32]
0	0x3f8c8c7d	1.0980374
1	0x3f8c99a5	1.0984389
2	0x3f89985b	1.074962
3	0x3f93b105	1.1538397
4	0x3f81c509	1.0138255
5	0x3f95e78f	1.1711291
6	0x3f89d76c	1.0768867
7	0x3f9e213d	1.2353894
8	0x3f71bb75	0.9442666
9	0x3f8deef1	1.1088544
10	0x3f755d28	0.9584527
11	0x3f7958b5	0.9740098
12	0x3f75ab81	0.9596482
13	0x3f858893	1.0432304
14	0x3f9003c6	1.1251152
15	0x3f897e6f	1.074171
16	0x3f8311d6	1.0239818
17	0x3f8e11a5	1.1099135
18	0x3f8e3152	1.1108801
19	0x3f8c27f0	1.0949688
20	0x3f81e272	1.0147231
21	0x3f83463d	1.025581
22	0x3f901896	1.1257503
23	0x3f6f0d97	0.9338011
24	0x3f902e58	1.1264143
25	0x3f76a8e1	0.9635144
26	0x3f8be372	1.0928786
27	0x3f80b29c	1.0054507
28	0x3f982239	1.1885444
29	0x3f8cfde6	1.1014984
30	0x3f98f1e1	1.1948816
31	0x3f97c608	1.1857309

bias f4 [32]
0	0x3e1f9983	0.15585904
1	0x3e1ca9ff	0.15299223
2	0x3db6c6c1	0.08924628
3	0x3d32adac	0.043622658
4	0xbd5bde62	-0.053678878
5	0x3d9590d0	0.073030114
6	0x3dcf531f	0.10123276
7	0x3e3d389c	0.18478626
8	0xbc8f3eb9	-0.017485963
9	0x3d256087	0.04037526
10	0xbcf842c0	-0.030305266
11	0xbd712645	-0.058874387
12	0xbc57ca41	-0.01317078
13	0x3d9179cb	0.07103308
14	0xbbae7510	-0.0053240135
15	0x3d80a8bd	0.06282184
16	0x3d120ea3	0.03565849
17	0x3e2cf95c	0.16891998
18	0x3e3212ea	0.17390028
19	0x3da1bdbf	0.07897519
20	0xbcc8ef84	-0.024528272
21	0xbd108391	-0.03528172
22	0x3d9c38f9	0.07628054
23	0xbc96d9c2	-0.018414382
24	0x3d97caa6	0.07411699
25	0xbd529f41	-0.051421408
26	0x3d2800b2	0.041016288
27	0xbca472da	-0.020074297
28	0x3e50e324	0.20399147
29	0x3d730b60	0.05933702
30	0x3dd893e8	0.10575086
31	0x3e10649f	0.14100884

running_mean f4 [32]
0	0x3e16cac2	0.14725783
1	0xbe853d13	-0.26023158
2	0xbc359527	-0.011082924
3	0x3ce4e211	0.027939828
4	0xbe854a5e	-0.260333
5	0xbf10efb7	-0.56615776
6	0xbefb3eb3	-0.49071273
7	0x3e5850d9	0.21124591
8	0xbdd611ec	-0.10452637
9	0xbf1559e9	-0.58340317
10	0xbfa6cfa3	-1.3032116
11	0x3db0a5b9	0.08625359
12	0xbebbea3d	-0.36702147
13	0x3f1deced	0.61689645
14	0xbf244149	-0.6416212
15	0xbe5808aa	-0.21097055
16	0x3d739b07	0.059474017
17	0xbeeb2d9b	-0.45933232
18	0x3ebf2040	0.37329292
19	0xbe2f6d94	-0.17131644
20	0xbeefc6d2	-0.46831375
21	0xbd97cef9	-0.07412524
22	0x3f482cb4	0.7819321
23	0xbf4d0d39	-0.800983
24	0xbe855351	-0.26040128
25	0xbf0296c6	-0.5101131
26	0xbd60988f	-0.05483299
27	0xbf3f2790	-0.7466974
28	0xbb67eb6d	-0.0035388127
29	0x3db93261	0.09042812
30	0x3ec2ccfa	0.3804701
31	0x3e512df4	0.20427686

running_var f4 [32]
0	0x3f8f7117	1.1206387
1	0x3f747544	0.95491433
2	0x3facddc5	1.3505179
3	0x3f647ae9	0.89250046
4	0x3f80c044	1.0058675
5	0x3f54d6fa	0.8314053
6	0x3fbe685d	1.4875599
7	0x3f8b4188	1.0879374
8	0x3faeb904	1.3650212
9	0x3faac1aa	1.3340352
10	0x3fb6a44f	1.4268893
11	0x3f8b993a	1.0906136
12	0x3f56ec17	0.83953995
13	0x3fba56e0	1.4557762
14	0x3f5ebd47	0.87007564
15	0x3f78e18e	0.9721917
16	0x3fa349f8	1.2756948
17	0x3fa1f456	1.265269
18	0x3fac3d35	1.3456179
19	0x3f764590	0.96199894
20	0x3faa2cfd	1.3294979
21	0x3f8db741	1.107155
22	0x3f8cfd62	1.1014826
23	0x3f8fabae	1.1224267
24	0x3f8cd14e	1.1001375
25	0x3fb64bc2	1.424187
26	0x3f8de9ca	1.1086972
27	0x3f954637	1.1662053
28	0x3fa7ac99	1.3099548
29	0x3f370bd0	0.715024
30	0x3f9c7a58	1.2224836
31	0x3fc94076	1.5722797

weight f4 [128, 1120]
0	0x3d841425	0.06449155
1	0xbd01ab56	-0.03165754
2	0xbc610f28	-0.013736524
3	0x3d972f84	0.0738211
4	0xbd922cd1	-0.07137454
5	0xbd393c92	-0.04522378
6	0xbe0804a9	-0.13283028
7	0xbd8c4966	-0.06849937
8	0xbdac5005	-0.084137
9	0x3dbdb90c	0.092638105
10	0x3ccae9b2	0.024769638
11	0xbd044178	-0.032289
12	0xbd8f6fbc	-0.070037335
13	0xbc1c8717	-0.009553692
14	0xbdb50400	-0.088386536
15	0x3961b83f	0.00021526309
16	0xbdc1441b	-0.09436818
17	0x3cf69485	0.030100117
18	0x3dc0f8b4	0.09422436
19	0xbcaf805f	-0.021423517
20	0x3ca50bb8	0.02014719
21	0xbe0081dd	-0.12549539
22	0xbc89372d	-0.016749943
23	0xbc8a62be	-0.016892787
24	0x3d32bc0a	0.04363636
25	0xbd18220b	-0.03714184
26	0xbd4a8915	-0.049447138
27	0x3ce16be1	0.027517261
28	0x3cdb7b56	0.02679221
29	0xbbb257fb	-0.005442617
30	0x3d8b6aba	0.06807466
31	0xbcd32f2b	-0.025779327
32	0xbd5351a4	-0.05159153
33	0x3d62e3f5	0.055393178
34	0xbd2767f9	-0.04087064
35	0x3d28c9e6	0.04120817
36	0xbcc2f9e8	-0.023800805
37	0x3d13c843	0.036079656
38	0xbad2b44c	-0.0016075461
39	0x3b054b18	0.0020338949
40	0x3e038cbb	0.12846653
41	0xbc853ac1	-0.016263368
42	0xbd3a2b50	-0.045451462
43	0x3c81795c	0.015804939
44	0xbda104cf	-0.07862245
45	0x3cdde38e	0.027086046
46	0xbcac00f9	-0.020996558
47	0x3d75ac5a	0.05997882
48	0xbc6b4a5a	-0.0143609885
49	0x3ce03429	0.027368622
50	0x3d8fa802	0.07014467
51	0xbd81b42c	-0.06333193
52	0x3d221306	0.039568923
53	0xbc87c088	-0.016571298
54	0x3dcb852c	0.0993751
55	0xbcde0fe3	-0.027107185
56	0xbcb2adf6	-0.021811467
57	0x3a301108	0.0006716405
58	0xbd4bb16a	-0.049729742
59	0x3d96106d	0.07327352
60	0xbd554649	-0.052068982
61	0x3d8d5ddb	0.06902667
62	0x3dac55e4	0.0841482
63	0x3b94d7f1	0.004542344
64	0x3bac372d	0.005255601
65	0xbd87a849	-0.06623895
66	0xbd346e8a	-0.04405073
67	0x3bf84d37	0.007577564
68	0xbcba4839	-0.022739517
69	0x3cf7aa6b	0.030232629
70	0xbd3cfccd	-0.046139527
71	0xbd9c1cf4	-0.0762271
72	0x3cb90e0f	0.022589711
73	0xbd7cb29f	-0.061693784
74	0x3ca05dad	0.019575918
75	0x3b17d2be	0.0023166384
76	0xbd8d5719	-0.06901378
77	0x3c8d4f31	0.017249675
78	0xbce6a365	-0.028154084
79	0xbd5b6899	-0.05356655
80	0x3decf699	0.11570472
81	0xbd30fe72	-0.043211408
82	0xbd2c2111	-0.042023722
83	0xbc491522	-0.012273105
84	0x3ce7dce8	0.028303578
85	0x3da6c41b	0.08142873
86	0x3dc352a2	0.09537245
87	0x3d8843bd	0.06653545
88	0xbcfb9ec5	-0.030715356
89	0xbe0e7aee	-0.13914081
90	0xbb89e384	-0.00420803
91	0x3d5bf181	0.053697113
92	0xbc97c435	-0.018526176
93	0x3d5477fd	0.051872242
94	0xbd50df01	-0.050993923
95	0xbd51fba1	-0.051265363
96	0xbcc06b41	-0.023488643
97	0x3d0a2aa9	0.03373209
98	0x3c9811c5	0.01856316
99	0xba898891	-0.001049297
100	0xbdf2fa76	-0.11864178
101	0xbce88361	-0.028382959
102	0x3c67694e	0.014124228
103	0xbb6907ae	-0.0035557556
104	0xbda8fe1b	-0.08251592
105	0xbdc05f45	-0.09393171
106	0xbc4fb850	-0.012678221
107	0xbd0767b1	-0.033057872
108	0xbd183881	-0.03716326
109	0x3d40b69b	0.047049146
110	0x3d8d06f4	0.06886092
111	0xbdbc0f9f	-0.09182667
112	0x3d4aa6c9	0.049475465
113	0xbc3482ba	-0.011017496
114	0xbadd516c	-0.0016885228
115	0xbd89bc08	-0.06725317
116	0xbbba3301	-0.0056823497
117	0xbd6e69d8	-0.05820641
118	0x3cb32c7f	0.021871803
119	0xbdc7f47f	-0.09763431
120	0xbd55335a	-0.052050926
121	0x3c4fabed	0.012675268
122	0xbc882e47	-0.01662363
123	0xbb3aa8e3	-0.0028482012
124	0x3d951a99	0.07280464
125	0xbab169b9	-0.0013535536
126	0x3d1cdba6	0.03829541
127	0xbd917acd	-0.071035005
128	0x3d842110	0.06451619
129	0xbd561fd2	-0.05227644
130	0x3d3356ea	0.04378406
131	0xbd5cefa0	-0.05393946
132	0x3a3c11a9	0.00071742624
133	0xbc1f484a	-0.009721825
134	0x3bb638f6	0.0055609895
135	0x3d132e53	0.03593285
136	0x3da6c189	0.08142383
137	0x3ce3b2e3	0.02779526
138	0xbc9c5ab7	-0.019086225
139	0x3d793c20	0.060848355
140	0xbd08b46e	-0.033375196
141	0x3d4c51e2	0.049882777
142	0xbe1d9e5f	-0.15392445
143	0xbd91257e	-0.07087229
144	0xbdbacb60	-0.09120822
145	0xbd2e097c	-0.042489514
146	0xbd83a1d0	-0.06427348
147	0x3da43b5b	0.08019134
148	0xbe0fdb8a	-0.14048591
149	0xbd2f9b58	-0.042872757
150	0x3df37c35	0.11888925
151	0xbd14cd88	-0.036328822
152	0xbd2346ca	-0.03986243
153	0x3d1b11a3	0.037858617
154	0x3cf0da65	0.029401014
155	0x3d4682ee	0.048464708
156	0xbd2b9262	-0.04188765
157	0x3da02051	0.07818664
158	0x3c970d18	0.01843886
159	0xbd2f7124	-0.04283251
160	0xbd2aebac	-0.04172866
161	0xbcd5df9e	-0.026107606
162	0x3d6575af	0.056020435
163	0x3d5f001d	0.054443467
164	0x3ce77385	0.028253326
165	0x3d840301	0.064458854
166	0xbc96b7f7	-0.018398268
167	0x3dc8d273	0.09805765
168	0x3d99f8a5	0.07518128
169	0x3ddf3e8f	0.10900604
170	0xbdd88796	-0.10572736
171	0x3da104e8	0.07862264
172	0x3bb36416	0.0054745777
173	0xbd51202a	-0.051056065
174	0xbd233d51	-0.039853398
175	0x3d76ce5e	0.0602554
176	0xbde747ab	-0.112929665
177	0xbb1546ac	-0.002277772
178	0x3caa8142	0.020813588
179	0x3be5469f	0.006996944
180	0x3d944811	0.07240308
181	0x3ce06835	0.02739344
182	0xbcd81c39	-0.026380645
183	0xbddb73e9	-0.107154675
184	0x3cbcedf1	0.023062678
185	0x3c887b8b	0.016660472
186	0xbd382b6e	-0.044963293
187	0xbc91f970	-0.017819136
188	0x3c998d3b	0.018744102
189	0x3d888c3d	0.06667373
190	0x3d03e397	0.03219947
191	0x3d86f1db	0.06589099
192	0x3d18ed26	0.037335537
193	0x3c116772	0.008874761
194	0xbe127a2d	-0.14304419
195	0x3c73976a	0.014867643
196	0xbd425a20	-0.04744923
197	0xbda5e9ee	-0.08101259
198	0x3dcb6468	0.0993126
199	0xbd22a704	-0.03971006
200	0xbd86f5e8	-0.06589872
201	0x3d35999f	0.044335958
202	0x3bc3c399	0.005974245
203	0x3de24be8	0.11049634
204	0xbd52c944	-0.051461473
205	0x3d99bc32	0.075065985
206	0x3db5f642	0.088848606
207	0x3d6b9485	0.057514686
208	0x3e17e67b	0.14834015
209	0xbe435ec0	-0.19079113
210	0x3d5df404	0.05418779
211	0xbcc4d300	-0.024026394
212	0xbd15df14	-0.036589697
213	0xbcca8e53	-0.024726069
214	0xbc64b6da	-0.013959611
215	0xbd41c6a1	-0.047308568
216	0xbdc330c7	-0.09530788
217	0xbcc22a0d	-0.023701692
218	0x3d62feba	0.055418707
219	0xbd2fd5ec	-0.04292862
220	0x3dfe62d7	0.12421196
221	0xbc8fa312	-0.017533813
222	0x3d9f8229	0.07788498
223	0xbcaef8bd	-0.021358842
224	0xbc5272cf	-0.012844755
225	0x3d50f3c9	0.05101374
226	0xbcc204de	-0.023683961
227	0x3d916e1e	0.07101081
228	0x3d36c7fe	0.04462432
229	0xbd31c9da	-0.04340539
230	0xbde7538f	-0.112952344
231	0x3d101069	0.0351719
232	0xbd673499	-0.056446645
233	0xbd8e1709	-0.06937987
234	0x3dc3a508	0.095529616
235	0x3c985777	0.018596394
236	0xbdbca899	-0.09211845
237	0x3d4afb99	0.04955635
238	0xbcee2b97	-0.02907352
239	0x3cfc0b4c	0.030767106
240	0x3d8dcd7a	0.06923957
241	0x3d34226f	0.04397815
242	0xbcb9e703	-0.022693163
243	0x3db2f2c7	0.08737712
244	0xbc671322	-0.014103683
245	0xbdcc5bc1	-0.09978438
246	0xbe1c0077	-0.15234552
247	0xbc847808	-0.016170517
248	0xbcf9362d	-0.03042134
249	0xbbbdf7ab	-0.0057973466
250	0x3b66a4b4	0.0035193386
251	0xbdd3b47d	-0.1033716
252	0x3cd99bef	0.026563613
253	0x3c38ab57	0.011271319
254	0xbd2eda85	-0.042688865
255	0x3cabefd5	0.020988384

bias f4 [128]
0	0x3ce39339	0.027780162
1	0x395b162d	0.00020893729
2	0x3c39e818	0.011346839
3	0x3c4e516e	0.012592657
4	0xbb818460	-0.003952548
5	0xbc90b582	-0.017664675
6	0x3bcdef0a	0.006284599
7	0x3b680faa	0.0035409727
8	0xbc95d499	-0.018289851
9	0x3abe21f2	0.0014505966
10	0xbb545ce0	-0.003240399
11	0xbc84e653	-0.016223108
12	0x3da322d7	0.079656295
13	0xbbd1c0e4	-0.006401168
14	0x3d82beaf	0.06384026
15	0x3d4b9794	0.049705103
16	0x3da37dea	0.079830006
17	0xbbcb04ca	-0.0061956393
18	0xbc6e8238	-0.014557414
19	0x3c59364a	0.013257572
20	0xbc12a265	-0.008949851
21	0x3cccda0f	0.025006322
22	0x3cd713cb	0.026254555
23	0xbb05b83c	-0.0020404002
24	0x3c91d042	0.0177995
25	0xbc9b70d4	-0.0189747
26	0x3cf13309	0.02944328
27	0xb9dc253a	-0.00041989406
28	0x3c30a229	0.0107808495
29	0x3c6fb889	0.014631399
30	0x3c2bdea7	0.010490096
31	0x3cc84aa2	0.02444965
32	0x3d1539fc	0.03643225
33	0xbbc34137	-0.005958702
34	0xbc89f8cc	-0.016842268
35	0xbbda081b	-0.0066537983
36	0xbc0b0f69	-0.008487561
37	0xbcac542f	-0.021036236
38	0x3d74e4d2	0.059788533
39	0x3b1b6462	0.0023710956
40	0x3d066ac8	0.03281668
41	0x3d37e287	0.044893768
42	0x3d8901ad	0.06689773
43	0x3dc8bc2b	0.09801515
44	0x3c55a7fc	0.013040539
45	0x3b8b24a4	0.0042463113
46	0xbc41d5d0	-0.011830762
47	0xbcb50e85	-0.02210165
48	0x3c300237	0.010742716
49	0x3b4ec8a2	0.0031552692
50	0xbbfc128c	-0.0076926406
51	0xbc91240a	-0.01771738
52	0xbc494e69	-0.012286761
53	0x3ce344a2	0.027742688
54	0xbc9ce0fb	-0.019150248
55	0x3d27041a	0.040775396
56	0x3d28b1fc	0.041185364
57	0x3b9417c9	0.004519437
58	0xba94019a	-0.0011291981
59	0x3d5c7996	0.05382689
60	0x3df17a0a	0.11790855
61	0xbc5f8d71	-0.013644562
62	0x3b646579	0.0034850521
63	0xbbd3d3dc	-0.0064644646
64	0x3c6ffaac	0.014647167
65	0x3d7ee67e	0.062231533
66	0x3cec1a11	0.028821023
67	0xbca5ef0c	-0.020255588
68	0xbbc8d150	-0.0061284676
69	0x3d7a21d5	0.06106742
70	0x3c09b15c	0.008404102
71	0x3b854c1d	0.0040679113
72	0xbb1c3a39	-0.0023838414
73	0x3d0d7060	0.034530997
74	0x3d857413	0.0651628
75	0x3d464a73	0.048410844
76	0xbc7e17f7	-0.015508643
77	0xba662277	-0.00087789394
78	0x3a4d6b7d	0.00078361464
79	0x3cd7050f	0.02624753
80	0xbc941df5	-0.01808069
81	0xbbc8c18a	-0.0061265873
82	0x3a50a731	0.0007959484
83	0x3d2961a8	0.041352898
84	0x3d0862dd	0.03329741
85	0x3b9a40e4	0.0047074426
86	0x3c4a25d4	0.0123381205
87	0xbca9418d	-0.02066114
88	0xbb447ac3	-0.0029980398
89	0xbc848122	-0.016174857
90	0xbc1be692	-0.009515421
91	0x3d090e33	0.033460807
92	0x3d2b6648	0.04184559
93	0x3c0ca4c7	0.008584208
94	0xbc5847d5	-0.01320072
95	0xbbe0f1b0	-0.006864749
96	0x3ca98ec3	0.020697957
97	0xbc830a71	-0.01599619
98	0x3d718be9	0.05897132
99	0xbc3f0a41	-0.01166016
100	0xb9cb34fc	-0.00038758654
101	0x3c974f83	0.018470531
102	0xbca72be4	-0.02040667
103	0x3db6c83c	0.089249104
104	0x3c069477	0.008214108
105	0x3e198595	0.14992364
106	0x3ca3f2c6	0.020013224
107	0xbc958823	-0.018253392
108	0x3d3a6c3b	0.045513373
109	0x3d761e13	0.060087275
110	0xbc9b5ffa	-0.018966664
111	0x3d8aa79c	0.0677025
112	0x3d317930	0.043328464
113	0x3d255930	0.04036826
114	0x3dad32ce	0.08456956
115	0x3ce3ed2c	0.027823053
116	0x3c1e2b8a	0.009653935
117	0x3c98519a	0.018593598
118	0x3d1b0933	0.03785057
119	0x3cc4fd04	0.024046429
120	0x3bb15f13	0.005412945
121	0xbe781dc1	-0.242301
122	0x3d60c39c	0.054874048
123	0x3d89c6b7	0.06727355
124	0x3baa324c	0.005193984
125	0xbbfc11f8	-0.0076925717
126	0x3db485ef	0.08814608
127	0xbc71225a	-0.014717663

weight f4 [1, 128]
0	0x39c3f0da	0.00037372747
1	0xbae67ed3	-0.0017585404
2	0xbafe73bd	-0.0019413155
3	0x3b1499cc	0.0022674678
4	0xba4ceba2	-0.00078170944
5	0xbe504198	-0.20337522
6	0xbd2740a3	-0.040833127
7	0x3b2eb69c	0.0026659137
8	0x3dce158c	0.100627035
9	0x3c4141c5	0.011795466
10	0xb7c1d76f	-2.3107712e-05
11	0x3b3727e6	0.0027947365
12	0x3caf45f3	0.02139566
13	0x39e11a7f	0.00042935085
14	0x3c08ad5f	0.008342116
15	0x3b41665c	0.0029510474
16	0x3be7b878	0.007071551
17	0x3b6a7295	0.0035773863
18	0x3e469c0e	0.19395468
19	0xba9a5f21	-0.0011777618
20	0x3e393932	0.18088225
21	0xbacbf5d1	-0.001556093
22	0x3bbc4ebf	0.005746692
23	0xbc6ec588	-0.014573462
24	0x3d3ac5a6	0.04559865
25	0x3dc26942	0.094927326
26	0x3b63134b	0.003464895
27	0xbadbe5eb	-0.0016776895
28	0xbb57c134	-0.0032921555
29	0x3bbbc2cd	0.005730009
30	0xba40ce3d	-0.00073549506
31	0xbbb608dd	-0.005555256
32	0x3ad923e9	0.0016566488
33	0xbbb23e5f	-0.005439564
34	0x3e364b8d	0.17802258
35	0x3e52e6b0	0.20595813
36	0xbd0dab78	-0.034587353
37	0xbd65c07b	-0.056091767
38	0x3d4c3708	0.04985717
39	0xbb55ebf0	-0.003264185
40	0x3c73105c	0.014835443
41	0x3c88a591	0.01668051
42	0x3a647e79	0.00087163557
43	0x3d12dda2	0.035855897
44	0x3a079558	0.0005172095
45	0xbad76f0e	-0.0016436295
46	0xbe1a2ff5	-0.15057357
47	0xbc18a6e2	-0.009317132
48	0xbaa44b34	-0.0012534619
49	0x3b36da9e	0.0027901302
50	0x3db2dc4b	0.08733424
51	0x3c116223	0.008873495
52	0x3e1a2fcc	0.15057296
53	0xbae25fd9	-0.0017270996
54	0xbdcdff3f	-0.1005845
55	0x3ba8dd19	0.00515331
56	0x3c6dedfe	0.014522074
57	0xbb3d19b3	-0.002885443
58	0x3bc13129	0.005895753
59	0xbc043181	-0.008068443
60	0x3cf52d84	0.02992893
61	0x3d9d7af3	0.07689466
62	0xbbb3788e	-0.0054770177
63	0x3a2a0659	0.0006485931
64	0x36bb0df0	5.574657e-06
65	0x3adc95ed	0.0016829349
66	0x390ccac1	0.00013426972
67	0xbd717fbe	-0.058959715
68	0x3b49b4bb	0.003077789
69	0x3b9dcf81	0.004815996
70	0xbb18865a	-0.002327344
71	0x3bbf6fb0	0.0058421716
72	0xbb4cfbd6	-0.0031278036
73	0x3b9cbdf1	0.004783385
74	0x3b03cbaf	0.0020110419
75	0x3b4995a8	0.0030759368
76	0x3dc7d1ae	0.0975679
77	0x3dcc5326	0.09976797
78	0xba3bf841	-0.00071704766
79	0xba27bdd2	-0.000639883
80	0x3dff30ff	0.12460517
81	0xbaed416d	-0.0018101163
82	0x3cb6adec	0.02229973
83	0x3c4da573	0.012551653
84	0x3aa0b255	0.0012260178
85	0xbc1cedd8	-0.009578191
86	0x3bc5740e	0.0060257977
87	0xbe4b13f8	-0.19831836
88	0xbb910700	-0.0044258833
89	0xbd292141	-0.04129148
90	0xbce128f5	-0.02748535
91	0xbcafeb3e	-0.021474477
92	0x3c6fbf8f	0.0146330735
93	0x3c529f16	0.012855312
94	0x3e161287	0.14655505
95	0xbb15bf0b	-0.0022849466
96	0x369fa7af	4.75809e-06
97	0x3e09815a	0.1342825
98	0x3bf8e654	0.0075958166
99	0xbaf81ba3	-0.0018929135
100	0x3ab2f8d6	0.0013654481
101	0x398b98a9	0.00026625887
102	0xbe00243c	-0.12513822
103	0x3c1a74db	0.009427275
104	0xbae9e5b7	-0.001784495
105	0x3cd0d915	0.025494138
106	0x3a81561d	0.0009867583
107	0xbdd94430	-0.10608709
108	0x3b9fbb0a	0.0048745917
109	0x3a53c30f	0.0008078077
110	0x3dc2f3d7	0.09519165
111	0x3c04c601	0.008103848
112	0x3b551a6a	0.0032516965
113	0x3c26d239	0.010181957
114	0x3bcf34d5	0.0063234367
115	0x3ad63271	0.0016341937
116	0xbc54d74c	-0.012990784
117	0xbb75a89f	-0.003748454
118	0xbc892d0b	-0.016745111
119	0x3a73572d	0.00092827046
120	0x3c5bd676	0.013417831
121	0xbd88ede5	-0.06686
122	0xbb947641	-0.0045306985
123	0x3b8d6ae4	0.004315721
124	0xbbffa582	-0.0078017125
125	0xbb1f349e	-0.0024292837
126	0x3c30d700	0.0107934475
127	0xbdda4bde	-0.10659002
