saved_trials/a2c-hard/MiniWorld-Maze-v0.pt (torch_old, 812358 bytes, 23 tensors)

weight f4 [32, 12, 5, 5]
0.023853423 -0.010385799 0.03884255 -0.10509752 0.015528665 0.082340725 -0.060156953 0.05142758
0.09113971 -0.1665512 0.059817117 0.039426584 -0.060800992 -0.034751244 -0.0062545035 0.014776411
-0.155692 -0.17039847 -0.13239746 -0.06043891 0.062935255 0.1378506 -0.0010011526 0.018961623
0.007403519 0.052011587 0.019410608 0.02366207 0.039799765 0.04469126 0.09535491 0.044230714
-0.044509422 0.06250654 0.02879956 -0.013306799 0.021614686 -0.03462653 0.02476761 -0.123200394
0.001961882 0.01586832 0.124662854 -0.010473756 -0.012648165 -0.025307672 -0.10069611 0.04430631
0.12210175 -0.034134872 0.022127597 0.13419089 -0.05357794 -0.033587255 -0.0006337445 0.082822934
0.03432569 0.11132449 -0.15540771 0.01579635 0.0041813473 -0.023273982 0.029573957 0.065318845
0.1970833 0.0922051 0.068474196 0.09411145 -0.018032078 0.116011016 0.11306667 -0.058536876
-0.03747631 0.108838126 0.06429171 0.018551666 -0.044539165 -0.04945079 -0.03700731 -0.0058704787
-0.041892238 -0.123338565 -0.12630633 0.04191464 0.026274823 0.020384692 -0.17210093 -0.07287142
0.083375566 0.07699393 -0.009861491 -0.027101709 -0.07109392 0.010704974 0.13196917 -0.12544592
-0.17940454 -0.07088354 -0.11693511 -0.07324617 0.0077747717 -0.019421889 -0.05575822 -0.003798339
-0.019653136 -0.0035110095 0.05812252 -0.065521546 0.083923735 0.13525769 0.085972235 -0.05111989
0.022716934 0.0059949136 0.06516888 -0.002435759 -0.05170128 -5.8805897e-05 -0.0033332491 0.16704312
-0.07655232 0.023118 0.06859594 -0.08543314 -0.00238548 0.092653975 -0.10291817 0.0779482
-0.024509003 0.11891084 0.10537781 -0.060349215 0.053801112 -0.13303085 -0.0042933184 0.0038341784
0.11581775 -0.06151522 0.17699818 -0.029940182 0.013968491 0.21516187 0.08132013 0.016427955
-0.025379336 0.044490166 0.010181624 0.13637033 -0.0048001064 0.11981142 -0.0073588947 -0.12326764
-0.059566516 -0.027571537 -0.1293475 -0.024611428 -0.12641662 0.024160106 -0.05270868 0.039047603
0.018128535 0.08441595 0.05222036 -0.06561775 -0.01587906 0.06909549 -0.05963503 -0.040736634
0.06404649 0.040324505 0.03292252 0.037254676 0.09497021 -0.09452534 0.10004079 0.069778904
0.010435258 0.05574995 0.14791927 0.14473139 -0.0043426785 0.043552935 -0.044173528 0.054298654
-0.029821675 -0.019028185 0.06876685 -0.13929923 0.17890851 0.020828623 -0.054082476 0.015179297
0.002677589 0.014670287 0.028241778 0.054155827 0.06350508 -0.051920928 -0.07705873 -0.09398445
0.0649662 0.24416724 -0.022279093 0.011148922 -0.026233457 -0.15171044 0.11459017 -0.10003056
0.06550645 0.0042263772 -0.26564005 0.0932062 -0.15241344 -0.08619207 -0.22770272 0.005221428
0.017773608 0.08517417 0.022907082 -0.013416708 -0.063700296 -0.09315018 -0.08812198 0.16231373
0.025412275 -0.004547494 0.003821033 -0.03509302 0.024173357 0.017002786 -0.036483284 -0.14013754
-0.023194844 -0.10951368 0.0462642 0.08868375 0.107868426 -0.029372772 -0.1372303 -0.047862396
-0.050081633 -0.056785855 0.097575694 0.017005458 -0.03376459 -0.04091386 0.027443264 0.024843754
0.101560764 -0.006881732 -0.11854199 0.00861592 0.10209973 -0.019160468 -0.034751315 0.015551815
00000000: 4168 c33c 3329 2abc 5e19 1f3d 5e3d d7bd
00000010: f16b 7e3c 41a2 a83d 2367 76bd baa5 523d
00000020: 75a7 ba3d 668c 2abe cb02 753d c57d 213d
00000030: 760a 79bd 5257 0ebd 94f2 ccbb c218 723c
00000040: b96d 1fbe f07c 2ebe 3393 07be ca8e 77bd
00000050: 33e4 803d b528 0d3e 1b39 83ba 6855 9b3c
00000060: 3899 f23b 1a0a 553d ff02 9f3c f5d6 c13c
00000070: 1405 233d 2f0e 373d 6f49 c33d 442b 353d
00000080: 834f 36bd 6e03 803d 0eed eb3c c304 5abc
00000090: 4811 b13c 8cd4 0dbd 71e5 ca3c 7d50 fcbd
000000a0: eb92 003b 47fe 813c 3d4f ff3d 1e9a 2bbc
000000b0: 403a 4fbc 0952 cfbc c339 cebd 897a 353d
000000c0: 7b10 fa3d 02d1 0bbd ef44 b53c 5669 093e
000000d0: 8b74 5bbd ca92 09bd e021 26ba 129f a93d
000000e0: 1899 0c3d 18fe e33d 3323 1fbe 5967 813c
000000f0: af03 893b 14a9 bebc 1545 f23c e3c5 853d
00000100: 34d0 493e 07d6 bc3d 333c 8c3d 81bd c03d
00000110: 02b8 93bc 2f97 ed3d 808f e73d 5dc4 6fbd
00000120: c280 19bd 86e6 de3d 5fab 833d aaf9 973c
00000130: b36e 36bd e98c 4abd fa94 17bd 255d c0bb
00000140: 3297 2bbd ee98 fcbd 7256 01be b0ae 2b3d
00000150: 4c3e d73c ccfd a63c 3a3b 30be 9c3d 95bd
00000160: cfc0 aa3d feae 9d3d 1792 21bc 6704 debc
00000170: b099 91bd ea63 2f3c ed22 073e e574 00be
00000180: d3b5 37be 642b 91bd ad7b efbd 1702 96bd
00000190: 83c3 fe3b a71a 9fbc bb62 64bd 8eed 78bb
000001a0: 9dff a0bc f718 66bb e111 6e3d 2930 86bd
000001b0: 35e0 ab3d fe80 0a3e 3612 b03d 1763 51bd
000001c0: dd18 ba3c fb70 c43b 4377 853d 41a1 1fbb
000001d0: b9c4 53bd 5aa6 76b8 a472 5abb 5a0d 2b3e
000001e0: 76c7 9cbd f661 bd3c 077c 8c3d 92f7 aebd
000001f0: b755 1cbb 5ec1 bd3d c3c6 d2bd 4ea3 9f3d
00000200: 1bc7 c8bc 8787 f33d 52d0 d73d bd30 77bd
00000210: 8e5e 5c3d 3d39 08be f7ae 8cbb d746 7b3b
00000220: db31 ed3d 62f7 7bbd 033f 353e 1d45 f5bc
00000230: 19dc 643c 6553 5c3e 2b8b a63d eb93 863c
00000240: 53e8 cfbc 523b 363d d4d0 263c aaa4 0b3e
00000250: 364a 9dbb b15f f53d e222 f1bb bf73 fcbd
00000260: 05fc 73bd b4dd e1bc ac73 04be e89d c9bc
00000270: 5c73 01be 6aeb c53c 0fe5 57bd 61f0 1f3d
00000280: 4b82 943c 45e2 ac3d 04e5 553d 9962 86bd
00000290: cd14 82bc f081 8d3d dc43 74bd 75db 26bd
000002a0: ce2a 833d 4f2b 253d c4d9 063d 5c98 183d
000002b0: be7f c23d 8096 c1bd 30e2 cc3d 3ee8 8e3d
000002c0: a5f8 2a3c 0f5a 643d 2678 173e 7734 143e
000002d0: 074d 8ebb 9064 323d 4def 34bd 4468 5e3d
000002e0: 964c f4bc ffe0 9bbc a2d5 8c3d 75a4 0ebe
000002f0: cb33 373e caa0 aa3c 9685 5dbd 96b2 783c
00000300: 7d7a 2f3b a55b 703c 4d5b e73c 80d2 5d3d
00000310: f40e 823d 0aab 54bd f8d0 9dbd eb7a c0bd
00000320: 000d 853d fa06 7a3e a582 b6bc f8a9 363c
00000330: 8ce7 d6bc fb59 1bbe 40ae ea3d d2dc ccbd
00000340: 3f28 863d 6c7d 8a3b f901 88be e4e2 be3d
00000350: 4512 1cbe 7885 b0bd e72a 69be 8318 ab3b
00000360: f599 913c cc6f ae3d a2a7 bb3c c1d1 5bbc
00000370: 4d75 82bd 86c5 bebd 4c79 b4bd 9235 263e
00000380: 672d d03c 2503 95bb 4c6a 7a3b b3bd 0fbd
00000390: 3407 c63c 6d49 8b3c 7f6f 15bd 3780 0fbe
000003a0: 1d03 bebc b548 e0bd 887f 3d3d d39f b53d
000003b0: 1fea dc3d 2b9f f0bc 1a86 0cbe 5c0b 44bd
000003c0: 6622 4dbd 4998 68bd c4d5 c73d 084f 8b3c
000003d0: bd4c 0abd 4b95 27bd b2d0 e03c 2185 cb3c
000003e0: 17ff cf3d 2780 e1bb 25c6 f2bd ca29 0d3c
000003f0: aa19 d13d 6af6 9cbc 6557 0ebd 0acd 7e3c

bias f4 [32]
1.2244288e-06 1.7284748e-06 -4.9932135e-07 -9.673524e-08 1.9262561e-06 -2.5806048e-07 -1.2026533e-06 -1.9738454e-06
-8.526878e-07 8.770738e-08 -1.7008382e-06 9.137584e-07 1.7643305e-06 -9.776817e-07 -4.513824e-08 -6.981768e-07
1.0042521e-06 -9.558253e-08 -6.512718e-09 -1.908037e-06 4.8860915e-07 -1.1320539e-06 5.5342653e-08 1.0124029e-06
-6.304549e-08 9.620155e-07 -2.3104042e-06 5.812901e-07 -1.1700646e-06 2.88683e-07 4.1422544e-07 -2.989748e-07
00000000: 0e57 a435 f1fd e735 1a09 06b5 c3bc cfb3
00000010: d444 0136 908b 8ab4 da6a a1b5 6876 04b6
00000020: 42e4 64b5 a459 bc33 5b48 e4b5 0049 7535
00000030: efcd ec35 e338 83b5 05de 41b3 586a 3bb5
00000040: d7c9 8635 0d43 cdb3 79c6 dfb1 d30b 00b6
00000050: f728 0335 13f1 97b5 e4b1 6d33 e6e1 8735
00000060: a063 87b3 9a1e 8135 710c 1bb6 f409 1c35
00000070: 1d0b 9db5 4afc 9a34 b662 de34 c982 a0b4

weight f4 [32]
1.0148321 0.9784911 0.98580354 0.98931015 1.0090839 0.995951 0.9808547 0.99415284
1.0030345 0.9827684 0.9743 1.019868 0.96565706 0.9694586 1.0306998 0.99244934
0.9781329 0.97994566 0.9908134 0.97749346 1.0019928 1.0220916 0.9640441 0.99463207
0.9878587 0.98979294 1.0242485 0.9944837 1.0274286 0.9911342 1.0272602 0.9814722
00000000: 05e6 813f 657e 7a3f 9f5d 7c3f 6e43 7d3f
00000010: a929 813f a5f6 7e3f 4b19 7b3f cd80 7e3f
00000020: 6f63 803f b696 7b3f ba6b 793f 098b 823f
00000030: 4d35 773f 702e 783f f9ed 833f 2911 7e3f
00000040: eb66 7a3f b8dd 7a3f f2a5 7d3f 033d 7a3f
00000050: 4d41 803f e6d3 823f 98cb 763f 35a0 7e3f
00000060: 4fe4 7c3f 1263 7d3f 931a 833f 7c96 7e3f
00000070: c882 833f f9ba 7d3f 437d 833f c341 7b3f

bias f4 [32]
-0.0066700075 -0.020291023 0.0061395285 -0.0023778358 -0.0088083865 0.00156463 -0.03226942 0.0017058047
0.0020675932 -0.010863941 -0.023480313 -0.037732016 -0.03135655 -0.016765414 -0.0025483265 -0.005885167
-0.029719844 -0.024589809 -0.0013788234 -0.00328032 0.010315026 -0.020063614 -0.035852984 -0.0055690794
0.0015452692 -0.010141453 -0.018747324 -0.0035383643 -0.007118425 -0.017101025 -0.033389438 -0.030799743
00000000: 1490 dabb 5c39 a6bc 192e c93b 77d5 1bbb
00000010: 0d51 10bc 4514 cd3a f02c 04bd 4f95 df3a
00000020: 7580 073b acfe 31bc c959 c0bc e38c 1abd
00000030: ba6f 00bd 9f57 89bc d301 27bb 5cd8 c0bb
00000040: 0877 f3bc 9170 c9bc a3b9 b4ba a3fa 56bb
00000050: 5b00 293c 735c a4bc 94da 12bd d37c b6bb
00000060: a18a ca3a 5628 26bc fd93 99bc e7e3 67bb
00000070: ad41 e9bb 7317 8cbc 5dc3 08bd be4f fcbc

running_mean f4 [32]
0.47332197 0.6632197 0.42282555 -0.3790865 0.33706027 1.2802101 -0.7146241 -0.7697272
-0.7686618 -0.63934994 -0.7923308 0.32602492 0.08849035 -0.4450509 0.44880444 0.76437825
-0.35546184 0.81150496 0.5017342 0.6362341 -0.7341568 -0.1522737 -0.65903467 0.43477258
-0.7505009 1.0339309 -0.37036145 -0.6280866 0.52074116 -0.2710889 -0.37091666 -0.4107271
00000000: 4257 f23e c4c8 293f 977c d83e a017 c2be
00000010: 2a93 ac3e eddd a33f 9bf1 36bf d70c 45bf
00000020: 05c7 44bf 70ac 23bf 31d6 4abf bdec a63e
00000030: 6e3a b53d b6dd e3be b2c9 e53e 4bae 433f
00000040: 18ff b5be cabe 4f3f a771 003f 3de0 223f
00000050: b3f1 3bbf a3ed 1bbe 7fb6 28bf 839a de3e
00000060: d420 40bf d957 843f 04a0 bdbe 49ca 20bf
00000070: 4b4f 053f 2acc 8abe cae8 bdbe d34a d2be

running_var f4 [32]
0.03121265 0.021668948 0.013892698 0.011564471 0.022338428 0.073492445 0.025167255 0.033517927
0.027067043 0.0245278 0.029355466 0.007374929 0.0059262323 0.010494343 0.008573699 0.036964595
0.01038498 0.021962326 0.028107058 0.017774299 0.040205754 0.0107641015 0.023510126 0.010651256
0.03694161 0.05168908 0.008110174 0.024665883 0.010791315 0.0072339354 0.027856167 0.017407715
00000000: acb1 ff3c 1483 b13c 339e 633c e878 3d3c
00000010: 14ff b63c 3583 963d 8f2b ce3c 184a 093d
00000020: b4bb dd3c 86ee c83c e07a f03c 63a9 f13b
00000030: d730 c23b 77f0 2b3c b378 0c3c 3068 173d
00000040: c325 2a3c 56ea b33c c640 e63c 689b 913c
00000050: caae 243d ea5b 303c 4f98 c03c 9b82 2e3c
00000060: 1650 173d eeb7 533d 89e0 043c 1b10 ca3c
00000070: 0ece 303c a60a ed3b 9e32 e43c a09a 8e3c

weight f4 [32, 32, 5, 5]
0.019496035 0.07387329 -0.037038125 -0.13683149 -0.025655642 -0.007078832 0.019985193 -0.018175416
-0.042957183 0.05912987 -0.012057016 0.041095383 -0.008473812 0.039638765 -0.010762681 0.021019092
0.006627963 0.061368942 -0.00087241206 -0.05751592 0.00067705486 0.048566 -0.026488485 0.031826973
-0.024405085 -0.05065901 0.015576865 -0.049937382 -0.0012442578 -0.0043495013 -0.01100971 0.0125439195
-0.037025705 0.03650062 -0.024814298 -0.07665725 -0.09312848 -0.022956619 0.010283707 -0.11736188
-0.0075254766 0.026131555 0.0103107225 0.01727376 -0.033990335 -0.00669388 0.007480656 -0.061582956
-0.0039140806 0.023743588 -0.059458245 -0.030974621 -0.0045219753 0.044237375 -0.06566455 -0.08572846
0.045336 0.08493327 0.012904663 -0.012376035 -0.0875832 -0.036796074 -0.054448433 0.073502675
-0.10244818 -0.006212387 -0.04916218 -0.063715845 -0.042402085 0.031340916 -0.052385367 0.06753689
-0.06310871 -0.0587186 -0.033779398 -0.087178096 -0.011945189 0.09426718 0.062095888 -0.021126043
0.0507132 -0.06630643 -0.034501042 0.0019021197 -0.083126955 -0.03864961 -0.017529937 -0.039178774
-0.0392647 -0.05156702 -0.019717516 0.09813311 0.07745039 0.007410883 -0.04329222 0.00044511014
0.08761382 -0.032086078 -0.020518607 0.121886685 -0.008117429 0.018992955 0.008784416 0.03027447
0.058810417 0.034959313 -0.0015415584 0.0055219415 0.015562719 -0.028985668 -0.079955444 -0.027579656
0.0638113 -0.08712683 -0.0025712806 -0.030782722 -0.014814288 0.03171747 -0.052787345 0.05562963
0.03275897 -0.038300306 -0.082586944 -0.060507186 -0.042311218 0.014283433 0.021460727 0.020933742
-0.030061278 -0.0049627624 -0.020046683 -0.01227907 -0.041601665 0.061294943 -0.037962124 0.025653547
0.006472892 -0.03486726 0.10980347 -0.027762633 -0.067311 -0.07454749 -0.016459465 0.0531713
-0.037276607 0.018844493 -0.0077268095 -0.04581986 0.012926913 -0.08816875 0.011963946 -0.049559966
0.035544604 0.04144935 -0.0431376 -0.05642783 -0.011309685 0.01730336 -0.002836822 -0.05267164
-0.038143028 -0.048559085 -0.016282873 -0.05574522 0.025613908 0.06844086 -0.056163467 0.07355495
-0.069362424 0.015682522 0.063398704 -0.004129455 -0.009792151 -0.025307685 -0.066961996 -0.014258638
-0.009305051 0.014416179 -0.0033245976 0.05903455 0.038158618 0.09351639 -0.019806396 -0.058556966
0.021597479 0.0135580255 0.03831379 0.050869875 0.061514203 0.045325518 -0.05868836 0.002344869
0.014305249 0.026759353 0.09233054 -0.004095146 0.044917446 -0.0027962094 -0.02182833 -0.0064129215
0.0120676905 -0.018665373 0.019134311 0.10910312 -0.01365136 0.08278661 0.0068800556 -0.032369766
3.6503872e-05 0.15012433 0.013600087 0.018316548 0.079822734 0.08219392 -0.035766922 0.026899183
0.029390482 -0.0069682393 -0.00608015 -0.012070765 -0.0035374884 0.023809861 0.153624 -0.004579804
-0.036972538 0.06627922 -0.020318761 -0.096535616 0.105741106 0.031234138 -0.024269031 -0.03207238
0.102622904 0.0829223 0.007617252 -0.087768234 -0.0167498 0.075086124 -0.06547266 -0.13340496
-0.026396284 0.05882978 -0.0243399 0.0062121223 -0.10397155 0.17806114 -0.009201014 0.012424944
-0.049561623 0.061679073 -0.01448734 0.029349813 0.029082555 0.007116692 0.028083825 0.07244644
00000000: 26b6 9f3c e14a 973d 4ab5 17bd 8e1d 0cbe
00000010: c82b d2bc 8cf5 e7bb fdb7 a33c 9ce4 94bc
00000020: dff3 2fbd 2a32 723d ca8a 45bc a253 283d
00000030: bed5 0abc 425c 223d f555 30bc 3b30 ac3c
00000040: 622f d93b 005e 7b3d 95b2 64ba d095 6bbd
00000050: 627c 313a 24ed 463d 61fe d8bc 005d 023d
00000060: 2ced c7bc d27f 4fbd 1b36 7f3c 248b 4cbd
00000070: 5d16 a3ba 4386 8ebb 1262 34bc 0385 4d3c
00000080: 44a8 17bd ad81 153d 5b47 cbbc 7afe 9cbd
00000090: 25ba bebd 850f bcbc fe7c 283c 6d5b f0bd
000000a0: 4698 f6bb d811 d63c 4eee 283c b381 8d3c
000000b0: 7339 0bbd 5658 dbbb 4a20 f53b 693e 7cbd
000000c0: b041 80bb ea81 c23c 7d8a 73bd 7dbe fdbc
000000d0: 142d 94bb 4032 353d 237b 86bd 6792 afbd
000000e0: 3eb2 393d 7ff1 ad3d 146e 533c dac4 4abc
000000f0: d25e b3bd 7bb7 16bd 5205 5fbd 9288 963d
00000100: 5ad0 d1bd 4791 cbbb 485e 49bd 747d 82bd
00000110: cfad 2dbd 555f 003d 0a92 56bd c850 8a3d
00000120: 243f 81bd ea82 70bd 445c 0abd 6e8a b2bd
00000130: c1b5 43bc 270f c13d 4258 7e3d 8610 adbc
00000140: a5b8 4f3d aacb 87bd f750 0dbd 8c50 f93a
00000150: 773e aabd 0e4f 1ebd f19a 8fbc ec79 20bd
00000160: 06d4 20bd f137 53bd a186 a1bc 03fa c83d
00000170: 4f9e 9e3d fed6 f23b 2f53 31bd ac5d e939
00000180: e06e b33d b16c 03bd a316 a8bc ba9f f93d
00000190: f7fe 04bc 1d97 9b3c 83ec 0f3c 2a02 f83c
000001a0: 31e3 703d 7f31 0f3d 1e0e caba 67f1 b43b
000001b0: c6fa 7e3c 5a73 edbc aebf a3bd bbee e1bc
000001c0: 80af 823d 8d6f b2bd ee82 28bb 0c2c fcbc
000001d0: a1b7 72bc 2eea 013d 8b37 58bd e5db 633d
000001e0: 452e 063d c8e0 1cbd 5823 a9bd 62d6 77bd
000001f0: 874e 2dbd 0f05 6a3c 68ce af3c 3d7d ab3c
00000200: 1243 f6bc ab9e a2bb f138 a4bc 272e 49bc
00000210: 8266 2abd 6810 7b3d 2c7e 1bbd 6327 d23c
00000220: 8e1a d43b f9d0 0ebd a4e0 e03d 766e e3bc
00000230: 59da 89bd 5bac 98bd 00d6 86bc 26ca 593d
00000240: 5baf 18bd c45f 9a3c 2d31 fdbb 9bad 3bbd
00000250: 67cb 533c d191 b4bd 6d04 443c 64ff 4abd
00000260: 3897 113d cbc6 293d 0db1 30bd de20 67bd
00000270: 424c 39bc c7bf 8d3c fae9 39bb 38be 57bd
00000280: dd3b 1cbd e4e5 46bd a963 85bc 1a55 64bd
00000290: 42d4 d13c b92a 8c3d aa0b 66bd faa3 963d
000002a0: e30d 8ebd a278 803c 2ed7 813d 6150 87bb
000002b0: 426f 20bc 1052 cfbc 5f23 89bd 109d 69bc
000002c0: 3674 18bc d631 6c3c 7ee1 59bb 36ce 713d
000002d0: 364c 1c3d 8585 bf3d 0641 a2bc 6ed9 6fbd
000002e0: 32ed b03c 7b22 5e3c ecee 1c3d ee5c 503d
000002f0: 51f6 7b3d 40a7 393d 3563 70bd 60ac 193b
00000300: 9060 6a3c 6e36 db3c cb17 bd3d 9330 86bb
00000310: 5bfb 373d 9c40 37bb 53d1 b2bc 7c23 d2bb
00000320: 90b7 453c 20e8 98bc 8fbf 9c3c 7571 df3d
00000330: f4a9 5fbc 078c a93d 1772 e13b 2996 04bd
00000340: bc1b 1938 31ba 193e e6d2 5e3c 960c 963c
00000350: 1a7a a33d 4955 a83d 5680 12bd ad5b dc3c
00000360: 4fc4 f03c d455 e4bb ff3b c7bb 75c4 45bc
00000370: 35d5 67bb e60c c33c 9c4f 1d3e 2e12 96bb
00000380: 8470 17bd 66bd 873d 8873 a6bc 77b4 c5bd
00000390: cb8e d83d bcde ff3c d9cf c6bc 545e 03bd
000003a0: f52b d23d 2bd3 a93d 249a f93b d5bf b3bd
000003b0: e036 89bc c1c6 993d 8816 86bd 4f9b 08be
000003c0: 053d d8bc 7ff7 703d 7864 c7bc 0f8f cb3b
000003d0: 09ef d4bd a955 363e dabf 16bc fe91 4b3c
000003e0: 2101 4bbd 32a3 7c3d 4f5c 6dbc 056f f03c
000003f0: 8a3e ee3c 2433 e93b 0d10 e63c cd5e 943d

bias f4 [32]
-9.213461e-09 7.427634e-08 3.9712962e-08 9.224268e-08 -6.262689e-08 3.911742e-08 -4.5255657e-08 -5.422052e-09
2.6698848e-08 6.956711e-09 -3.2489385e-08 9.159323e-08 4.6447198e-08 9.071256e-09 1.6427723e-08 9.33723e-08
9.615739e-09 -2.308251e-08 1.0835267e-08 6.327053e-10 1.4204666e-08 2.0336131e-08 -6.8678068e-09 3.9893553e-08
1.0601482e-07 3.8135536e-08 3.8101284e-08 1.0279518e-09 8.774436e-09 6.0434395e-08 -2.0410711e-08 -3.908002e-08
00000000: 3b49 1eb2 da81 9f33 dd90 2a33 f316 c633
00000010: 7f7d 86b3 0f02 2833 1f5f 42b3 e04c bab1
00000020: 6357 e532 e107 ef31 758a 0bb3 e9b1 c433
00000030: 3c7d 4733 ced7 1b32 f21c 8d32 f783 c833
00000040: 7832 2532 fa46 c6b2 0226 3a32 adea 2d30
00000050: c808 7432 a0af ae32 def9 ebb1 6d57 2b33
00000060: 43aa e333 77ca 2333 cea4 2333 d747 8d30
00000070: 61be 1632 29c8 8133 a153 afb2 f0d8 27b3

weight f4 [32]
1.0058901 1.0146269 0.9841305 1.0277996 1.0119151 1.0212817 1.011394 0.9994465
0.9882642 0.9951701 1.0187325 1.0070618 0.9952771 0.99668384 0.97760135 0.98734415
0.9967393 1.0072162 0.98223186 1.0014925 0.99902374 0.9703031 0.995587 1.0087091
1.011213 0.9888916 1.0262859 0.98215723 0.98780704 0.9812538 1.0172904 1.0037327
00000000: 02c1 803f 4bdf 813f faef 7b3f f08e 833f
00000010: 6f86 813f 5cb9 823f 5c75 813f badb 7f3f
00000020: e2fe 7c3f 78c3 7e3f d465 823f 67e7 803f
00000030: 7bca 7e3f ac26 7f3f 1544 7a3f 96c2 7c3f
00000040: 4f2a 7f3f 76ec 803f 8c73 7b3f e830 803f
00000050: 05c0 7f3f c965 783f cade 7e3f 611d 813f
00000060: 6d6f 813f 0028 7d3f 565d 833f a86e 7b3f
00000070: ece0 7c3f 7333 7b3f 9236 823f 507a 803f

bias f4 [32]
-0.01814608 -0.0051984894 -0.023045434 -0.050844066 0.00019048335 -0.020017365 -0.047007393 -0.008364431
3.363427e-05 -0.024291903 -0.0029194017 -0.054977942 0.019401722 -0.010825921 -0.0064232075 -0.002614669
-0.03897274 -0.043530747 -0.010014547 0.015773354 -0.0022142453 -0.0043594856 0.0072097457 -0.05366685
-0.020793281 -0.008613788 0.026059333 -0.02219776 -0.01701543 -0.011689145 -0.007609258 -0.0066989586
00000000: 17a7 94bc 1758 aabb c7c9 bcbc de41 50bd
00000010: 7cbc 4739 75fb a3bc d38a 40bd f70a 09bc
00000020: 8612 0d38 d0ff c6bc 6f53 3fbb 8d30 61bd
00000030: 5cf0 9e3c 345f 31bc c579 d2bb de5a 2bbb
00000040: e1a1 1fbd 4c4d 32bd 0e14 24bc 1f37 813c
00000050: df1c 11bb 04da 8ebb bb3f ec3b c5d1 5bbd
00000060: ac56 aabc d820 0dbc 627a d53c 14d8 b5bc
00000070: f163 8bbc d483 3fbc 1557 f9bb f082 dbbb

running_mean f4 [32]
-0.14602979 1.0556692 1.7505738 2.750661 0.10572282 2.5822313 1.2578619 -0.07762208
0.3426215 1.9214941 1.034231 1.3772435 -1.945676 2.5853798 -1.18426 -1.0624897
1.782943 0.9697218 -0.68640965 0.20461927 0.15042903 -1.5453584 -1.7602472 2.358082
1.8352607 0.3261888 -0.3252664 0.89139915 1.5181266 -0.5924458 0.18670934 1.3941286
00000000: d588 15be 2b20 873f cd12 e03f d40a 3040
00000010: 3585 d83d 4743 2540 9e01 a13f 53f8 9ebd
00000020: 166c af3e 85f3 f53f ae61 843f 8449 b03f
00000030: e90b f9bf dd76 2540 d595 97bf aaff 87bf
00000040: 7a37 e43f b03f 783f 8bb8 2fbf b787 513e
00000050: 110a 1a3e 4ece c5bf c84f e1bf d1ea 1640
00000060: d3e9 ea3f 3802 a73e 5189 a6be bc32 643f
00000070: f951 c23f 87aa 17bf bc30 3f3e ce72 b23f

running_var f4 [32]
3.3815737 4.678505 3.9825485 1.4783262 4.4058304 0.9324013 0.85782206 1.6335046
3.5122974 2.0984633 1.8870717 1.5749305 3.214541 4.131929 3.7961035 3.5384152
0.6565219 0.7936355 3.8889391 2.2448473 4.8917327 3.216473 3.5470252 1.6055452
2.6668198 1.9456954 4.292093 4.763313 3.6403596 3.4272778 4.008094 6.2480464
00000000: b46b 5840 50b6 9540 13e2 7e40 cb39 bd3f
00000010: 90fc 8c40 dab1 6e3f 3a9a 5b3f ae16 d13f
00000020: 7bc9 6040 394d 0640 918b f13f 5397 c93f
00000030: 0abb 4d40 c338 8440 5cf3 7240 6575 6240
00000040: d211 283f b22b 4b3f 61e4 7840 94ab 0f40
00000050: 1389 9c40 b2da 4d40 7602 6340 8182 cd3f
00000060: 2dad 2a40 8c0c f93f d358 8940 0f6d 9840
00000070: a7fb 6840 8558 5b40 4e42 8040 ffef c740

weight f4 [32, 32, 4, 4]
0.12091324 -0.03894199 -0.020334875 0.12436117 0.08429956 0.0647702 0.0043200343 -0.09974886
0.015577991 0.016675184 0.07964198 -0.072589815 0.010096255 -0.051822685 -0.0048379363 -0.042471413
-0.058301266 -0.0025467933 0.025706455 -0.07799658 -0.01354838 0.037991498 0.06038059 -0.050710823
-0.0077371267 -0.0076916385 -0.06807256 -0.018419327 0.03214006 -0.05156231 0.02477531 0.06172374
-0.044644084 0.09817412 0.040172756 -0.0005486926 -0.11509076 -0.038631987 -0.048732497 0.072002575
0.018205777 0.018767664 -0.07781452 0.005230318 -0.15474226 -0.10764351 0.03580255 0.058736376
0.044650294 -0.09049991 0.14383627 0.09514341 -0.061021533 -0.02402169 0.13908699 -0.056880757
0.106195085 0.15087351 0.0062021357 0.12626958 -0.0042990055 -0.038675852 0.045247875 0.0861545
-0.008024603 0.026246557 0.045881435 -0.06352305 0.06530341 -0.015246229 0.01181371 -0.016528934
0.05237108 0.09331861 -0.0046639373 0.018013667 0.0027684355 0.009983541 0.054442454 -0.12849434
0.02023512 0.03847842 -0.061683692 0.07161031 -0.03360446 -0.032208983 -0.15286374 -0.0015563847
-0.14936176 0.035915762 -0.08105274 0.15465257 -0.0016679507 0.013783265 0.06605717 0.051133454
0.013720321 0.044602823 0.030694544 0.074759126 -0.037692282 -0.041646156 -0.06366959 0.015645068
-0.10161832 0.022030506 0.067170404 0.18605149 -0.00064412766 0.021193204 -0.053336572 -0.052884117
0.08662799 -0.14257325 0.06001617 0.089723416 0.03323727 0.04471281 0.0022163154 -0.0049396367
0.09447753 -0.05345443 0.03797182 -0.05149885 0.025798788 -0.0012804756 -0.13122049 -0.053018585
-0.12128233 -0.11556091 0.061884865 -0.05216024 0.038651023 -0.06937184 0.0030656478 0.012663294
-0.0065065557 -0.048611347 -0.05881193 0.017397486 -0.008916467 -0.03204974 0.05742296 0.10276053
-0.0344617 -0.036500547 -0.041989055 0.048465177 0.031150887 -0.03120182 0.050278567 -0.0509531
-0.046731874 -0.038626123 0.024959747 0.10078466 -0.02851492 -0.01967329 0.13412802 0.08973881
-0.028153487 -0.0054862085 0.043021068 0.04163373 -0.031359874 0.06507392 0.0015652187 -0.067389436
-0.0044963136 0.066121444 0.14940839 0.06421448 -0.07779473 0.0035017019 0.12743081 0.08985095
-0.043088328 -0.104895 -0.116977766 0.044589568 0.08843017 -0.043685056 -0.045753755 0.06305762
0.003909748 0.035633255 -0.048058752 0.033910435 -0.020314947 -0.005672033 -0.0037950661 0.010203785
0.055115845 -0.054917667 -0.021608166 -0.036633525 0.019905962 0.08080434 -0.054448884 -0.060976673
-0.0384861 0.1268587 -0.018858498 -0.05240561 -0.15385824 0.01057347 -0.016022524 -0.049913835
0.1265827 0.035914924 -0.055073593 -0.026998516 -0.09940849 0.013664948 -0.012041726 -0.055867877
-0.046236128 -0.102397084 -0.06393027 -0.054966096 -0.07467053 0.080375485 -0.08255515 -0.037022643
0.0116149485 0.084998384 -0.0912963 0.012369073 0.04349316 -0.009509997 -0.0848322 0.021108657
-0.023467742 -0.09474991 -0.07650715 0.029585896 -0.0011708958 0.05392113 0.031925123 0.01776855
-0.013743428 -0.032256033 0.059259098 0.05481345 -0.151524 0.001839232 -0.03398494 0.058511186
0.058765687 -0.03270803 0.008466236 0.14990555 0.05361746 -0.076701835 0.011245932 0.028325122
00000000: 5ca1 f73d a381 1fbd 5395 a6bc 12b1 fe3d
00000010: 3fa5 ac3d 3da6 843d 138f 8d3b 2149 ccbd
00000020: d43a 7f3c 659a 883c 561b a33d f8a9 94bd
00000030: c36a 253c 0644 54bd 8d87 9ebb 81f6 2dbd
00000040: 4fcd 6ebd 1ae8 26bb 5896 d23c acbc 9fbd
00000050: 06fa 5dbc f99c 1b3d a351 773d 27b6 4fbd
00000060: b987 fdbb 240a fcbb a069 8bbd 21e4 96bc
00000070: 4ca5 033d 0033 53bd 97f5 ca3c 08d2 7c3d
00000080: b7dc 36bd 830f c93d 308c 243d 23d6 0fba
00000090: b4b4 ebbd 933c 1ebd ba9b 47bd 1676 933d
000000a0: 4824 953c a5be 993c 385d 9fbd 1663 ab3b
000000b0: c174 1ebe 3374 dcbd b2a5 123d 8e95 703d
000000c0: 3ae3 363d 0458 b9bd d149 133e 8cda c23d
000000d0: b7f1 79bd 23c9 c4bc d26c 0e3e ccfb 68bd
000000e0: cf7c d93d 967e 1a3e 493b cb3b d04c 013e
000000f0: acde 8cbb 926a 1ebd d655 393d c571 b03d
00000100: a079 03bc 0503 d73c 2cee 3b3d 5f18 82bd
00000110: cbbd 853d 52cb 79bc 4b8e 413c b067 87bc
00000120: 0f83 563d d41d bf3d f1d3 98bb 6691 933c
00000130: a46e 353b 0292 233c 0dff 5e3d 0594 03be
00000140: 1fc4 a53c 8c9b 1d3d 0aa8 7cbd 6da8 923d
00000150: d5a4 09bd 91ed 03bd 5088 1cbe 9bff cbba
00000160: 4af2 18be 681c 133d fbfe a5bd 3e5d 1e3e
00000170: 239f daba 34d3 613c fb48 873d 5071 513d
00000180: 32cb 603c 73b1 363d 2073 fb3c 501b 993d
00000190: 3963 1abd 2995 2abd 3465 82bd 162a 803c
000001a0: 441d d0bd 5279 b43c a390 893d 4884 3e3e
000001b0: adda 28ba 5f9d ad3c 7377 5abd 049d 58bd
000001c0: 046a b13d b9fe 11be 84d3 753d e9c0 b73d
000001d0: ce23 083d c824 373d 9a3f 113b addc a1bb
000001e0: 6f7d c13d 08f3 5abd 5788 1b3d 75f0 52bd
000001f0: fb57 d33c a2d5 a7ba aa5e 06be 042a 59bd
00000200: df62 f8bd 33ab ecbd fc7a 7d3d faa5 55bd
00000210: 8950 1e3d d312 8ebd 09e9 483b b479 4f3c
00000220: f234 d5bb b11c 47bd c7e4 70bd 2c85 8e3c
00000230: 6016 12bc 9746 03bd 5634 6b3d 1d74 d23d
00000240: b627 0dbd 9981 15bd b7fc 2bbd 6c83 463d
00000250: 2530 ff3c f69a ffbc e6f0 4d3d 33b4 50bd
00000260: ec69 3fbd 6d36 1ebd 6278 cc3c 3068 ce3d
00000270: 1f98 e9bc e129 a1bc db58 093e fbc8 b73d
00000280: 24a2 e6bc a7c5 b3bb dc36 303d 2188 2a3d
00000290: 3673 00bd 7a45 853d 0628 cd3a 7903 8abd
000002a0: d055 93bb ae6a 873d 83fe 183e e282 833d
000002b0: d852 9fbd cf7c 653b 397d 023e c603 b83d
000002c0: 637d 30bd 31d3 d6bd 0a92 efbd 8da3 363d
000002d0: e11a b53d 1aef 32bd 4a68 3bbd 5a24 813d
000002e0: 581d 803b 2df4 113d 41d9 44bd abe5 0a3d
000002f0: 886b a6bc 76dc b9bb a5b6 78bb c72d 273c
00000300: 27c1 613d 59f1 60bd 9c03 b1bc 090d 16bd
00000310: d411 a33c bf7c a53d cb05 5fbd adc2 79bd
00000320: 9aa3 1dbd 3fe7 013e 237d 9abc 44a7 56bd
00000330: 048d 1dbe 593c 2d3c ab41 83bc 7372 4cbd
00000340: e59e 013e 871b 133d d994 61bd fe2b ddbc
00000350: ae96 cbbd f2e2 5f3c a94a 45bc b7d5 64bd
00000360: 1862 3dbd 90b5 d1bd e0ed 82bd 2124 61bd
00000370: ddec 98bd e79b a43d ad12 a9bd 0ea5 17bd
00000380: a04c 3e3c a213 ae3d 8ef9 babd a7a7 4a3c
00000390: e225 323d d2cf 1bbc 81bc adbd 10ec ac3c
000003a0: 6c3f c0bc 3e0c c2bd c8af 9cbd 1f5e f23c
000003b0: be78 99ba 67dc 5c3d ebc3 023d 5a8f 913c
000003c0: 1d2c 61bc e71e 04bd abb9 723d 1184 603d
000003d0: 1c29 1bbe 6312 f13a cb33 0bbd 6da9 6f3d
000003e0: 4ab4 703d dbf8 05bd f8b5 0a3c d780 193e
000003f0: fb9d 5b3d da15 9dbd dc40 383c 160a e83c

bias f4 [32]
-1.6367213e-08 -7.30084e-10 3.095056e-08 -4.2350422e-08 -4.849764e-09 -2.7461716e-08 8.516563e-09 -2.5670783e-08
-2.60077e-08 -6.539609e-08 -4.9794195e-08 -4.7682715e-08 -2.4405642e-08 3.9815973e-08 -2.1817804e-08 -6.1525007e-09
5.0390494e-08 -7.350825e-08 4.1387043e-08 1.18289165e-08 -2.757438e-08 -3.5400344e-08 1.397703e-09 3.207528e-08
-8.184242e-09 1.6014599e-07 -1.97507e-08 2.3365816e-08 4.3380525e-11 -7.838493e-08 3.17991e-08 4.6052854e-08
00000000: e297 8cb2 18af 48b0 80ee 0433 c8e4 35b3
00000010: faa2 a6b1 f4e4 ebb2 3d50 1232 a682 dcb2
00000020: 8a67 dfb2 e16f 8cb3 4cdd 55b3 b3cb 4cb3
00000030: 93a4 d1b2 2002 2b33 dc69 bbb2 f865 d3b1
00000040: ef6c 5833 96db 9db3 89c1 3133 2038 4b32
00000050: b4dc ecb2 170b 18b3 4d19 c030 25c3 0933
00000060: ad9a 0cb2 98f4 2b34 40a8 a9b2 f9b5 c832
00000070: 21ca 3e2e 9254 a8b3 7b93 0833 a6cb 4533

weight f4 [32]
0.9838262 0.97094834 0.9687422 1.0164804 0.97127765 0.9773404 0.97022563 0.96781015
0.9920489 0.9788716 1.024843 1.0146716 0.99256915 0.9579864 0.9738487 1.0315756
0.97153974 0.99806327 0.97561616 0.96844435 0.9537703 0.96102333 0.99152046 0.9600946
0.9742456 1.035229 0.98582506 0.9717077 0.96164775 0.97857136 0.97700274 0.982902
00000000: 09dc 7b3f 1290 783f 7dff 773f 081c 823f
00000010: a7a5 783f fb32 7a3f b560 783f 68c2 773f
00000020: ebf6 7d3f 5497 7a3f 0e2e 833f c2e0 813f
00000030: 0319 7e3f 993e 753f 264e 793f ab0a 843f
00000040: d4b6 783f 1381 7f3f fbc1 793f f8eb 773f
00000050: 4a2a 743f a005 763f 49d4 7d3f c2c8 753f
00000060: 2968 793f 6282 843f 085f 7c3f d6c1 783f
00000070: 8c2e 763f a783 7a3f da1c 7a3f 779f 7b3f

bias f4 [32]
-0.036327776 0.00036089876 -0.003478258 0.01741285 -0.01227743 -0.016975554 -0.00041276996 -0.017198043
-0.007977306 -0.019299325 0.03642093 0.0069970116 0.0019032164 -0.025750259 -0.020085942 0.039709438
-0.026301347 0.002474227 0.0068440465 -0.017825637 -0.030839385 -0.02320439 -0.0028842688 -0.030741336
-0.004862531 0.0009956962 0.0056670206 0.0005053946 -0.009137147 0.006066633 -0.00277166 0.023131743
00000000: 6fcc 14bd 0337 bd39 7cf3 63bb 65a5 8e3c
00000010: 4627 49bc 5110 8bbc 0c69 d8b9 e9e2 8cbc
00000020: 3fb3 02bc 9e19 9ebc 1d2e 153d 3047 e53b
00000030: 5875 f93a 35f2 d2bc 468b a4bc 5da6 223d
00000040: ec75 d7bc a426 223b 0644 e03b 1207 92bc
00000050: e1a2 fcbc 2217 bebc 0006 3dbb 41d5 fbbc
00000060: de55 9fbb 0582 823a 6ab2 b93b 757c 043a
00000070: f9b3 15bc 9bca c63b bda4 35bb c87e bd3c

running_mean f4 [32]
0.17008264 -1.8645978 -1.4704862 -0.46136633 -1.0819892 -1.3495107 -1.6185217 -1.2546176
0.21089397 -0.850406 -0.4158001 0.50341165 -1.1851118 -0.7709503 -1.7454046 -0.8067837
1.054974 -1.7024292 -0.3553327 -0.32524094 -0.82927537 -0.35822117 0.5451093 -1.1624056
-0.74608266 1.7138733 -0.45037243 -1.2159295 -1.2509973 0.05549567 -1.6997858 -0.9922616
00000000: 252a 2e3e 24ab eebf e438 bcbf 3538 ecbe
00000010: 9f7e 8abf c4bc acbf b82b cfbf 4f97 a0bf
00000020: 97f4 573e 35b4 59bf c0e3 d4be 96df 003f
00000030: beb1 97bf 005d 45bf 6b69 dfbf 6089 4ebf
00000040: 6309 873f 33e9 d9bf 2bee b5be fb85 a6be
00000050: 644b 54bf c468 b7be 488c 0b3f b5c9 94bf
00000060: 46ff 3ebf 3360 db3f 3797 e6be 94a3 9bbf
00000070: ae20 a0bf 6d4f 633d 9592 d9bf db04 7ebf

running_var f4 [32]
0.48903117 4.6036386 5.6505456 5.165045 5.781816 2.4867628 3.556574 7.7125816
1.1110626 1.0065502 2.7866957 1.0103371 7.650019 3.6206474 5.5791388 3.1100419
1.7268959 2.065588 2.9219348 9.007131 2.3292322 1.3829316 4.4358974 7.231663
6.8753796 1.5990537 5.1048493 7.7164593 6.2748938 4.816611 6.001448 4.615808
00000000: 4b62 fa3e 0251 9340 45d1 b440 0c48 a540
00000010: a304 b940 1f27 1f40 e99e 6340 78cd f640
00000020: 4d37 8e3f a3d6 803f 3959 3240 ba52 813f
00000030: f5cc f440 b0b8 6740 4e88 b240 ed0a 4740
00000040: ed0a dd3f 9832 0440 fb00 3b40 351d 1041
00000050: 2412 1540 e703 b13f dff2 8d40 c969 e740
00000060: 1c03 dc40 cbad cc3f ed5a a340 3ced f640
00000070: eecb c840 ad21 9a40 dd0b c040 b3b4 9340

weight f4 [128, 1120]
-0.013329614 -0.030883558 0.064909354 0.061352868 -0.041024067 -0.123084545 0.010338933 -0.054583605
-0.037610296 0.009490767 -0.029713642 -0.011266694 -0.0033047977 0.032041576 -0.05967533 -0.008498678
-0.0525554 0.043401245 0.07490155 -0.021743577 -0.0145497825 -0.050813157 0.042574544 -0.015250311
0.04712982 -0.045762952 -0.0031700328 0.02924404 0.018475326 -0.026578296 0.050453857 -0.020507231
-0.03203462 -0.013355655 -0.09144417 0.0149134565 0.061542243 0.015544242 -0.023545425 -0.0052349223
0.07175874 -0.01594074 -0.079951115 -0.0025730846 -0.025790928 0.0070602736 -0.024652118 0.039244838
-0.020895874 -0.0094640665 0.027642237 -0.04439358 -0.10063658 -0.022321876 0.0447529 0.0052815825
0.01754259 -0.030019686 0.003218704 0.057168473 -0.037906006 -0.013524004 -0.007372084 -0.019617658
-0.01736557 -0.060129635 -0.05549427 -0.023181397 0.016693706 -0.011891102 -0.039044775 -0.0687611
0.016903387 0.009878454 0.047499306 -0.0011861674 -0.034306068 -0.0028596192 0.0045815944 -0.060149603
0.056085117 -0.05533897 -0.01715138 -0.025408758 -0.055654537 0.0154773975 0.03527328 0.033954322
-0.049479265 -0.11275265 -0.05242147 0.016624607 -0.036506955 0.014005747 -0.020899402 -0.061091058
-0.044877406 0.029052798 0.041441392 -0.045886118 -0.0481156 -0.023649909 0.013555552 -0.02189582
-0.081845574 -0.056894537 0.026177244 0.031050028 -0.0062479037 0.016354626 0.020853722 -0.08528205
0.061430935 0.012775753 -0.03849756 -0.033458382 -0.0072754705 -0.01992817 0.043547075 -0.10008595
-0.0027608715 -0.02911382 0.00537971 -0.045438893 0.01600323 -0.004327219 -0.059269134 -0.01344921
0.011587682 0.007059448 0.0015820519 -0.07259356 0.020079885 0.0074325646 0.0035123613 0.0018365709
0.0020056714 0.053795245 -0.004647612 0.012317589 -0.06833554 0.049112707 -0.09859098 -0.05154829
-0.057056334 -0.03484384 -0.08432577 0.03332462 -0.06110179 -0.007430004 0.069726825 0.009295837
0.008798402 0.034726053 -0.006470013 0.031065298 -0.019399103 0.061977066 0.009538631 0.039324135
-0.020557884 0.009531395 0.031303544 -0.005929275 0.042894363 0.102092475 -0.05869634 0.09225268
-0.028683348 0.054567255 -0.11139899 0.067414306 -0.015097236 -0.082615 -0.012623101 0.042663634
-0.12115874 -0.040943347 -0.011755937 -0.010230932 0.090111785 -0.033206157 0.022896472 -0.06863134
-0.08163411 0.02904264 0.0068765995 -0.009676947 0.028077906 0.015875962 -0.024998067 0.028462693
0.036072437 -0.015265602 -0.06696543 -0.0030615616 -0.026901076 -0.086231455 0.06509149 -0.04416498
-0.039621733 0.051857762 0.045927327 0.020782322 -0.08740959 0.04321635 0.051187858 0.063908435
0.04776864 -0.07534005 -0.022938764 -0.0050905505 -0.021892423 -0.07795979 -0.030597024 -0.053297073
-0.07337424 -0.069649994 0.033345036 -0.075217426 0.03669811 -0.03887769 0.028250404 0.010645173
0.0303906 0.07570364 -0.048136465 0.036579818 0.0014704358 0.015478973 -0.068773724 0.04817619
-0.034372937 -0.059896667 0.0148206 0.00889012 -0.04870646 0.02378672 -0.07934694 0.021172108
0.013688191 0.088530876 -0.061475974 -0.009667318 0.005315541 -0.0043325354 -0.07238903 0.014735143
-0.029840497 -0.018218528 -0.0061410833 -0.07386866 0.04257512 -0.0097622955 -0.09930136 -0.04412076
00000000: 7464 5abc 84ff fcbc 32ef 843d 254d 7b3d
00000010: da08 28bd c013 fcbd a164 293c 0f93 5fbd
00000020: 410d 1abd 297f 1b3c 066a f3bc f197 38bc
00000030: 4e95 58bb 073e 033d 1e6e 74bd 0a3e 0bbc
00000040: 5544 57bd 81c5 313d fc65 993d 961f b2bc
00000050: 3662 6ebc 7521 50bd a562 2e3d 71dc 79bc
00000060: 330b 413d ef71 3bbd 53c0 4fbb 3291 ef3c
00000070: 9159 973c baba d9bc b4a8 4e3d c8fe a7bc
00000080: bc36 03bd add1 5abc 1547 bbbd 9257 743c
00000090: b813 7c3d 47ad 7e3c 56e2 c0bc b689 abbb
000000a0: 3ff6 923d 2896 82bc 69bd a3bd 32a1 28bb
000000b0: 7f47 d3bc de59 e73b 3df3 c9bc 32bf 203d
000000c0: d32d abbc 2c0f 1bbc f971 e23c 0bd6 35bd
000000d0: 8d1a cebd 5edc b6bc d14e 373d 2011 ad3b
000000e0: 7ab5 8f3c d8eb f5bc e4f0 523b 7d29 6a3d
000000f0: 5443 1bbd c993 5dbc 8691 f1bb 36b5 a0bc
00000100: 3d42 8ebc 7e4a 76bd f64d 63bd eae6 bdbc
00000110: 3dc1 883c e6d2 42bc 6aed 1fbd 9fd2 8cbd
00000120: f978 8a3c 3dd9 213c a28e 423d 2c79 9bba
00000130: 8584 0cbd 7368 3bbb 3321 963b 6e5f 76bd
00000140: 82b9 653d 1eab 62bd 0d81 8cbc 0726 d0bc
00000150: 03f6 63bd e994 7d3c b77a 103d b013 0b3d
00000160: c5aa 4abd ddea e6bd e5b7 56bd 5430 883c
00000170: 5188 15bd 5c78 653c 3935 abbc 9e3a 7abd
00000180: 5fd1 37bd 2200 ee3c 73be 293d 15f3 3bbd
00000190: dd14 45bd 74bd c1bc 1b18 5e3c dd5e b3bc
000001a0: a79e a7bd 3f0a 69bd a971 d63c a15c fe3c
000001b0: 37bb ccbb 23fa 853c 6dd5 aa3c 5ba8 aebd
000001c0: 019f 7b3d 6451 513c 9eaf 1dbd a80b 09bd
000001d0: 1267 eebb 6740 a3bc 6b5e 323d ddf9 ccbd
000001e0: bdef 34bb 1b80 eebc 4748 b03b 221e 3abd
000001f0: 3519 833c 58cb 8dbb 31c4 72bd 135a 5cbc
00000200: 43da 3d3c f152 e73b da5c cf3a efab 94bd
00000210: 927e a43c df8c f33b a52f 663b 18b9 f03a
00000220: 9571 033b 6758 5c3d ff4a 98bb b6cf 493c
00000230: 81f3 8bbd 682a 493d 11ea c9bd 4d24 53bd
00000240: e7b3 69bd 6ab8 0ebd fdb2 acbd 667f 083d
00000250: df45 7abd 6477 f3bb f0cc 8e3d 914d 183c
00000260: 2c27 103c e83c 0e3d 6702 d4bb a77c fe3c
00000270: deea 9ebc aadb 7d3d eb47 1c3c 5812 213d
00000280: 0269 a8bc 9129 1c3c 2538 003d 5d4a c2bb
00000290: 00b2 2f3d dc15 d13d 936b 70bd f9ee bc3d
000002a0: 57f9 eabc ea81 5f3d 2725 e4bd 8310 8a3d
000002b0: 665a 77bc 0e32 a9bd 1fd1 4ebc 10c0 2e3d
000002c0: 1322 f8bd 36b4 27bd f99b 40bc a49f 27bc
000002d0: 878c b83d 2e03 08bd 6291 bb3c 978e 8cbd
000002e0: c92f a7bd d5ea ed3c 1955 e13b 0f8c 1ebc
000002f0: a303 e63c 4e0e 823c bfc8 ccbc 982a e93c
00000300: b1c0 133d 931c 7abc 2c25 89bd 7ba4 48bb
00000310: a55f dcbc 1e9a b0bd b04e 853d 57e6 34bd
00000320: 664a 22bd ce68 543d 4b1e 3c3d b03f aa3c
00000330: cd03 b3bd a103 313d 5caa 513d 6de2 823d
00000340: 0da9 433d e24b 9abd 13ea bbbc a2ce a6bb
00000350: bd57 b3bc 62a9 9fbd 9ca6 fabc 084e 5abd
00000360: 3c45 96bd a8a4 8ebd ce94 083d 980b 9abd
00000370: c250 163d 363e 1fbd 646d e73c 1769 2e3c
00000380: b5f5 f83c 830a 9b3d be2a 45bd b8d4 153d
00000390: a3bb c03a 859b 7d3c 3dd9 8cbd 6654 453d
000003a0: a3ca 0cbd 3556 75bd 1ad2 723c dea7 113c
000003b0: 6d80 47bd 5edc c23c a680 a2bd 2171 ad3c
000003c0: 6f44 603c ad4f b53d 3bce 7bbd ac63 1ebc
000003d0: fd2d ae3b f1f7 8dbb b340 94bd ab6b 713c
000003e0: 0f74 f4bc 063f 95bc 243b c9bb 7448 97bd
000003f0: 4063 2e3d 09f2 1fbc 835e cbbd f8b7 34bd

bias f4 [128]
-0.012284488 -0.015114947 0.008240008 -0.008042248 -0.01612899 -0.01699291 -0.008734389 -0.0059214304
-0.0039501674 -0.0060259793 -0.006411914 -0.012888255 -0.006031469 -0.014114184 -0.009402849 -0.015480518
-0.0018632578 -0.0075947437 -0.011633045 -0.01150104 -0.011499611 -0.017496374 -0.014038378 -0.020575427
-0.0087959925 -0.009310522 -0.0063615516 -0.010947148 -0.013071762 -0.009656803 -0.008773141 -0.014281121
-0.008951781 -0.0008574636 -0.0051662424 -0.005364506 -0.012322595 -0.011599544 -0.011221237 -0.012374607
0.0002730657 -0.0028319466 -0.01374126 -0.009629285 -0.011230357 -0.00040072534 -0.010368264 -0.008780009
-0.0091388 -0.00938888 -0.009807963 -0.011975648 -0.0067456197 -0.010689496 -0.009957004 -0.013756183
-0.0067747687 -0.011382626 -0.009326151 -0.012534994 -0.010147102 -0.008623354 -0.019286128 -0.020960256
0.0005177082 -0.009905347 -0.016525133 -0.007860094 -0.017817866 -0.0035610506 -0.0087120775 -0.009035415
-0.01306215 -0.010560278 -0.013190915 -0.008974337 -0.008857924 -0.009605281 -0.017096536 -0.004416099
-0.012091482 -0.008080775 -0.009306359 -0.005445041 -0.01274658 -0.009623369 0.008025752 -0.012697746
-0.007375223 -0.016236523 -0.01384912 -0.00038691427 -0.0038982576 -0.008877865 -0.01449564 -0.0153523795
-0.015329275 -0.01158169 -0.012745285 -0.010224197 -0.0205044 -0.011823219 -0.013991165 -0.012699787
-0.013353982 -0.013312876 -0.0116095655 -0.0065946155 -0.0050930935 -0.0044286638 -0.007106856 -0.009352753
-0.010569753 -0.0055209864 0.0037800877 -0.007209624 -0.00943465 -0.0121290125 0.0046031843 -0.012527783
-0.0049381726 -0.010309048 -0.010219683 -0.015307533 -0.013419157 -0.015165672 -0.0073441393 -0.014918151
00000000: e144 49bc afa4 77bc 1901 073c a2c3 03bc
00000010: f220 84bc b734 8bbc af1a 0fbc 8f08 c2bb
00000020: 6870 81bb 9475 c5bb 081b d2bb 4229 53bc
00000030: a1a3 c5bb 2e3f 67bc 680e 1abc 00a2 7dbc
00000040: 8f38 f4ba 54dd f8bb 8798 3ebc dc6e 3cbc
00000050: dd68 3cbc 8e54 8fbc 3a01 66bc cc8d a8bc
00000060: 111d 10bc 298b 18bc 9074 d0bb ab5b 33bc
00000070: f22a 56bc 9137 1ebc 38bd 0fbc 5dfb 69bc
00000080: 7eaa 12bc 68c7 60ba 9549 a9bb bdc8 afbb
00000090: b6e4 49bc 040c 3ebc 47d9 37bc ddbe 4abc
000000a0: 422a 8f39 2e98 39bb 0623 61bc 26c4 1dbc
000000b0: 88ff 37bc 7218 d2b9 a7df 29bc 07da 0fbc
000000c0: e8ba 15bc d1d3 19bc 94b1 20bc 8235 44bc
000000d0: 5c0a ddbb ff22 2fbc b422 23bc 9d61 61bc
000000e0: e1fe ddbb 327e 3abc b6cc 18bc 935f 4dbc
000000f0: 0840 26bc f848 0dbc f1fd 9dbc d8b4 abbc
00000100: cfb6 073a 094a 22bc b75f 87bc a0c7 00bc
00000110: c6f6 91bc 8460 69bb 1abd 0ebc 4709 14bc
00000120: a102 56bc 0405 2dbc b51e 58bc 1909 13bc
00000130: d320 11bc 785f 1dbc 090e 8cbc ecb4 90bb
00000140: 5a1b 46bc 3a65 04bc b379 18bc 516c b2bb
00000150: 08d7 50bc 56ab 1dbc 727e 033c 350a 50bc
00000160: dbab f1bb 7502 85bc 6be7 62bc c1da cab9
00000170: e979 7fbb 7774 11bc 1f7f 6dbc 8c88 7bbc
00000180: a427 7bbc 21c1 3dbc 9ad1 50bc 6483 27bc
00000190: d8f8 a7bc 2db6 41bc 333b 65bc c412 50bc
000001a0: a9ca 5abc 401e 5abc 0c36 3ebc a517 d8bb
000001b0: f7e3 a6bb 531e 91bb a1e0 e8bb 4a3c 19bc
000001c0: c22c 2dbc 64e9 b4bb 59bb 773b b63e ecbb
000001d0: ca93 1abc c4b8 46bc 4fd6 963b 5541 4dbc
000001e0: 65d0 a1bb 48e7 28bc 7570 27bc 72cc 7abc
000001f0: 06dc 5bbc 7079 78bc 1ba7 f0bb 436b 74bc

weight f4 [1, 128]
-0.052765492 -0.121428624 0.021711137 -0.019718725 -0.047445823 -0.19897777 -0.012474264 -0.0006445063
0.10673485 0.13076492 0.028319113 -0.0032268239 0.0075980937 -0.057681948 0.025284057 -0.010011857
0.003906905 -0.05539347 0.18087329 -0.07089054 0.15870087 -0.026708687 -0.0861491 -0.07371563
0.13063644 0.079823956 0.006624886 -0.030726038 -0.042279433 0.033633567 0.07354349 -0.043594107
0.059115235 0.0027679547 0.18911976 0.18973273 -0.14083326 -0.062227998 0.06242943 -0.09032118
0.037826013 -0.00086384034 0.0028058465 0.060043406 -0.033610914 0.0726066 -0.14453919 -0.1165499
0.0049775853 -0.014521954 0.0657515 -0.007108766 0.14747384 -0.15368748 -0.116386026 0.0034754274
-0.0021559852 -0.08457544 -0.0006063603 -0.0021963716 0.011479295 0.09379583 -0.030984914 -0.040991627
0.01617655 0.004019057 -0.024431739 -0.07210666 -0.015708262 0.014957548 -0.0003029769 0.0051401863
0.0063434155 0.04161284 0.0027739685 -0.03035228 0.09965503 0.10129301 -0.029778898 -0.007446246
0.13333051 0.011446252 0.036050912 -0.020122845 -0.018201193 -0.12484684 0.018930161 -0.21342482
0.01150267 -0.09341126 -0.11978316 0.003821733 0.017060319 -0.035268534 0.14864114 0.0035890955
-0.12779416 0.13640016 0.04720264 -0.13919185 -0.0007846219 0.07819414 -0.123584166 0.15636374
0.09430592 0.07794015 0.094530985 -0.10940838 0.026917506 0.03469119 0.105261266 -0.00844719
0.08248411 0.00782025 0.003059893 -0.0003505174 0.023089867 -0.04256267 0.00092090317 -0.026272494
0.03321447 -0.051073592 0.0003083455 0.05253673 -0.050768644 -0.024460444 -0.0024836892 -0.118059956
00000000: a120 58bd 92af f8bd 8edb b13c 2a89 a1bc
00000010: 8d56 42bd d4c0 4bbe db60 4cbc 16f4 28ba
00000020: cd97 da3d 3de7 053e 7cfd e73c 1f79 53bb
00000030: 6ef9 f83b e843 6cbd 8320 cf3c c608 24bc
00000040: 7f05 803b 43e4 62bd d936 393e 0f2f 91bd
00000050: 7b82 223e 2dcc dabc f06e b0bd 38f8 96bd
00000060: 8fc5 053e be7a a33d 9215 d93b 2cb5 fbbc
00000070: 332d 2dbd 5ac3 093d f89d 963d bc8f 32bd
00000080: d122 723d 9366 353b 9ca8 413e 4c49 423e
00000090: 9836 10be c9e2 7ebd 01b6 7f3d 50fa b8bd
000000a0: 73ef 1a3d 5873 62ba 4be2 373b 13f0 753d
000000b0: 99ab 09bd c5b2 943d 1502 14be b7b1 eebd
000000c0: 031b a33b 7ded 6dbc b9a8 863d a7f0 e8bb
000000d0: 6203 173e 4060 1dbe cc5b eebd ffc3 633b
000000e0: 6e4b 0dbb e335 adbd 27f4 1eba 00f1 0fbb
000000f0: a713 3c3c 0718 c03d 13d4 fdbc d6e6 27bd
00000100: af84 843c 4bb2 833b 1225 c8bc a8ac 93bd
00000110: 9dae 80bc 8110 753c dfd8 9eb9 026f a83b
00000120: 6ddc cf3b 3a72 2a3d 78cb 353b 58a5 f8bc
00000130: f017 cc3d b672 cf3d e0f2 f3bc a4ff f3bb
00000140: cb87 083e 1089 3b3c 1faa 133d aad8 a4bc
00000150: ab1a 95bc b3af ffbd 6d13 9b3c 098c 5abe
00000160: b275 3c3c 674e bfbd e050 f5bd 0a76 7a3b
00000170: 15c2 8b3c bd75 10bd 6235 183e 0837 6b3b
00000180: 79dc 02be 7cac 0b3e 8e57 413d 4f88 0ebe
00000190: 16af 4dba 4024 a03d b219 fdbd d11d 203e
000001a0: 7623 c13d 169f 9f3d 7699 c13d 8011 e0bd
000001b0: 1a82 dc3c 5918 0e3d 3893 d73d 1566 0abc
000001c0: 6eed a83d 8120 003c 7c88 483b a6c5 b7b9
000001d0: f626 bd3c 3256 2ebd c468 713a 6a39 d7bc
000001e0: e50b 083d 8b32 51bd 6fa9 a139 c130 573d
000001f0: c8f2 4fbd 4561 c8bc 64c5 22bb 6bc9 f1bd

weight f4 [3, 128]
0.017097104 0.003910675 -0.043879144 0.00086129474 0.003764443 0.0133582475 0.00922384 -0.002636008
-0.015218232 -0.0029946566 -0.0037510807 -0.0074134027 0.025746312 0.005414492 0.015043558 0.010469802
-0.001839196 0.0048592505 0.004199123 0.010831995 0.0030568365 0.0053855362 -0.004201789 0.018670803
0.0018865981 0.0071740174 -0.002833982 0.00365105 -0.004225917 0.0030132667 -0.00085318607 0.0012343823
0.0067143757 0.037438642 0.0058004195 0.005203351 0.005239134 0.004056707 0.00518754 0.010247075
0.004904085 0.02081129 3.5002067e-05 0.0038474707 0.002946579 -0.056159597 0.015807942 0.0017900881
0.008189335 0.0076243044 0.00023096449 -0.002857148 0.004470701 0.0027986055 -0.0025362545 -0.034382965
0.00074445875 0.009523434 0.007159575 0.0009914571 0.01274164 0.0070596174 0.0042148074 -0.004010427
0.01584761 -0.00023007784 0.0056878747 0.0065009254 -0.000670001 -0.011317452 -0.0021304577 -0.0054860143
-0.03441584 0.005644665 0.00083487236 0.009818547 -0.0072698873 0.00555122 0.01370045 0.010254307
0.0007707126 0.020542754 0.0037734096 0.004149749 0.014547852 0.00492481 0.054220505 -0.00029632737
0.021001222 -0.0003004402 -0.010950342 -0.07995503 -0.04165968 -0.0024585642 0.0085344035 0.0007181228
0.0119809555 0.008226609 0.00040380372 0.0076621957 -0.028944766 0.0048340256 0.0026898414 0.0035737604
0.005589061 0.0023754558 -0.0024348956 -0.005092441 -0.0029501223 0.014216195 0.007825937 0.0075303083
-0.0012926067 -0.03318262 0.03285964 0.0084885275 0.0022937744 0.0049647037 -0.09383674 0.011645742
-0.00289261 0.0010037825 0.002748356 0.016799897 0.011934059 -0.02340146 0.006584431 0.0029561287
-0.005044401 0.0020830254 -0.03926009 -0.0014859715 -0.011923883 -0.008681585 -0.009388245 -0.0072615775
-0.020158553 0.006093555 -0.0076892255 -0.016846268 -0.020001896 -0.013564804 -0.009651779 -0.048537705
-0.09443375 0.0004133284 0.0046468307 -0.019370167 0.004153998 -0.0017767199 0.00085840054 -0.018165922
0.0059432504 0.0035951973 -0.014455749 0.0020414356 -0.0023451261 -0.00057032466 0.0027269896 0.0031840226
-0.00821092 -0.07250255 0.0047864863 0.0010909672 0.00054355763 7.387332e-05 -0.005115207 -0.0058330726
-0.008487099 -0.014837251 -0.01572931 0.0036479468 0.0009959599 0.020781325 -0.00443821 -0.004437945
0.0033988666 -0.060132608 -0.0015142881 -0.0020488303 -0.0018821594 -0.00042096444 0.008291218 -0.023488719
-0.008016104 -0.0057150447 0.0040773554 -0.024696628 -0.015032271 0.002341516 -0.018334052 -0.016021766
-0.005001926 -0.0035261742 0.004687933 -0.016843613 -0.006856331 -0.035237882 -0.0049170377 0.0054494655
-0.0129375355 -0.008472622 -0.014570747 0.006067542 -0.023332518 0.0023786246 -0.0045312075 -0.006859455
0.00549058 -0.018704386 -0.0004917565 -0.0046709743 -0.018208021 -0.012366637 -0.08044556 -0.0037350953
-0.0043440354 0.005682457 0.00039477827 0.020406168 -0.0054934053 0.0033518719 -0.0060572834 -0.02265513
-0.0016161648 0.0018039836 -0.014800358 0.005045387 -0.032401048 -0.008422936 -0.005997492 0.0039607226
-0.0026590717 -0.010748062 0.0034016059 0.0049638012 -0.02051269 -0.016673937 -0.008326096 -0.001329374
0.0040265713 -0.039905615 -0.08326736 -0.003480818 -0.012649385 0.0025474662 -0.015110053 -0.009978734
-0.011865926 0.0053862315 0.0029147086 -0.0048975665 -0.004281304 -0.07331757 -0.016588228 -0.01029184
00000000: 3a0f 8c3c 1f25 803b 9eba 33bd 83c8 613a
00000010: e0b4 763b 8ddc 5a3c 971f 173c e0c0 2cbb
00000020: e455 79bc 0042 44bb b1d4 75bb 21ec f2bb
00000030: eee9 d23c 0d6c b13b 4179 763c 8889 2b3c
00000040: 2d11 f1ba 593a 9f3b cc98 893b ae78 313c
00000050: 3555 483b 2779 b03b 29af 89bb 83f3 983c
00000060: ba47 f73a 0514 eb3b 54ba 39bb 7446 6f3b
00000070: 9079 8abb 3a7a 453b 59a8 5fba ffca a13a
00000080: 4404 dc3b 4359 193d 7211 be3b df80 aa3b
00000090: 0bad ab3b 20ee 843b 3dfc a93b 59e3 273c
000000a0: 72b2 a03b 707c aa3c 2fcf 1238 d925 7c3b
000000b0: 641b 413b 9b07 66bd a87f 813c 64a1 ea3a
000000c0: 902c 063c 4dd5 f93b 0f2f 7239 fd3e 3bbb
000000d0: f57e 923b cf68 373b 4a37 26bb 27d5 0cbd
000000e0: c827 433a 2d08 1c3c de9a ea3b c8f3 813a
000000f0: 50c2 503c 5d54 e73b 5e1c 8a3b e669 83bb
00000100: d9d2 813c 0d41 71b9 5a61 ba3b b705 d53b
00000110: 02a3 2fba d66c 39bc 269f 0bbb 06c4 b3bb
00000120: a0f7 0cbd e2f6 b83b 56db 5a3a f9dd 203c
00000130: 3c38 eebb 02e7 b53b da77 603c ae01 283c
00000140: a609 4a3a 4749 a83c 4f4b 773b 9efa 873b
00000150: 1d5a 6e3c 4d60 a13b 5216 5e3d 635c 9bb9
00000160: c10a ac3c 6784 9db9 1069 33bc 76bf a3bd
00000170: 57a3 2abd dd1f 21bb e2d3 0b3c 6840 3c3a
00000180: c54b 443c e6c8 063c 9eb5 d339 2813 fb3b
00000190: 931d edbc bf66 9e3b 0d48 303b c035 6a3b
000001a0: 7124 b73b 89ad 1b3b c592 1fbb 7ede a6bb
000001b0: d756 41bb 0beb 683c 5c38 003c cec0 f63b
000001c0: af6c a9ba 80ea 07bd d497 063d 7713 0b3c
000001d0: 2653 163b f4ae a23b 7a2d c0bd c8cd 3e3c
000001e0: f191 3dbb 5a91 833a c31d 343b f09f 893c
000001f0: 1287 433c 6bb4 bfbc 36c2 d73b 9cbb 413b
00000200: 814b a5bb 5e83 083b 30cf 20bd eec4 c2ba
00000210: 645c 43bc 353d 0ebc 27d1 19bc 87f2 edbb
00000220: 8d23 a5bc 72ac c73b e6f5 fbbb 2f01 8abc
00000230: 04db a3bc e93e 5ebc 7f22 1ebc 79cf 46bd
00000240: 7b66 c1bd 00b4 d839 7144 983b 2fae 9ebc
00000250: 431e 883b d4e0 e8ba 4906 613a b3d0 94bc
00000260: 99bf c23b 679d 6b3b ced7 6cbc 9bc9 053b
00000270: b0b0 19bb d781 15ba 4bb7 323b 09ab 503b
00000280: 1887 06bc 387c 94bd f5d7 9c3b c9fe 8e3a
00000290: 897d 0e3a 70ec 9a38 779d a7bb 5c23 bfbb
000002a0: 790d 0bbc f117 73bc c1da 80bc 6412 6f3b
000002b0: de8a 823a 993d aa3c 676e 91bb 2e6c 91bb
000002c0: 85bf 5e3b 9c4d 76bd 147b c6ba ab45 06bb
000002d0: cab2 f6ba e4b4 dcb9 e4d7 073c 6a6b c0bc
000002e0: fa55 03bc 4545 bbbb 569b 853b 9550 cabc
000002f0: ea49 76bc 1f74 193b 4b31 96bc 1440 83bc
00000300: 32e7 a3bb 6317 67bb 3b9d 993b 9efb 89bc
00000310: 13ab e0bb 9955 10bd 1a1f a1bb 6e91 b23b
00000320: f5f7 53bc c1d0 0abc 24ba 6ebc 3bd2 c63b
00000330: d623 bfbc b3e2 1b3b 867a 94bb 47c5 e0bb
00000340: 53ea b33b f139 99bc 38e9 00ba f90e 99bb
00000350: fd28 95bc 6f9d 4abc a4c0 a4bd 80c8 74bb
00000360: 6958 8ebb e733 ba3b 3efa ce39 d62a a73c
00000370: 0602 b4bb 14ab 5b3b 2d7c c6bb 4097 b9bc
00000380: 7ed5 d3ba a573 ec3a 337d 72bc c653 a53b
00000390: f6b6 04bd 5b00 0abc 9c86 c4bb f3c8 813b
000003a0: d243 2ebb a418 30bc 7aed 5e3b 62a7 a23b
000003b0: 3b0a a8bc c897 88bc 2e6a 08bc 643e aeba
000003c0: 54f1 833b 1274 23bd 1488 aabd 6f1e 64bb
000003d0: 5e3f 4fbc 64f3 263b 2890 77bc d87d 23bc
000003e0: 4d69 42bc fc7e b03b b204 3f3b c47b a0bb
000003f0: 2e4a 8cbb 8627 96bd 09e4 87bc 1b9f 28bc

bias f4 [3]
-0.05514827 0.020952968 0.027494377
00000000: 27e3 61bd 8fa5 ab3c e33b e13c
