saved_trials/a2c-MiniWorld-Maze-vo-lr=0.005-num_steps=200/MiniWorld-Maze-v0.pt (torch_old, 812358 bytes, 23 tensors)

weight f4 [32, 12, 5, 5]
000000 84 d6 ed 3c 7a 91 8f bb c9 aa 5f 3d d5 c6 9f bd
       0.029032953 -0.004381356 0.054606233 -0.07801596
000010 07 22 6e 3d b8 df b4 3d 7b 58 5c bd 1c 62 8f 3d
       0.05813792 0.088317335 -0.05379532 0.07001135
000020 16 39 e1 3d a9 d8 03 be 76 39 83 3d 91 1f 31 3d
       0.109972164 -0.12875618 0.06407444 0.043242995
000030 2d 08 31 bd ad 07 b1 bc 4b 4f fa 3c 9c 08 82 3c
       -0.043220688 -0.021610105 0.030555388 0.015873246
000040 65 be 23 be ea 1c 21 be dc 4e de bd 2a e9 b6 bc
       -0.15990598 -0.15733686 -0.10854885 -0.022327978
000050 1f 3e 8f 3d b2 de 0c 3e e5 ae 9a 3c 7e de 57 3d
       0.069942705 0.13756827 0.018882224 0.05270242
000060 06 80 4f 3d f9 bb 08 3d 40 59 b4 bc 56 c8 6e bc
       0.050659202 0.03338239 -0.022015214 -0.014574131
000070 0c 69 1b 3c 03 63 eb 3c fd 63 9e 3d 36 f7 2b 3b
       0.009485494 0.028733736 0.07733915 0.0026239878
000080 c7 86 9f bd 43 9c d1 3c d6 ff 37 3c 62 23 06 bd
       -0.077893786 0.025587207 0.01123043 -0.032748587
000090 60 24 a7 bc 22 6e 92 bd 58 0b ca bc c7 43 0f be
       -0.020403087 -0.071499124 -0.024663612 -0.13990699
0000a0 36 70 db bc 68 c4 59 bd 2d f3 9a 3d 4c d1 60 bd
       -0.026786905 -0.053165823 0.07565913 -0.0548871
0000b0 c5 0d 18 bd 48 81 5b bd db af 31 be 46 77 93 ba
       -0.037122507 -0.05359009 -0.1735224 -0.0011250756
0000c0 f1 68 ac 3d 99 45 79 bd d4 34 cb 3b 01 73 c1 3d
       0.084184535 -0.06085739 0.006201366 0.094457634
0000d0 36 62 af bd 96 5b 5d bd 69 a9 c6 bb 9e 1b 89 3d
       -0.08563654 -0.05404242 -0.0060626757 0.06694721
0000e0 a1 bd c1 bb 94 37 a8 3d 16 93 3c be 88 3c 8c 3c
       -0.005912498 0.08213726 -0.18415484 0.017118707
0000f0 42 02 5c bc 41 ce 7a bd 2a d1 e5 ba e3 d8 8f 3c
       -0.013428273 -0.061231855 -0.0017533649 0.017559474
000100 a8 28 4a 3e f0 39 87 3d ff 32 a7 3b 29 9d 4f 3d
       0.19742072 0.066028476 0.0051025148 0.05068699
000110 b9 69 63 bd df 26 ce 3d 59 d1 b3 3d 99 a0 01 be
       -0.055520747 0.10066008 0.08780164 -0.1265892
000120 e9 6f a3 bd 39 5c 97 3d 9d c4 2f 3d 7e a7 87 3c
       -0.079803295 0.07390637 0.042912114 0.016559359
000130 8d ae 40 bd e5 fc 2e bd 2d b3 d7 bc 18 39 ed 3c
       -0.047041465 -0.042721648 -0.026330555 0.028957888
000140 4a 86 2f bd 98 bd 10 be e1 e4 0e be 6a b6 3a 3d
       -0.042852677 -0.14134824 -0.13954498 0.04558412
000150 bf c2 65 3d f5 64 8c 3c 74 85 49 be 47 4d c6 bd
       0.056093927 0.017137984 -0.19679815 -0.09682708
000160 b9 94 a5 3d 33 ab d0 3d 5d 42 c5 bc ae 85 45 bd
       0.08085007 0.10188904 -0.024079496 -0.04822319
000170 b6 36 a5 bd 17 8c dd ba 2c d8 1f 3e d1 54 12 be
       -0.08067076 -0.0016902712 0.15609807 -0.14290167
000180 fa 9b 4c be 0c ea 88 bd fc 83 09 be d1 81 34 bd
       -0.19981375 -0.06685266 -0.13429254 -0.044069115
000190 33 95 c3 3c 23 6e 1d bb 39 1f bc bc e5 5c aa 3c
       0.023874855 -0.0024021945 -0.022964107 0.020796249
0001a0 a7 29 08 3d 4d a4 37 3c ed 14 86 3d fc 95 8b bd
       0.033242848 0.011208606 0.0654696 -0.068157166
0001b0 19 ea e3 3d 02 95 41 3e 8b c2 c3 3d c5 fd 5a bd
       0.11128635 0.18904498 0.095585905 -0.05346467
0001c0 f2 bd ac ba 33 4e 0a 3d d7 ff f3 3d 8c 56 9a bb
       -0.0013179167 0.033765983 0.11914032 -0.004710024
0001d0 e0 51 73 bd a8 83 28 ba 7a 45 70 3c 46 79 61 3e
       -0.059404254 -0.000642831 0.014665002 0.22018918
0001e0 5b 21 aa bd 32 1b 7e 3b 0b 05 a2 3d 03 c0 99 bd
       -0.08307143 0.0038773534 0.07911118 -0.075073265
0001f0 63 76 52 3d 7b 50 e7 3d dc 5c a2 bd 41 50 f3 3d
       0.051382434 0.11294647 -0.07927868 0.118805416
000200 bd ba 2b 3c ee b6 40 3e 25 12 fe 3d 20 df 32 bd
       0.010481534 0.18819782 0.124058045 -0.04366982
000210 9c 36 3d 3d 1f a4 b7 bd bf d9 93 3d 15 9c 85 3c
       0.046194658 -0.089668505 0.07219266 0.016309777
000220 54 d1 00 3e 48 14 a3 bd 5e 6b 65 3e 69 c3 43 3d
       0.12579852 -0.07962853 0.22404239 0.04779378
000230 b0 2f 86 3c 9a bc 5d 3e 85 23 ba 3d 8f 53 70 3d
       0.016380161 0.21653977 0.09088806 0.058673438
000240 1f bb 4a 3d 93 d7 2f 3d 2b 1e e1 b9 1c 85 1c 3e
       0.04949486 0.042930197 -0.0004293782 0.15285152
000250 02 95 fe 3c 76 53 43 3e 2a ae 3b bd 4f 8e 1c be
       0.031076912 0.19074807 -0.045820393 -0.15288661
000260 41 20 a5 bd db 60 b1 bc f7 92 21 be ed 90 5a bd
       -0.080627926 -0.02165263 -0.15778719 -0.05336087
000270 ca de 47 be 4f b4 f1 bc 99 25 6b bd e8 b8 31 bc
       -0.19518581 -0.029504923 -0.057408903 -0.010847308
000280 f0 d5 b5 bc 5a b3 68 3c f9 a4 9c bb 61 93 fd bd
       -0.02219674 0.014202917 -0.0047804085 -0.12381626
000290 2c c9 82 bd 6a 98 06 3d fb 75 e4 bd c9 a6 cd bd
       -0.06386027 0.032860197 -0.111553155 -0.10041577
0002a0 5d af 8a 3b f4 bb 27 3c a2 9b 22 3d b8 c2 24 3c
       0.0042323307 0.010237683 0.039699204 0.01005619
0002b0 1f 5f b9 3d 3e 4f 03 be c6 99 fc 3d 0e 89 ed 3d
       0.09051346 -0.12823197 0.123340175 0.11598407
0002c0 5d dd 0d 3d 45 80 ea 3d 7f 7f 35 3e 8d 35 5d 3e
       0.034634937 0.11450247 0.17724417 0.21602459
0002d0 08 0d 1d 3d 5b 70 5a 3d f6 3d 8f bd 16 ae c4 3d
       0.038342506 0.053329807 -0.0699424 0.09603517
0002e0 bc 0c 1b bd 1a 18 97 3c c9 ae 94 3d f2 95 35 be
       -0.03785394 0.01844411 0.072599 -0.17732981
0002f0 57 11 36 3e ee b8 1c 3c 4e 48 ec bc aa 88 bc 3c
       0.17780052 0.009565575 -0.028843071 0.023014385
000300 3d 4a cb bc 1a 6f c5 b9 e5 7d b7 3d 7c 77 92 3d
       -0.024815673 -0.00037657545 0.08959559 0.07151696
000310 1c 47 80 3d 21 b6 3e bc dc 48 22 bd d2 2c 62 bd
       0.06263563 -0.011640103 -0.039620265 -0.055218525
000320 bc cc e9 3d 21 5d 8d 3e 53 a9 56 3d e2 1d 41 3d
       0.11416003 0.27610114 0.052407574 0.04714764
000330 f0 22 8c 3d bc 9c d7 bd 9e 68 14 3e 98 63 e9 bd
       0.06842601 -0.105279416 0.14493033 -0.11395949
000340 54 90 ee 3d e4 cd 09 3d 8f 22 64 be 17 59 f5 3d
       0.11648622 0.03364362 -0.22278808 0.11979883
000350 27 9b 34 be 0b 7b 21 bd da 0b 4c be a9 91 14 3d
       -0.17637311 -0.039423984 -0.19926396 0.036271725
000360 42 66 17 3d 56 be 97 3d 12 bf 31 3d 4b b5 8e 3d
       0.036962755 0.074093506 0.04339511 0.06968173
000370 cb fa 27 bd 78 47 ab bd 78 35 2b bd 70 85 5c 3e
       -0.04101066 -0.08363241 -0.04179904 0.21535277
000380 dc 1e 97 3d 0c 2a 28 3d 33 3f 39 3d 7b 2c b8 3c
       0.07378933 0.041055724 0.045226287 0.022482147
000390 54 2d ad 3d 14 f4 c5 3d 79 e6 c4 3a 28 e9 cb bd
       0.08455911 0.09665695 0.00150223 -0.099565804
0003a0 4d 08 f6 3c 75 1c 73 bd f1 35 70 3d d8 ef 02 3e
       0.030033255 -0.05935331 0.058645193 0.12786806
0003b0 69 5f 18 3e 7b 3b e3 3c f5 36 c2 bd 7e 3f c1 bc
       0.14880146 0.027738323 -0.094831385 -0.023589846
0003c0 bc a0 c5 ba 19 02 70 bc 93 1f 17 3e a3 f7 7f 3d
       -0.001507781 -0.014648938 0.14758138 0.062492024
0003d0 8e 43 24 3d 59 03 7f 3c 84 b1 73 3d 12 e9 b5 3d
       0.040103488 0.015564763 0.059495464 0.08882345
0003e0 83 98 23 3e 2c 93 95 3d 41 64 76 bd a6 76 8c 3d
       0.15976147 0.073034614 -0.060154203 0.06858568
0003f0 66 35 4a 3e d9 83 8e 3d d3 62 c7 3d f3 0d 9d 3d
       0.19746932 0.06958742 0.09735646 0.07668676

bias f4 [32]
000000 e1 b3 be 36 13 a2 c9 36 7d 65 8d b6 45 3e 44 36
       5.683382e-06 6.0091347e-06 -4.2139422e-06 2.9242522e-06
000010 a7 8c eb 36 00 0d 0b 36 76 8f 81 b6 07 7e 9b b7
       7.01992e-06 2.072018e-06 -3.8612006e-06 -1.8536126e-05
000020 5e ee 87 b7 d6 d1 12 b5 46 2d 6d b7 fa 3f 40 b6
       -1.6204252e-05 -5.469459e-07 -1.4136842e-05 -2.8647469e-06
000030 7f 79 52 37 3f 68 cb 35 f0 95 4a 37 01 31 22 36
       1.2545263e-05 1.5155018e-06 1.2075048e-05 2.4168405e-06
000040 33 d6 28 37 8c 29 3e 33 de 68 42 b6 84 64 8c b5
       1.00634525e-05 4.427561e-08 -2.8969293e-06 -1.0460067e-06
000050 3f 22 5c 36 50 bd 02 37 4b 24 36 b6 1a f1 0e b5
       3.2802488e-06 7.792682e-06 -2.7141239e-06 -5.324997e-07
000060 d3 e4 7f b6 54 86 98 b4 62 4d 3b b7 b4 63 b5 b5
       -3.8131154e-06 -2.8409943e-07 -1.1164086e-05 -1.3514568e-06
000070 f1 64 4c b5 a8 16 93 b6 00 bb 04 36 fd 1b 26 b6
       -7.614281e-07 -4.383579e-06 1.977838e-06 -2.475222e-06

weight f4 [32]
000000 9e 3d 95 3f a4 2d 75 3f ec ca 8c 3f 85 33 84 3f
       1.1659429 0.9577277 1.0999427 1.0328223
000010 73 7e 96 3f 29 d1 a0 3f 24 e4 54 3f 5b bb 4f 3f
       1.1757339 1.2563831 0.83160615 0.81145257
000020 d5 7a 6a 3f d2 a0 80 3f a6 d2 75 3f 39 2f 86 3f
       0.91593677 1.0049078 0.9602455 1.0483161
000030 59 70 8f 3f 73 c6 62 3f bb e0 68 3f 3d 56 8a 3f
       1.1206161 0.8858406 0.9096791 1.0807568
000040 8a 61 8f 3f 1e 36 7f 3f 99 43 79 3f c8 0a 78 3f
       1.1201642 0.9969195 0.9736877 0.9689145
000050 62 11 61 3f 04 b1 57 3f 6d a1 77 3f b7 9a 96 3f
       0.8791715 0.8425448 0.9673069 1.1765965
000060 a6 d1 5f 3f 4f b4 80 3f 1c e9 5c 3f 05 49 5c 3f
       0.87429273 1.0055026 0.86293197 0.8604892
000070 b4 9d 69 3f c1 72 94 3f 99 a3 80 3f 88 bc 54 3f
       0.9125626 1.159752 1.0049926 0.83100176

bias f4 [32]
000000 c0 b8 cf bc 22 ee 28 be b8 45 fa bd 1e 5b ac bc
       -0.02535665 -0.1649709 -0.12220329 -0.021039542
000010 9b 97 29 be 7a 49 40 bc 4d 77 2e be f8 16 56 be
       -0.16561739 -0.011736268 -0.17037697 -0.209072
000020 ba 50 f3 bd 43 00 e6 bc 0f cd 53 be 3e 80 da bd
       -0.11880632 -0.028076297 -0.20683692 -0.106689915
000030 95 90 07 be 71 e4 b9 bd 96 4a 9e bd 80 2d 13 bd
       -0.13238747 -0.09076775 -0.0772907 -0.035932064
000040 cf 4c 02 be a0 0e ce bd 3e 71 71 3c cb d0 5b bd
       -0.12724613 -0.10061383 0.014736472 -0.053665917
000050 13 0c 16 be a6 eb 0f be 8e 6a 39 be 80 fe 28 be
       -0.14653043 -0.14054736 -0.18107054 -0.16503334
000060 6d c1 e0 bd 60 5e b1 bd a0 0b 30 be 6f d1 18 be
       -0.10974393 -0.08660579 -0.17191935 -0.14923643
000070 02 ec 12 be de 13 4e 3c 8a a6 23 be 80 b1 6b be
       -0.14347842 0.012577979 -0.15981498 -0.2301693

running_mean f4 [32]
000000 ce e8 19 40 6e 85 81 c0 40 ca 54 40 3f 52 b5 40
       2.4048343 -4.047538 3.3248444 5.66629
000010 a1 49 05 40 e8 2e 3e 40 2b 1f 6d bf e5 d3 7d 40
       2.082619 2.971613 -0.92625684 3.966058
000020 1a bb 3a c0 de 0b 97 c0 5b 27 83 c0 dd 8f 4c 40
       -2.9176698 -4.7201986 -4.098554 3.1962807
000030 14 5c f4 3f ec 30 f7 bf 97 58 a5 c0 06 a1 36 40
       1.90906 -1.9311805 -5.167064 2.853578
000040 8e df e4 3f 54 36 8b 40 97 28 88 c0 c4 2e 77 40
       1.7880723 4.350382 -4.254955 3.8622293
000050 68 31 96 c0 7b 7d eb 3e c3 24 86 c0 f6 c8 6f 40
       -4.693531 0.45994172 -4.1919875 3.7466407
000060 77 37 78 c0 64 ad 6d c0 e7 90 7c 3f b6 4d 85 c0
       -3.8783853 -3.713708 0.98658603 -4.165736
000070 1b d2 99 40 c3 1d 81 40 05 73 83 c0 cf 95 7c c0
       4.8068976 4.034883 -4.1077905 -3.9466436

running_var f4 [32]
000000 ce 96 f5 3e ce 39 39 3f b0 f3 26 3f a1 d6 be 3f
       0.47966617 0.7235383 0.6521559 1.490925
000010 58 b6 de 3e c7 bf 0b 3f 13 03 1d 3e c1 ca 20 3f
       0.43498492 0.54589504 0.15333204 0.6280938
000020 e5 a5 0a 3f fa 66 95 3f d8 5f 58 3f 8d df 02 3f
       0.54159385 1.1672051 0.84521246 0.5112236
000030 82 aa c9 3e f5 c2 71 3e 66 76 a4 3f de 0a 2b 3f
       0.393879 0.23609526 1.2848632 0.66813457
000040 86 96 b8 3e c5 ec 30 3f 20 40 71 3f d8 eb 19 3f
       0.3605234 0.6911128 0.9423847 0.60125494
000050 ea 5c 8e 3f af b1 93 3d 10 66 49 3f 31 9d 3c 3f
       1.1122105 0.07211625 0.7867136 0.73677355
000060 3d 4d 55 3f 7d a2 90 3f eb 78 02 3e b5 7b 74 3f
       0.8332098 1.1299587 0.12741439 0.9550126
000070 b3 52 33 3f 62 ee 61 3f 4a a3 51 3f e3 c5 51 3f
       0.70048064 0.8825437 0.81889784 0.81942576

weight f4 [32, 32, 5, 5]
000000 d7 02 b5 3d 4a a8 35 3e 01 77 dc 3d be c9 3d 3c
       0.08838432 0.17739978 0.10764886 0.011583744
000010 ba 2e 12 3e d1 2b 7e 3d 74 8b f1 3d 31 e7 e0 3d
       0.14275637 0.062053505 0.11794177 0.10981596
000020 18 fb ba 3d c7 b9 62 3e cc 9f 62 3d 67 08 0d 3e
       0.091299236 0.22141181 0.055328175 0.13772736
000030 d9 53 e9 3d 2b 9a 32 3e 58 df 03 3e 29 20 b3 3d
       0.11392946 0.17441623 0.12878168 0.087463684
000040 04 64 d8 3d ec 7d 4f 3e 50 b0 02 3e af 9c df 3d
       0.105659515 0.20262879 0.1276257 0.10918557
000050 48 3d 84 3d db 49 0e 3e 88 44 ba 3d 84 19 2e 3e
       0.06457001 0.13895361 0.090951025 0.17001921
000060 8b 23 fa 3d 70 b8 8c bd 10 89 e0 bc b4 96 bb bd
       0.122138105 -0.06871116 -0.027409106 -0.09159604
000070 ba 8c cf bb 8d 98 99 bd 4b ba c9 bc a0 12 a6 3b
       -0.0063339146 -0.074998 -0.024624964 0.0050681382
000080 cd f7 b1 bd 58 63 09 3d 22 81 1a bd b3 21 c1 bd
       -0.086898424 0.033542007 -0.037720807 -0.09430256
000090 8f 76 e8 bd 6f 16 a4 bd 0c 20 34 3a 91 54 fe bd
       -0.11350738 -0.08012091 0.00068712304 -0.124184735
0000a0 4e ed 3f bc 95 69 aa 3c ce 49 98 bc a2 4b 91 bc
       -0.011714293 0.020802299 -0.01858988 -0.01773626
0000b0 6d 3e 72 bd 84 f6 d4 bb e8 ed a7 3b 32 27 e3 bd
       -0.059141565 -0.0064991135 0.005124796 -0.1109146
0000c0 7b 8e 07 bd d9 12 89 3b 3a 7a 74 bd 63 07 ba 3b
       -0.033094864 0.004183155 -0.059686877 0.00567715
0000d0 80 ad 61 3d fb 30 ed 3d 7f 7e 8b 3d 78 5e a7 bd
       0.055097103 0.11581608 0.068112366 -0.08172315
0000e0 d7 28 b0 3d 4f ef 15 3e cd 2c 8b 3d 04 a5 f6 3d
       0.086015396 0.1464207 0.067956544 0.12043193
0000f0 6a 64 b5 bd 8b f6 55 ba 6b 52 8b 3c 47 35 07 3e
       -0.08857043 -0.0008162043 0.017007073 0.13203917
000100 7e b1 92 3c 31 b1 5a 3a bb a4 b8 bc 42 6e 4f bb
       0.0179069 0.00083424436 -0.022539487 -0.0031651412
000110 0b f7 03 3c c2 10 ef 3d 4c ca 25 bd d5 0c d7 3d
       0.008054505 0.11673118 -0.04047613 0.105004944
000120 74 9f 48 3c a6 93 43 bc 7e fc a9 3d bc 94 80 bd
       0.012245048 -0.011937058 0.08300112 -0.06278369
000130 62 6c 09 3d 5d 53 1e 3e f6 ca fc 3d 73 13 48 3d
       0.033550628 0.15461488 0.12343399 0.048846673
000140 1a ac 9d 3d 6b 9f c0 bc ce 6b d0 3c 8d 30 88 3d
       0.076988414 -0.023513516 0.02544203 0.06649885
000150 1a fb 6a bc 06 ba 79 bc 02 53 be 3c 56 fa 9d 3c
       -0.014342094 -0.015242105 0.02323294 0.019284409
000160 e7 ec a7 3c ef 19 6c 3c 1f bb 26 b9 ee 25 06 3e
       0.020498706 0.01441048 -0.00015900702 0.13100407
000170 ca 7b 07 3e 6d 48 81 3d b9 84 b5 3c 5d fa a1 3c
       0.13230816 0.06312642 0.022158014 0.019772703
000180 34 e2 fd 3d de af 89 3c 8c bd 05 3d 7f c7 38 3e
       0.123966604 0.016807493 0.03265147 0.18044852
000190 ee ea 42 3d fb a5 e5 3d 7e 55 0c 3e e2 95 3b 3e
       0.047587328 0.11213299 0.13704488 0.18318895
0001a0 03 ac 21 3e 8e cf c3 3d c7 ca bb 3d 74 36 05 3e
       0.15788274 0.09561072 0.09169536 0.13009053
0001b0 27 a3 28 3e 68 e0 0b 3e 38 f5 d9 bc 56 af 89 3d
       0.16468488 0.13659823 -0.026606187 0.06722896
0001c0 1e 16 45 3e 5a 6e 8b 3d 48 34 19 3e 8e d3 b7 3c
       0.19246718 0.06808157 0.1496135 0.022439744
0001d0 96 01 b3 3d 0f 4c 24 3e 1c f6 be 3d cf f6 f2 3d
       0.08740537 0.16044639 0.093242854 0.11863481
0001e0 ac 32 b8 3d 7e b0 3f 3d fc 7f 3c 3d 98 cc ac 3d
       0.0899404 0.046799175 0.046020493 0.08437461
0001f0 8c d0 ee 3d 8c 71 98 3d 10 e1 de 3d b4 85 04 3e
       0.11660871 0.07443532 0.10882771 0.12941629
000200 9e 2b d3 3d 94 12 15 3e 9f 2b 2a 3d 81 b8 9b 3d
       0.10311054 0.14557868 0.041545507 0.07603551
000210 30 f1 85 3d 15 a2 49 3e 9f 9c e9 3d 85 f0 ab 3d
       0.065401435 0.19690736 0.11406826 0.08395485
000220 fa 8a c7 3d 72 84 9c 3d 5f 18 75 3e b1 cf 02 3e
       0.097433046 0.076424494 0.23935078 0.1277454
000230 07 4b 66 bc 43 77 83 3c ef d4 d8 3d ea 9d 3d 3e
       -0.014055974 0.01604808 0.10587489 0.1851727
000240 b9 fa ee 3d 2d 68 93 3d 74 c6 a2 3d 19 fb 95 3d
       0.11668915 0.07197604 0.07948008 0.07323284
000250 08 1e 19 3e db 50 8d 3d fe 64 86 bd 7c 33 fc bd
       0.14952862 0.069001876 -0.065622315 -0.12314507
000260 c7 11 61 bd 2f 48 6e bd a9 55 ec bd 65 01 99 bd
       -0.054948594 -0.05817431 -0.11539776 -0.07470969
000270 98 c8 b1 bd 9a 0d 9b bd 7a 4c bd bd 60 09 a3 bd
       -0.08680838 -0.07570954 -0.09243102 -0.079607725
000280 c9 18 e2 bd e2 f1 e4 bd 88 ef 11 bd 0b 8e 0b be
       -0.11039884 -0.11178948 -0.035628825 -0.13628404
000290 f6 23 8c bd 80 7b 57 3d 86 38 89 bd ce 90 70 3d
       -0.068427965 0.052608013 -0.06700234 0.058731847
0002a0 10 9f a0 bd e0 aa a0 bd 27 3f 37 bc 06 3d 62 bd
       -0.07842839 -0.07845092 -0.01118449 -0.055233978
0002b0 05 9f b8 bd cf 63 17 bd 29 4a d3 bd 39 2b 27 3c
       -0.090147056 -0.03696042 -0.10316879 0.010203176
0002c0 89 f7 02 3d 24 d8 82 3d 0c e3 5c 3d 7d 2d 7d 3d
       0.03197435 0.06388882 0.053927466 0.06181096
0002d0 c3 1f 7a bb b7 4d fd 3d 89 5b 97 3c 26 b4 27 bc
       -0.0038165904 0.123683386 0.018476265 -0.010235822
0002e0 69 f0 98 3d e1 d4 e7 3c 31 fd 89 3d 9b eb b2 3d
       0.074677296 0.02829975 0.067377456 0.087363444
0002f0 39 93 ef 3d a9 1b e4 3d 2f 63 72 bd 4d 6d 8a 3c
       0.11698002 0.11138088 -0.05917662 0.016897822
000300 10 1a 23 3d 99 72 82 3d d9 0d d4 3d 95 c0 95 bb
       0.039819777 0.06369514 0.10354204 -0.0045700767
000310 b3 c7 79 3d 58 3a ce 3c 44 01 bf 3c 65 45 10 3d
       0.060981464 0.025174305 0.023316033 0.03522243
000320 53 b7 77 3c 91 b9 ae bc fb 16 62 3c 12 73 cc 3d
       0.0151193915 -0.02132872 0.013799424 0.099828854
000330 b5 40 ea bc 07 0b a6 3d 87 0f 1b 3b ec dc 2d bd
       -0.028595308 0.08107572 0.0023660378 -0.042447016
000340 46 69 2d bc 9b cc 06 3e 71 29 60 3c e8 72 ab 3c
       -0.010584181 0.13163988 0.013681755 0.020928815
000350 0c 07 99 3d cd 1d 9a 3d 9e 5e 2f bd e5 4d b7 3c
       0.07472047 0.07525215 -0.042814843 0.02237601
000360 b0 75 f3 3c 33 fb 67 bc 22 4e 72 bc 12 cf b1 bc
       0.029719204 -0.014159012 -0.014789136 -0.021705184
000370 ed e3 04 bc 44 96 b4 3c 11 a3 11 3e f4 1c 32 bc
       -0.008110982 0.022044308 0.14222361 -0.010871161
000380 7d e3 4b bd fb a7 aa 3d e5 e2 0f 3d 4a cd 80 bd
       -0.049777497 0.08332821 0.035128493 -0.06289156
000390 44 fa b7 3d 28 42 19 3d c0 1b 07 3c 2f f1 c4 3c
       0.08983281 0.037416607 0.008246362 0.024040787
0003a0 1e c0 1c 3e f1 86 85 3d 9c 5c 37 ba 93 92 40 bd
       0.15307662 0.06519879 -0.0006994696 -0.047014784
0003b0 c6 93 1b 3d 15 6a fb 3d d6 43 ae bd 10 b3 13 be
       0.037982725 0.12276093 -0.085090324 -0.14423776
0003c0 13 01 0b 3d 24 e8 ee 3d ed 0b 46 bb 14 eb a5 bc
       0.03393657 0.11665371 -0.003021951 -0.020253696
0003d0 29 53 fc bd 51 e3 60 3e 8e 51 3f 3d b8 c6 75 3d
       -0.12320549 0.21961714 0.046708636 0.060003966
0003e0 a4 fe 7f bd 8f 23 3f 3d c5 25 29 bd 3f da 3f 3c
       -0.062498704 0.04666477 -0.041295785 0.011709749
0003f0 9b 58 b9 3b be 2c 1a bd 47 b7 70 bd db c1 35 3d
       0.0056563145 -0.037640326 -0.058768537 0.044374328

bias f4 [32]
000000 3c 1b b0 34 57 02 e4 34 fd c0 9b 34 36 d3 60 34
       3.280237e-07 4.2470012e-07 2.9011417e-07 2.0938464e-07
000010 ab 84 31 b4 e7 8c 03 35 06 9d ff 33 63 ef b9 34
       -1.6532674e-07 4.900634e-07 1.1902925e-07 3.4633112e-07
000020 ce a7 a1 33 a9 bd de b3 0f 4a a8 b4 a4 2b 77 35
       7.52767e-08 -1.03721796e-07 -3.1346323e-07 9.2078176e-07
000030 bf 8f 60 34 d9 a0 b2 33 8c 08 1e 35 7e 6a 08 33
       2.091392e-07 8.318029e-08 5.8872024e-07 3.176182e-08
000040 a8 56 ec b4 3d 0b 4d b4 96 35 28 b4 7f c0 99 33
       -4.4021476e-07 -1.9096201e-07 -1.5665714e-07 7.1596325e-08
000050 ab ab 92 33 1d 7b a4 34 1c 38 a2 34 3f 2c f5 34
       6.829881e-08 3.0636957e-07 3.0215676e-07 4.5667e-07
000060 14 a0 7d 35 5f 60 7e 34 24 c2 74 34 4b e3 33 b3
       9.448279e-07 2.3690653e-07 2.2794899e-07 -4.1883407e-08
000070 00 5f a3 b4 be fa 22 b1 59 45 29 b2 4d 62 cc b4
       -3.0430238e-07 -2.3716633e-09 -9.8528625e-09 -3.8069484e-07

weight f4 [32]
000000 6c a8 90 3f 47 f6 82 3f 39 94 95 3f 03 ed a3 3f
       1.1301398 1.0231408 1.1685859 1.2806705
000010 3f 98 7d 3f d9 d6 81 3f 39 fb 44 3f ce 8b 8e 3f
       0.99060434 1.0143691 0.76945835 1.1136415
000020 58 59 51 3f 43 57 8b 3f bc c6 81 3f b8 60 68 3f
       0.8177695 1.0886005 1.0138774 0.9077258
000030 d4 ec 67 3f 4b f9 91 3f fa 67 77 3f 7d d0 69 3f
       0.90595746 1.1404203 0.9664303 0.9133375
000040 8a c5 a6 3f d0 bb 72 3f 80 68 4c 3f 22 f1 6a 3f
       1.3029034 0.9481783 0.79846954 0.9177419
000050 cd f5 65 3f 10 83 85 3f 77 fa 5e 3f 1a 89 3a 3f
       0.8982819 1.0430622 0.8710093 0.7286545
000060 ca 3d 95 3f 23 eb 6b 3f 60 d6 82 3f 93 36 90 3f
       1.1659482 0.92155665 1.0221672 1.1266655
000070 12 e2 79 3f 3a 28 68 3f da c3 84 3f fb 23 80 3f
       0.9761058 0.9068638 1.0372269 1.001098

bias f4 [32]
000000 7a 62 03 be 63 c9 18 bd ac 81 73 bd d7 7e 25 bd
       -0.12830535 -0.037301432 -0.059449837 -0.040404167
000010 2f 11 08 be dd b5 10 3c 70 2a 5c be 0e 81 5f be
       -0.13287805 0.008832422 -0.21500564 -0.21826574
000020 90 01 2d be b1 80 23 bd 09 da 48 be 76 1b 41 be
       -0.16895127 -0.03991765 -0.19614424 -0.18858132
000030 15 05 64 bd 7f 31 eb bc fc 10 b5 bd b7 9f 8b bc
       -0.05566891 -0.028710125 -0.0884113 -0.017043931
000040 c5 40 b5 bc 62 02 35 be 1d f2 43 be ac f6 86 bd
       -0.022125611 -0.1767669 -0.19135328 -0.06590018
000050 6c 79 c9 bd 0c 91 28 be c0 c6 f8 bd 49 7c 1a be
       -0.098376125 -0.16461581 -0.121472836 -0.15086474
000060 0d 51 0e be f8 fe 3e bd ac 3f 77 bd ab 1d 80 bd
       -0.13898106 -0.046629876 -0.060363457 -0.06255659
000070 4b 28 3d be ff 35 78 bd 92 52 fe bd ff b5 5b bd
       -0.18472402 -0.06059837 -0.12418093 -0.053640362

running_mean f4 [32]
000000 cb a4 cb 40 56 c4 c2 bf 34 f1 d7 40 cc f0 cf 40
       6.3638663 -1.5216167 6.7481937 6.498144
000010 a2 51 cd 40 ac 94 74 c0 a6 f4 14 41 3d d5 eb 40
       6.416215 -3.8215742 9.309729 7.36978
000020 a9 3d d6 40 03 a4 d6 40 89 a2 bd 40 f9 46 2f 40
       6.695027 6.707521 5.9260907 2.7387068
000030 b9 c1 82 40 b1 33 b8 40 a4 5d 09 41 2d 81 05 c0
       4.086148 5.75631 8.5853615 -2.0860093
000040 a1 fa 98 40 ab c5 ac 40 b5 65 67 bf f4 48 ca c0
       4.7805943 5.3991294 -0.9038957 -6.3214054
000050 31 35 da c0 d7 fb 9b 40 da 5a ef 40 0d c8 08 41
       -6.818993 4.874492 7.4798403 8.5488405
000060 72 ce c9 40 be b9 06 c1 01 62 88 40 59 0c 45 40
       6.306451 -8.420347 4.2619634 3.0788786
000070 a8 f3 e1 40 7b 73 13 c1 a0 33 7d 40 c7 9f 1e 41
       7.060993 -9.215693 3.956276 9.914008

running_var f4 [32]
000000 af 47 a3 43 cb 36 c2 42 59 a4 30 43 f3 71 b3 43
       326.56003 97.10702 176.64198 358.89023
000010 49 bf 57 43 b8 70 dc 42 43 1a 87 42 90 16 b7 43
       215.74721 110.22015 67.55129 366.17627
000020 08 09 35 42 d5 74 49 43 de 25 2a 43 37 59 52 43
       45.25882 201.45638 170.14792 210.3485
000030 1c 44 50 42 94 77 0f 43 b6 58 80 42 1d 86 f1 42
       52.066513 143.4671 64.17326 120.76194
000040 e5 ef 71 43 c3 c7 ba 42 88 b5 91 41 26 07 97 42
       241.93709 93.39016 18.213638 75.51396
000050 9c cd d9 42 f6 8c 7d 43 f8 85 54 42 59 d7 e7 41
       108.90158 253.55063 53.13083 28.98015
000060 46 0a 83 43 9d eb 8f 42 14 d7 ef 42 98 28 61 43
       262.08026 71.96018 119.920074 225.15857
000070 60 25 a8 43 f7 97 e8 42 80 a4 18 43 f6 e6 7d 43
       336.292 116.29681 152.64258 253.90219

weight f4 [32, 32, 4, 4]
000000 d4 f3 de 3d b8 7f 09 3a 18 60 c1 3d 02 db 60 3e
       0.1088635 0.0005245167 0.094421566 0.21958545
000010 23 55 94 3d 10 52 c2 3d 83 72 cd 3d 2a 39 43 bc
       0.07242801 0.094883084 0.10031607 -0.011915484
000020 0b f7 8b bc 28 26 0c 3d 37 91 24 3e 25 92 4c 3b
       -0.017085573 0.034216076 0.1607102 0.0031215039
000030 06 de ce bc fb c9 32 bd 5f b6 89 3d f5 3d 89 3c
       -0.025252353 -0.043649655 0.06724238 0.016753176
000040 82 80 7b bc ee e8 39 bc be d6 d1 3d 72 ba 80 bc
       -0.015350463 -0.011347039 0.10246037 -0.015713904
000050 1f 50 a9 3c dc 2b 50 3d a2 8e 01 3e 1a b9 1f bc
       0.020668088 0.050823078 0.12652066 -0.0097487215
000060 be d9 b5 3c 80 3f a7 ba af eb 08 bc 6a 94 7c 3b
       0.022198554 -0.0012760013 -0.008356973 0.003854061
000070 6e 01 2b 3c 58 84 89 3c 46 d2 5a 3c c6 48 b5 3d
       0.010437353 0.01678674 0.013355797 0.08851771
000080 30 44 bd bc 0a 96 1b 3e e1 ae 1d 3e ce b1 cc 3d
       -0.023103803 0.15193954 0.15398742 0.09994851
000090 de e8 c8 bd 60 9a 65 3c 7b bb 81 3d 48 08 2b 3e
       -0.09810041 0.014013857 0.06334587 0.16702378
0000a0 59 e8 0d 3d 00 1b 69 3d 97 23 2c 3c b6 01 a4 3d
       0.034645412 0.056910515 0.010506532 0.08008139
0000b0 29 03 22 be 4e b7 b7 bd 5e 65 d3 3d a4 2e f4 3d
       -0.15821518 -0.089705095 0.10322069 0.119229585
0000c0 65 06 45 3b 5b ae 46 bd cd 12 89 3e d5 44 4c 3e
       0.0030063626 -0.048506122 0.26772156 0.19948132
0000d0 7b cb 14 be 93 27 5e 3b 37 ff 84 3e 32 0e 02 3d
       -0.14530747 0.00338981 0.25975963 0.03175182
0000e0 d8 f6 e2 3b 47 2c 26 3e 55 11 d3 3d 04 c6 3f 3e
       0.0069263987 0.16227828 0.1030604 0.1872788
0000f0 e4 1f e3 bd 4d 0f f3 bd 99 c9 6b 3d a5 13 ff 3d
       -0.11090067 -0.11868153 0.057565305 0.12454919
000100 bb d0 b8 bd c4 79 51 3d 0c 2f 2a 3e 0f 53 90 3d
       -0.09024187 0.051141515 0.1661951 0.07047092
000110 96 72 bb ba 40 e8 0d 3b 6e c4 fe 3d ea 96 e3 3d
       -0.0014301117 0.0021653324 0.1243981 0.11112769
000120 3b 82 15 3c 7a cb c3 3d 56 16 bb 3d f0 48 07 3e
       0.009125288 0.095602944 0.091351196 0.13211417
000130 04 31 3a bd 29 ed 5f bd 62 71 16 3e 59 ce 32 bc
       -0.0454569 -0.054669533 0.1469169 -0.010913455
000140 e6 d4 e7 3c 07 74 f8 3c 34 07 80 bd 21 4b 7d 3d
       0.02829976 0.030328764 -0.06251374 0.061839227
000150 37 53 b4 bc d8 9e 05 bd 8c 31 1d be f9 b6 ec bb
       -0.022012336 -0.03262219 -0.15350932 -0.0072239605
000160 e3 be 0c be d3 b0 0b 3d 68 04 9e bd 94 b6 03 3e
       -0.13744693 0.03410418 -0.07715684 0.12862617
000170 17 77 3b 3c 18 b7 8a 3b 79 75 54 3d 5c 1b e0 3c
       0.011441967 0.0042332523 0.051869843 0.027356796
000180 51 39 a5 bd 90 3e 69 bc 1b a5 70 bc 79 69 3f 3c
       -0.08067573 -0.0142361075 -0.014687802 0.0116828615
000190 ad 0c 00 be aa 6c d5 bd 99 80 f1 bd af d5 10 bd
       -0.12504835 -0.10421117 -0.11792106 -0.035360035
0001a0 f2 95 3a be 5b 5c 6c bd 83 f2 1f 3c 2a 2f b9 3d
       -0.18221262 -0.057705265 0.009762409 0.09042199
0001b0 58 b9 32 bd 8e fd 99 bd 69 f1 11 be 48 1b 23 be
       -0.04363379 -0.07519065 -0.14252247 -0.15928376
0001c0 99 1c a5 3d b9 28 df bd c9 fb 10 3e ab 1a 72 3e
       0.08062095 -0.10896439 0.14158548 0.23642986
0001d0 b7 28 5f 3c 7d 56 86 3d 9a 81 aa 3d 2e 75 0a 3e
       0.013620547 0.06559465 0.08325501 0.13521263
0001e0 d8 a9 ae 3d b9 c0 d9 bc 0d 5b e7 3d 72 c4 d4 3b
       0.08528489 -0.026581155 0.112966634 0.0064931447
0001f0 e6 99 c1 ba d1 6f ae 3c 8e f5 13 bc e7 ac 85 3d
       -0.0014770597 0.021293553 -0.009030713 0.06527119
000200 55 99 40 be 5d b3 2a be ed 8d 6a 3c 33 01 74 bd
       -0.18808492 -0.16669984 0.014316064 -0.059571456
000210 07 ea 94 bb e9 29 00 be 6e f6 3e bb 44 1b e7 bc
       -0.0045445 -0.12515987 -0.0029138583 -0.028211243
000220 e6 b1 0a bd 70 6c 85 bd c1 28 57 bd a6 f9 13 3d
       -0.033861063 -0.065148234 -0.0525291 0.036126755
000230 c9 9e 34 bd 6b cd 72 bd 87 14 69 3d 28 1a e6 3d
       -0.04409674 -0.059277933 0.056904342 0.11235458
000240 8d 4a 1b be 5f f0 83 bd c9 d0 bc 3b 15 a8 28 3e
       -0.15165158 -0.064423315 0.005762194 0.16470368
000250 6a b4 f2 bc 31 46 5f bd 69 97 c2 3d 56 7f 05 bc
       -0.029627044 -0.0545103 0.095015354 -0.008148035
000260 cf 2e 2e be 5b 36 b4 bd 21 54 00 3d 75 2a 01 3e
       -0.17010044 -0.0879943 0.03133023 0.12613852
000270 4a 22 21 be 99 50 c5 bd 50 e5 e2 3d 53 d7 14 3e
       -0.15735736 -0.096345134 0.11078894 0.14535265
000280 e4 ac 30 bd 29 68 7d 3c be 4f 01 3e 7d 94 23 3e
       -0.04313363 0.015466728 0.12628075 0.15974613
000290 f0 ac 27 bd cc 95 a5 3d 3a 73 a7 3d 88 96 ad 3c
       -0.04093641 0.08085212 0.081762746 0.021189943
0002a0 bc 99 46 bd c8 e6 8d 3d d7 c0 4c 3e 69 04 21 3e
       -0.048486456 0.06928784 0.19995438 0.15724339
0002b0 ff bd ce bd dd 40 a8 3b 1b d5 40 3e 75 76 30 3e
       -0.10094833 0.0051346854 0.18831293 0.17232688
0002c0 12 26 28 bd f3 78 89 bd ea 38 fe bc 1c b8 1a 3e
       -0.04105193 -0.06712522 -0.031032998 0.15109295
0002d0 1b bb 01 3d 6d ab 3a bd a3 51 35 3d 81 6d 1f 3e
       0.03167258 -0.04557364 0.044267308 0.15569116
0002e0 de bb 4a bd a6 d0 38 bb 4c 2e 39 3c fa d1 df 3c
       -0.04949557 -0.0028200536 0.011302542 0.027321804
0002f0 56 4d 10 bd 4b 59 67 bd 7b 44 36 3d c3 3c 82 3d
       -0.035230003 -0.05648164 0.0444989 0.06359246
000300 9d d3 98 3c d4 6f f2 bd 04 10 c1 bd a7 e5 8f bd
       0.018655593 -0.11837736 -0.09426883 -0.070262246
000310 f9 c2 2c bc 7d 75 ba 3d ab 14 0d be a1 42 05 be
       -0.010544532 0.0910444 -0.13777415 -0.13013698
000320 53 da 94 bd c2 17 11 3e 47 b1 9b bd 32 40 b0 bd
       -0.072682045 0.14169219 -0.07602172 -0.08605994
000330 66 5e 38 be e5 9e 0f bd da e7 b2 bd 33 0b c4 bd
       -0.1800476 -0.035063643 -0.087356284 -0.095724486
000340 29 32 46 3d b0 8c 09 3d fa 0d ab 3c a8 af 62 bc
       0.04838768 0.033581436 0.020880688 -0.013835825
000350 b0 94 1e be 06 d7 a8 3a 3e 17 5c 3d 32 65 7c 3c
       -0.15486407 0.0012881465 0.053733103 0.015404986
000360 1f eb ac bd e9 6c 22 be 05 2a cd bb d4 fe 22 bb
       -0.08443283 -0.15861858 -0.0062611126 -0.0024871128
000370 da 37 05 be 0e 7d 05 3d 4a 24 d6 bc 58 39 2a 3c
       -0.13009587 0.032589965 -0.02614035 0.010389648
000380 7c f0 f9 bc ec dc bf 3c de a3 f1 bd ba de a2 bd
       -0.03051018 0.023420773 -0.11798833 -0.07952638
000390 1f f3 59 3d 11 a5 89 bd 2b c1 08 be ee a6 8b bd
       0.053210374 -0.06720937 -0.13354938 -0.06818949
0003a0 0b 97 26 bd a9 67 27 be ce 6f d5 bd 8c ed 6e bd
       -0.04067139 -0.16348137 -0.10421716 -0.05833201
0003b0 10 55 10 3d c2 66 c7 bb 56 b1 90 3b 47 c3 77 bd
       0.035237372 -0.0060852477 0.0044156713 -0.060488965
0003c0 7b 2a 7e 3d 75 8f e2 3d c8 cd 40 3e 9f 64 0d 3e
       0.06205223 0.110625185 0.188285 0.13807915
0003d0 1d 32 43 bb 16 56 13 3e 7c 05 b7 3d 10 43 bd 3d
       -0.0029784509 0.14388308 0.08936593 0.09241307
0003e0 e5 ba 57 3e 57 17 aa 3d b4 11 0f 3e 2c dd 69 3e
       0.21067388 0.08305233 0.13971597 0.22838277
0003f0 07 51 4b 3e 8d 78 6c 3d 43 28 08 3e 25 17 e2 3d
       0.19855128 0.057732154 0.13296609 0.11039571

bias f4 [32]
000000 19 dd 94 b1 0d b3 65 34 e8 df 7d b3 aa a5 c3 b3
       -4.332503e-09 2.1392425e-07 -5.9109794e-08 -9.110529e-08
000010 38 f8 4b 34 f4 ae 7a b4 28 b2 47 b5 b7 17 a5 b4
       1.899615e-07 -2.3346712e-07 -7.439253e-07 -3.07509e-07
000020 db 6f f4 b4 48 dc 86 33 61 28 f1 b4 15 7f 00 b5
       -4.5529927e-07 6.27993e-08 -4.4919128e-07 -4.7868645e-07
000030 b0 4e e7 b4 36 ff b8 33 4f 20 5d b5 ba 2e 30 b4
       -4.3084356e-07 8.61459e-08 -8.237593e-07 -1.6408276e-07
000040 81 22 d2 34 5b de 80 b4 f0 5c 36 34 70 d9 0d b3
       3.9140653e-07 -2.4003643e-07 1.6983881e-07 -3.302688e-08
000050 26 3a 24 34 3b 12 5b 34 4a f2 0f b4 52 f4 03 34
       1.5294845e-07 2.0402597e-07 -1.3406057e-07 1.2289209e-07
000060 ee 62 19 b5 b2 6d 20 34 ac 7d 93 33 0a d9 b0 b4
       -5.7140903e-07 1.4941068e-07 6.8680805e-08 -3.294047e-07
000070 ea 8a 81 b3 a5 85 9c b4 e0 fe ab b3 da 2b 18 34
       -6.032299e-08 -2.9154504e-07 -8.0091695e-08 1.4172056e-07

weight f4 [32]
000000 e9 96 42 3f 91 05 4f 3f 54 38 43 3f c1 9d 61 3f
       0.7601152 0.8086787 0.76257825 0.8813134
000010 8c bd 43 3f 25 d8 39 3f aa 08 70 3f a6 e5 3e 3f
       0.764611 0.72595435 0.9376322 0.74569166
000020 1c 09 6e 3f 51 8a 4e 3f e9 a1 81 3f 37 c2 70 3f
       0.9298265 0.80679804 1.0127536 0.9404635
000030 67 ea 45 3f f9 92 51 3f 27 19 37 3f a2 c7 54 3f
       0.77310795 0.8186489 0.71522754 0.83117115
000040 45 c7 4b 3f 4f 0e 4b 3f 1e c9 46 3f 3f cd 3f 3f
       0.79600936 0.7931871 0.7765063 0.74922556
000050 71 96 46 3f 88 94 3f 3f 30 63 4a 3f 0d 10 56 3f
       0.77573305 0.74836016 0.790576 0.8361824
000060 47 3f 44 3f b8 92 7b 3f e0 88 4f 3f 78 83 4c 3f
       0.76659054 0.9827075 0.8106823 0.79888105
000070 12 df 49 3f 7d 91 58 3f 69 9a 4f 3f 61 b3 4f 3f
       0.78856003 0.84597 0.81094986 0.81133085

bias f4 [32]
000000 f1 95 39 be 1b 99 21 be 59 a1 87 be 21 91 0d be
       -0.18123604 -0.15781061 -0.26490286 -0.13824894
000010 97 e5 4d be 2f b5 9e be b6 04 03 bd 58 87 8e be
       -0.20107113 -0.30997607 -0.031986915 -0.27837634
000020 56 df 04 bd bc e8 84 be cd c9 55 bd 30 ec 33 bd
       -0.032439552 -0.25958812 -0.052194405 -0.043926418
000030 ae cf 73 be 8c df 2b be 2d e5 9e be 1d 27 f2 bd
       -0.23809692 -0.16784495 -0.31034222 -0.118238665
000040 39 10 42 be ef b2 68 be 54 74 91 be 00 a3 72 be
       -0.18951501 -0.22724508 -0.28409064 -0.23694992
000050 58 d4 5d be 7a 03 8e be 11 b2 61 be 86 c4 1a be
       -0.21663034 -0.27737027 -0.22040583 -0.1511403
000060 77 aa 7a be 61 cf 7b bd d0 39 ff bd 03 d7 73 be
       -0.2447909 -0.06147707 -0.12462199 -0.23812489
000070 ea 47 16 be bd 2d b1 bd 87 7e 3c be 7c 2a d7 bd
       -0.1467587 -0.08651302 -0.18407641 -0.1050615

running_mean f4 [32]
000000 92 54 57 40 b7 dd d8 c0 9a 92 8a c0 d8 77 3f c0
       3.3645368 -6.777065 -4.3303957 -2.9916897
000010 0d 3b 28 40 0f cc b3 c0 4c 91 07 bf 2f dd 97 c0
       2.6286042 -5.6186595 -0.5295608 -4.74575
000020 19 88 95 3e 4d 50 15 40 76 08 33 40 be 98 e1 be
       0.29205397 2.3330262 2.7973914 -0.44061846
000030 b7 a0 8d c0 f3 48 7d 40 22 ff 3f c0 6b 64 81 40
       -4.4258685 3.9575775 -2.999947 4.043508
000040 4d 5d 5a 40 ce 05 77 c0 b8 03 ac bf f2 db a0 3f
       3.4119446 -3.8597293 -1.3438635 1.2567122
000050 4d 04 00 40 d3 95 89 c0 da 2f 31 bf be 6b 3b 40
       2.0002625 -4.299539 -0.6921364 2.928451
000060 35 0b 79 c0 e0 5e 61 40 c5 5f 56 c0 87 39 23 c0
       -3.891309 3.5214157 -3.3495953 -2.5503862
000070 ec 1f a9 c0 64 74 6a bf aa 3a ab c0 d5 10 87 c0
       -5.2851467 -0.9158385 -5.350911 -4.2208047

running_var f4 [32]
000000 92 42 b3 42 53 f2 7f 43 72 06 d1 42 5c 6c 60 42
       89.63002 255.94658 104.51259 56.10582
000010 8d 29 c5 42 68 97 61 43 e6 8c 7c 42 63 f0 d3 42
       98.581154 225.59143 63.137596 105.969505
000020 68 42 54 42 af 6f 24 43 4e 23 e4 42 c7 5c cb 42
       53.06485 164.43626 114.068954 101.681206
000030 3a 0e 8e 42 c7 fd e1 42 cc 49 f1 42 56 22 fd 42
       71.02779 112.99566 120.644135 126.56706
000040 4e 22 2c 43 db 8f 93 42 23 6b a7 42 ff 50 b3 42
       172.134 73.78097 83.70925 89.658195
000050 b1 6c d8 42 13 10 cd 42 2d ac 45 43 e5 d0 d5 42
       108.21229 102.531395 197.67256 106.908
000060 d4 2f 81 42 b1 f4 19 43 ef 45 44 42 e6 60 9a 42
       64.593414 153.95583 49.068295 77.189255
000070 7e 53 c3 42 ba b9 63 42 ef f6 b4 42 92 3a b3 42
       97.66307 56.931374 90.48229 89.614395

weight f4 [128, 1120]
000000 28 26 f5 3b 3b 6d d0 bb f2 04 c7 3d 69 f3 9b 3d
       0.007481355 -0.0063606775 0.0971774 0.07614786
000010 38 35 8f bd 84 49 de bd 30 66 16 3d dc 8c aa bc
       -0.069925725 -0.10853866 0.036718547 -0.02081912
000020 b5 88 ff bb e0 ab 9b bb f9 b7 a6 bc d3 b7 ec 3b
       -0.007798279 -0.0047507137 -0.020351397 0.007224062
000030 a6 70 a3 3c 1f d0 4c 3d 1a a3 9e bd 8a d4 25 bc
       0.019951176 0.050003167 -0.07745953 -0.010121474
000040 24 06 0e bd 71 4d 94 3d 4f 4d ae 3d 94 64 6c bd
       -0.034673825 0.07241333 0.08510839 -0.057713106
000050 ae 68 b1 bc 8c af 13 bd 01 b8 88 3d 06 ae 28 bc
       -0.02165636 -0.036056086 0.06675721 -0.010295397
000060 53 1c 43 3c 05 64 34 bd 4e 51 1e 3c c1 c8 6f 3d
       0.0119086085 -0.0440407 0.009662939 0.058541063
000070 6e 0c 02 3d 58 8f 7a bd 99 f9 49 3d 08 b6 49 bc
       0.031750135 -0.06117186 0.0493103 -0.012311466
000080 69 06 3a bc 9e 35 8f bb 4c 9d 02 be 40 a7 59 3c
       -0.011354067 -0.0043704053 -0.12755316 0.013284504
000090 bc 95 6f 3d f4 4e 18 bc f8 33 6e bd bc 06 6f bc
       0.058492407 -0.009296168 -0.05815503 -0.014589008
0000a0 ec b9 8d 3d be 18 be bc 33 e9 e8 bd 41 b7 4c bd
       0.069202274 -0.023205157 -0.11372604 -0.049979452
0000b0 0e 0e c3 bc 47 98 eb 3b 87 ba bb bc 12 ac 5b 3b
       -0.023810413 0.0071897837 -0.022916092 0.003351931
0000c0 3e 40 4b bd cb a2 fe bb b9 4c f7 3c 5a 17 30 bd
       -0.049621813 -0.0077708713 0.030187951 -0.04299102
0000d0 49 1f 0e be d9 96 53 bd d6 29 43 3d cb d2 dc 3b
       -0.13879122 -0.05165753 0.04764732 0.0067389957
0000e0 6c 39 b1 3c a8 18 87 bd 45 c8 d6 bc ef b0 73 3d
       0.021633826 -0.065965 -0.026218543 0.05949491
0000f0 db a2 29 bd c7 33 b0 bc 91 e1 20 bd cd 2c 34 bd
       -0.041415077 -0.021509064 -0.039277617 -0.043988038
000100 55 d1 0c bc b5 91 5c bd 07 f1 76 bd 49 98 59 bd
       -0.0085948305 -0.053849895 -0.060288455 -0.053123746
000110 5a 09 ad 3a 4b 75 7d bc 86 0b b2 bc 34 8f 5c bd
       0.001320164 -0.015469859 -0.02173401 -0.053847507
000120 ec bd 06 3d d0 a9 03 3d 53 27 ae 3d 51 e4 83 3c
       0.032895967 0.032144368 0.08503594 0.01610008
000130 69 fe c4 bc d3 04 59 3c af 33 af 3c 90 98 ce bc
       -0.024047093 0.013245779 0.02138695 -0.025219232
000140 97 8b 98 3d f5 a7 2f bd ee 3b 28 3b 3f 18 19 bc
       0.074485 -0.042884786 0.0025670487 -0.00934416
000150 a2 b7 b6 bc 98 52 13 3d ad 86 64 3d a0 87 5a 3d
       -0.02230436 0.03596744 0.0557925 0.053352
000160 32 52 04 bd ad 57 a4 bd 79 54 05 bd 2f ad 25 3d
       -0.03230495 -0.08024535 -0.032551263 0.040448364
000170 26 d6 9d bc 54 8f 1f 3d db 8f 36 3c 1e a0 2d bd
       -0.019267153 0.038955048 0.011142696 -0.042389028
000180 b5 ea b8 bc 4a 4d 4d 3d fb dd 80 3d 02 96 30 bc
       -0.022572855 0.050122537 0.062923394 -0.010777952
000190 3c f8 ea bc f9 4b c0 bb 37 75 fc 3c e4 27 11 bc
       -0.02868282 -0.0058684316 0.030817611 -0.008859608
0001a0 9b cb 52 bd b8 5c 6e bd cc 10 e3 3c f6 0d 2a 3d
       -0.051463705 -0.058193892 0.02771797 0.04151722
0001b0 d9 c3 34 3c 33 62 3d 3d bf a0 5a 3c 17 25 bb bd
       0.011033022 0.04623623 0.013343989 -0.09137934
0001c0 07 4a 89 3d d6 09 f3 3c 13 3b cf bc 96 e9 1d bd
       0.06703573 0.029667776 -0.025296723 -0.038552843
0001d0 3d 06 64 bc 57 e7 63 bc 19 5e 6d 3d 59 65 c8 bd
       -0.013917503 -0.013910136 0.057951067 -0.097849555
0001e0 51 51 ad bb ab 06 0b bd 4b 4f 0a 3c b8 f0 0e bd
       -0.0052892347 -0.033941906 0.0084417565 -0.034897536
0001f0 e7 84 e1 3c a6 5b 83 bb 85 13 7c bd 9c 93 09 bc
       0.027529193 -0.004008728 -0.061542053 -0.008397009
000200 e9 61 b5 3c 40 b8 ad 3c 4c 9a c2 ba 3e b9 94 bd
       0.022141414 0.021206021 -0.001484701 -0.07261895
000210 56 e8 52 3c ea 33 4e 3c 19 a0 48 3c 9a 66 49 bb
       0.012872776 0.012585619 0.0122452015 -0.0030731321
000220 32 53 a5 39 cd 08 5b 3d 94 d1 ed ba 1d 4f b6 3c
       0.00031533238 0.05347519 -0.0018144124 0.022254521
000230 ce f4 f5 bc 54 d8 bb 3d 89 36 62 bd fe 35 9b bc
       -0.030023959 0.09172121 -0.05522779 -0.018946644
000240 99 94 84 bd 87 49 56 bb 97 f5 36 bd 24 a7 96 3d
       -0.06473655 -0.0032697634 -0.044667806 0.07356098
000250 b5 b9 f8 bc e8 ee 4d bc 4e 4c c5 3d a4 07 49 3d
       -0.03036199 -0.012569167 0.096336946 0.049079552
000260 28 1d 45 3d 50 28 77 3d 2e 48 30 bc 29 3a 60 3d
       0.04812351 0.06034118 -0.0107593965 0.054742966
000270 5a 18 8f 3c 02 6f cd 3d 9b 7d 0c 3d 7f d4 d7 3c
       0.017467666 0.10030939 0.034299474 0.026346443
000280 90 9e 60 3b 66 69 3b 3d 5b 55 8b 3d 55 72 a6 3c
       0.0034274198 0.045754813 0.0680339 0.02031819
000290 e5 76 0a 3d b8 e2 03 3e 0b aa c8 bc 50 1a 06 3e
       0.033804793 0.12879455 -0.024495145 0.13095975
0002a0 56 88 91 bb b1 80 5a 3d ca 04 b1 bd 8c 76 d4 3d
       -0.0044413013 0.053345386 -0.086434916 0.103741735
0002b0 55 3b b1 3c e6 16 61 bd 1e 01 a5 bc d7 97 91 3d
       0.021634737 -0.05495348 -0.020142134 0.07109039
0002c0 d1 17 fd bd bc 46 4a bd e9 68 48 bc d7 d2 9e 3c
       -0.12358058 -0.049383864 -0.012232044 0.019387646
0002d0 c3 87 f8 3d 03 f6 e6 bc 55 94 92 3c a1 7f 41 bd
       0.121352695 -0.02819348 0.017892996 -0.047240857
0002e0 80 8f 3e bd 3c b4 71 3d 4a 36 80 3c 64 dd bd bc
       -0.04652357 0.059009776 0.015650887 -0.023176856
0002f0 95 eb 25 3d 81 9d 52 3d e9 b7 51 3b 81 75 23 3d
       0.04050787 0.05141974 0.0032000488 0.039906982
000300 63 88 08 3d 1f 94 82 ba e4 4b 1b bd f3 7b 8d 3c
       0.033333194 -0.0009962356 -0.03791417 0.017271018
000310 1d bb bc bc 5d ce d2 bd 03 a8 88 3d 75 31 84 bc
       -0.023038441 -0.10293267 0.06672671 -0.016136864
000320 27 06 b2 bc cb 68 6d 3d ad f2 fb 3c de 8b dd 3c
       -0.02173145 0.057961266 0.030755365 0.027044233
000330 9d 64 57 bd 68 ec 62 3d 0f 12 3c 3d 1f ec 78 3d
       -0.052586187 0.055401236 0.04591566 0.060772058
000340 ce 81 04 3d 0c f4 65 bd 04 40 c1 bc 82 df e4 bc
       0.032350354 -0.056140944 -0.023590095 -0.027938608
000350 2b 12 f9 bc 6d 49 9f bd 6f 30 d9 bc 67 65 63 bd
       -0.030404171 -0.07777677 -0.026512353 -0.055516627
000360 15 ec b6 bd f3 de b1 bd 24 94 f8 3c c7 49 a9 bd
       -0.08931748 -0.08685102 0.030344076 -0.08266025
000370 4c 73 32 3d 59 73 80 bd 2c 1d 97 bb 4a 11 6d bb
       0.043566987 -0.06272001 -0.004611632 -0.0036173635
000380 19 12 70 3c af fc a5 3d d9 9a 64 bd b8 17 9b 3c
       0.014652752 0.08104836 -0.055811737 0.018932208
000390 d9 c1 53 3a 51 dc eb 3b 4d fa 71 bd ba f8 05 3d
       0.0008077897 0.0071978946 -0.059076596 0.032707907
0003a0 b9 31 8d bd b2 16 6a bd 78 75 e9 3b eb 7c af 3c
       -0.068942495 -0.05715055 0.007124599 0.02142187
0003b0 ef f7 66 bd 59 23 a0 bb 75 8e ae bd 9b 14 bf 3c
       -0.05638879 -0.0048870263 -0.08523265 0.023325255
0003c0 0b 65 df 3c ff a5 b3 3d 1b 6b a6 bd 5a 7f a9 bb
       0.02726986 0.087718956 -0.081258975 -0.005172652
0003d0 2b a3 f4 3b f2 e3 c9 3c 76 c1 4c bd f3 58 c5 3b
       0.00746574 0.024644826 -0.049989186 0.0060225665
0003e0 c7 60 63 bc be d0 8f 3c c7 9d a1 3c 15 1e 4f bd
       -0.013878054 0.01755559 0.019728554 -0.050565798
0003f0 07 d5 2c 3d 6b ec 90 3c e3 6a 77 bd d9 b5 be bc
       0.042195346 0.017690858 -0.06040467 -0.023280071

bias f4 [128]
000000 0e 61 46 bd 8c d7 96 3c f9 29 38 bd a6 18 35 bd
       -0.048432402 0.018413328 -0.044961903 -0.04421296
000010 8c be a1 bd 7b 9c e5 bc 83 d4 83 bd fb 4f 11 bd
       -0.07897672 -0.028028717 -0.06437018 -0.035476666
000020 f7 8a 46 bd f7 58 45 bd 78 a9 40 bd 32 08 34 bd
       -0.04847237 -0.048180547 -0.047036618 -0.04395313
000030 7e 8a 06 bd 5c 3d c8 bd 19 a6 3a bd 3a ba d8 bc
       -0.03284692 -0.09777328 -0.04556856 -0.026455987
000040 ab 14 1b bd bd 2f b5 bc f3 ae 49 bd 7b f4 3d 3c
       -0.037861507 -0.02211749 -0.04923911 0.011593933
000050 10 87 46 bd 8b 00 80 bd c4 95 b2 bd e8 7d b9 bd
       -0.04846865 -0.062501036 -0.08719972 -0.09057218
000060 98 3b 49 bd 6a 25 47 bd 11 fb 7b bc 7f 08 8b bd
       -0.0491291 -0.048619665 -0.015379683 -0.0678873
000070 53 9c a8 bd 7e 7e 39 bd 8a 2a 45 bd ec ff 6a bd
       -0.082329415 -0.045286648 -0.04813627 -0.057372972
000080 9e 16 3f bd 3a 56 15 bd 93 43 43 bd c0 5a 44 bd
       -0.04665243 -0.036459185 -0.047671866 -0.04793811
000090 aa f8 cf bc de 98 3d bd b7 2a 45 bd 49 63 b2 bc
       -0.025387127 -0.046288364 -0.04813644 -0.021775858
0000a0 bd db 39 bd 87 e7 c9 bc 5e 51 25 bd db 90 37 bd
       -0.045375574 -0.024646534 -0.0403608 -0.04481588
0000b0 f8 4a eb bc 9d 91 3b bd 17 49 e2 bc 3f 34 04 bd
       -0.028722271 -0.045793165 -0.027622743 -0.03227639
0000c0 ef 49 0e bd 93 14 27 bd 76 87 2e bd 90 d8 3d bd
       -0.034738477 -0.040791105 -0.042609654 -0.04634911
0000d0 81 6b 40 bd bf 10 0b bd bd 31 10 bd f2 84 01 bd
       -0.046977524 -0.033951517 -0.035203684 -0.031620927
0000e0 98 a8 d4 bc 13 db a8 bc 11 78 ed b9 fd c9 97 bc
       -0.025959298 -0.020612275 -0.0004529362 -0.018528933
0000f0 1c 33 18 bd bb c5 44 bd 86 da 55 bd ee f8 7c bd
       -0.037158117 -0.048040133 -0.052210353 -0.061760835
000100 16 50 1a bd 2a 9d 69 bd 50 11 8b bd fb 86 ab bc
       -0.037674032 -0.05703465 -0.067904115 -0.020938387
000110 86 47 17 bd 2d 72 b5 bc de c7 25 bd 7e 23 cc bc
       -0.036933444 -0.02214917 -0.04047381 -0.024919268
000120 8b 2c 07 bd 04 22 3f bd ec ff ef bd ed 44 d5 bc
       -0.033001464 -0.0466633 -0.11718735 -0.026033843
000130 32 98 46 bd 44 7a 47 bd 48 a7 87 bd 5c a1 da bc
       -0.04848499 -0.048700586 -0.06623703 -0.02668827
000140 41 f0 48 bd ed 96 31 bd 5e 90 3c bd f6 b7 82 bc
       -0.04905725 -0.043356825 -0.046036117 -0.01595686
000150 2c 1d e1 bc c0 50 b0 bd d3 3f 36 bd fc 56 d6 bc
       -0.02747973 -0.08609152 -0.04449446 -0.026164524
000160 6d 63 3f bc de 66 e0 bc 5c dc 37 bc ac e8 02 bd
       -0.01168142 -0.0273928 -0.011221971 -0.031960174
000170 15 62 42 bd cc d2 cc bc a5 f7 44 bd c0 c6 36 bd
       -0.04745682 -0.02500286 -0.048087735 -0.044623137
000180 df f8 a5 bc a2 d6 47 bd 2b 98 3e bd 3b 89 13 bd
       -0.020260273 -0.048788674 -0.046531837 -0.036019545
000190 49 e5 7d bc 44 bc 46 bd 28 f0 96 bd 40 d4 49 bd
       -0.01549656 -0.048519388 -0.07370025 -0.049274683
0001a0 5e f9 47 bd b8 da 44 bd 30 65 42 bd 22 8a 30 bd
       -0.0488218 -0.04806015 -0.04745978 -0.043100484
0001b0 66 2d 1a bd 07 a8 32 bd 1c 09 3b bd f3 d6 0a bd
       -0.03764095 -0.043617275 -0.045662984 -0.033896398
0001c0 9e 76 41 bd c7 6d 13 bd 29 8f 9a bc e4 ee cf bc
       -0.047232263 -0.035993364 -0.018867092 -0.025382467
0001d0 40 1c 0b bd 91 b7 fb bc 1d 73 ec bc 5d fe 79 bd
       -0.03396249 -0.03072718 -0.028863484 -0.061033595
0001e0 25 3d 41 bd 8b e7 f9 bc f4 e5 3a bd 4e c2 3c bd
       -0.047177453 -0.030505916 -0.045629457 -0.04608374
0001f0 84 fc a9 bd e3 69 de bc 3c 85 ba bd 56 a1 f2 bc
       -0.08300117 -0.0271501 -0.09107444 -0.029617947

weight f4 [1, 128]
000000 ee 40 14 3c 29 49 6d 3d ac 60 cc bc 61 c6 0b bd
       0.009048684 0.0579311 -0.02494844 -0.034124736
000010 8a 9b 9c ba af 83 f7 bd 13 19 28 ba ba 9f b1 3b
       -0.001194821 -0.120856635 -0.0006412428 0.005420652
000020 d6 b4 8a 3d 92 29 b6 3d f2 7e 17 bc 34 b7 dd bc
       0.06772773 0.08894648 -0.009246575 -0.027064897
000030 62 91 26 bd 58 a7 44 3b ef 18 23 bc cb 3d 3d bd
       -0.04066599 0.0030006971 -0.009954675 -0.04620151
000040 09 9d 13 bd 1e fc 65 bc c1 3d 11 3e dd 18 49 bd
       -0.036038432 -0.01403716 0.14183713 -0.049095977
000050 02 cd f8 3d 81 61 80 3c d0 9c af 3b 00 b3 a3 3b
       0.12148477 0.015671493 0.0053592697 0.0049957037
000060 d1 29 bc 3d 52 4d 33 3d 54 69 21 bd 9f 1f a3 3c
       0.09187663 0.04377491 -0.03940709 0.019912539
000070 67 b4 2b 3b 93 aa 2c 3c e0 78 1b 3d 8f 6b d8 3c
       0.0026200057 0.010538715 0.037957072 0.026418475
000080 28 3c bd 3c ae 1b af bb 7b 31 14 3e e3 5b 17 3e
       0.023099974 -0.005343876 0.14472 0.14781146
000090 de 69 a7 bd c1 ba 14 3c 64 6b ee 3c 08 de cb bc
       -0.081744894 0.009077729 0.029103942 -0.024886146
0000a0 74 c0 55 bc b4 8d 83 ba e8 0f b2 bc c7 89 02 3d
       -0.013046373 -0.0010036738 -0.0217361 0.031869676
0000b0 72 2f 9c 3c d5 18 f8 3c a1 c0 a6 bc 37 2c ae bd
       0.019065592 0.030285278 -0.020355524 -0.08504527
0000c0 51 15 a9 bc 67 c2 96 bc 10 f9 ec 3c b1 03 ce 3c
       -0.020640047 -0.018403245 0.028927356 0.025148245
0000d0 9e 42 da 3d a8 2d c2 bd 42 67 3a bd ed 15 85 bc
       0.106572375 -0.094813645 -0.04550863 -0.016245807
0000e0 b4 be 1a bd f8 b8 09 bb 6b d9 ca 3c 17 cf 06 bc
       -0.037779525 -0.002101479 0.024761876 -0.008228085
0000f0 59 cc 07 bd 56 a9 59 3d 1b 53 1b 3c a5 6b ae 3c
       -0.033153865 0.053140007 0.009480263 0.021291563
000100 f3 a3 ea bc 62 ee 11 bc 3a fe 77 3c 7c 4e 22 bc
       -0.02864263 -0.008906933 0.015136296 -0.009906407
000110 e6 2a 2a 3c 10 bc f1 bc 8c 88 bf bc 27 50 55 bb
       0.010386204 -0.02950862 -0.02338054 -0.0032548995
000120 09 e5 1e bd 7f 50 4f 3b 95 d9 8b 3b 61 02 19 3d
       -0.038792644 0.0031633673 0.004267881 0.037355784
000130 3b ca 7b 3d 9b 16 7e 3d 82 f7 ce 3c 94 9e a9 bc
       0.06147216 0.062033277 0.025264505 -0.020705499
000140 03 19 c4 3d 87 4e e6 bc ba 3f 06 3c cd 13 a3 bc
       0.09575083 -0.028113617 0.0081939045 -0.019906903
000150 c4 86 cc bc ee b9 07 3d 7f 36 3d bc 86 e2 f0 bd
       -0.024966605 0.0331363 -0.011548637 -0.11761956
000160 04 f5 ec 3c 45 4c ca bc 93 8f 52 bd 45 9a 45 bd
       0.028925426 -0.024694571 -0.051406454 -0.048242826
000170 4f d0 cf 3b 9b 9f 22 3d 1e ec ec 3d 57 b7 7a bc
       0.006341971 0.039702993 0.11568473 -0.015302501
000180 32 e5 c0 bb 8d 68 c8 3d 36 de 91 3b c4 2f 05 be
       -0.005886697 0.097855665 0.0044515384 -0.13006502
000190 65 6d e1 bc d4 44 21 3d 20 bf b4 bb c0 4c ee 3d
       -0.027517984 0.03937228 -0.005515948 0.11635733
0001a0 53 d3 74 3d 3c 8d 4a 3d 74 e5 7a 3d 5f 8d 4f bb
       0.059771847 0.049451098 0.06125398 -0.0031669957
0001b0 27 ab d3 bb e9 84 ad bb be 52 88 3d a2 f6 b2 bb
       -0.006459612 -0.005295385 0.06656407 -0.00546153
0001c0 01 14 4a 3d a7 7a 2a bd 84 a5 42 bc ea bc 16 bd
       0.049335483 -0.041620877 -0.011880282 -0.036801256
0001d0 68 9b 40 3b ce 24 9b bc 8f 05 21 bd af 4b 84 3c
       0.0029389504 -0.018938448 -0.03931194 0.01614937
0001e0 2b d7 97 ba ad a9 de bc 18 d6 68 bc 4e 94 a8 3c
       -0.0011584511 -0.027180517 -0.0142112 0.02057853
0001f0 25 2e 8e bc 3d ba 3b bd cc 1e c8 3c 04 78 1f bd
       -0.017355988 -0.045831908 0.024428748 -0.038932815
