saved_trials/a2c-sidewalk/MiniWorld-Sidewalk-v0.pt (torch_old, 812358 bytes, 23 tensors)

weight f4 [32, 12, 5, 5]
00000000: 6e88 3cbc 282e 61bd 4bf9 ebb9 ee1a 17be
00000010: 0f84 d7bc 046e 493d c154 cbbd fb16 913c
00000020: 0d93 573d 7e19 4fbe d938 d53c ef70 993b
00000030: 3fd4 bdbd c9ff 92bd 31b6 1cbd 4af2 9bbc
00000040: c7d9 40be ccb0 4fbe 0df3 2cbe 720f bdbd
00000050: 718b f43c 1706 cf3d 0357 11bd bf0d 93bc
00000060: 13c0 e1bc 41fc f13c d7ab 41bc 5b3a 4cbb
00000070: 1107 b939 714a e138 5256 9b3d a395 943c
00000080: 5d99 8abd c06a c33c c3c8 55bc cc11 0dbd
00000090: fb05 3eba f94b 6abd 6ff8 70bc 9846 27be
000000a0: b92c bfbc 9ef3 0fbc 26b7 c63d d845 57bd
000000b0: b7eb 62bd eac1 52bd 5dd7 08be 67b0 333c
000000c0: 5155 9f3d 8423 a9bd c0ed 113b a130 d33d
000000d0: 809e a5bd beb8 96bd 5b69 38bd 7aa2 863d
000000e0: e93f 0a3c 42c0 b43d f9a5 46be 9875 debc
000000f0: b44a 73bc d31c 3bbd 5aba dd3b 75c7 d23c
00000100: 7c09 1f3e 2c0e 8c3d d73c 2c3d c1e0 863d
00000110: 4219 82bd 1139 923d 54f0 b63d 7f70 bebd
00000120: 67ef 92bd e2e9 7c3d b1d0 6d3c 699b acbc
00000130: fa65 a3bd a5da b4bd aed6 a7bd 1b78 4fbd
00000140: 1142 9fbd a32b 1cbe 3481 25be e00f 143b
00000150: 3cf5 6bbc 19b7 73bc eeab 4cbe a4f5 debd
00000160: 31fc 4f3d 36a3 193d f50c 2fbd cc16 5cbd
00000170: 7423 d0bd 6a14 a3bc 4d9c c63d 5565 21be
00000180: ee85 55be 9170 d2bd 6326 1cbe 5291 dabd
00000190: e93b b0bc 33dc 27bd 6206 adbd 7a3f 2fbd
000001a0: 7548 79bd 32d5 e5bc 2e92 333d 09e6 acbd
000001b0: c38c 513d 4d29 c93d 17df 773d 711b 88bd
000001c0: 3bdf 4d3b 5edc a4bc e9e5 f13c 8786 eabc
000001d0: 9cc6 8cbd e529 b0bc ffb5 d7bc aacc 0a3e
000001e0: 94ab d1bd 12d6 583b ae01 423d 844f e5bd
000001f0: 132a 0abd b2ee 853d 9988 fbbd d58f 483d
00000200: 246f 7dbd a78d a13d 5a53 a93d c96d 96bd
00000210: 9f11 183d 7124 28be 4458 24bd 97c3 a4bc
00000220: 8596 cf3d f1c1 a1bd 6b50 1b3e b981 83bd
00000230: 6b57 2dbc 41c8 4b3e 377c 7c3d 3f00 9abb
00000240: 0caa 62bd e69a a83c 8cd0 16bc d19f ed3d
00000250: 3e5c f5bc a301 b83d 35b2 71bb 78e0 05be
00000260: 478f 7cbd ae95 3abd dc19 09be 6f70 91bc
00000270: cd25 fdbd be76 e83c ee0d 88bd 8ae7 153d
00000280: 3cf4 d83c 5f18 b43d 0a5c 623d f0b6 88bd
00000290: 68c5 7fbc f8a7 a13d 7d53 6dbd 7c24 18bd
000002a0: 5428 883d 46f7 313d b381 213d 1dfc 033d
000002b0: 42bf b83d f02a c8bd 68ee c13d f6c4 8a3d
000002c0: 1ac4 713b 6eb5 5e3d b33a 003e ed82 013e
000002d0: 86c1 a33a ae57 4c3d dd4b 04bd de9b 133d
000002e0: 90a3 17bd 711e 47bc 28b6 9d3d c023 01be
000002f0: 7e55 313e 4141 873c 1adf 47bd 1880 803c
00000300: b746 363c d0db 223c 0fa7 9e3c d028 6c3d
00000310: b53a 6e3d 48a4 5cbd 482d bbbd 2a54 dfbd
00000320: a41b 823d d6d0 743e c721 c3bc 7d11 23bc
00000330: 57e8 34bd 3496 15be 981b f83d 2ec7 b0bd
00000340: e994 473d 5bc1 34bb 134a 84be 1cfe cf3d
00000350: 5f7d 0cbe 30f4 bebd 7ae9 6dbe 646a 383c
00000360: 997a a13c 6a32 c43d 30cf 933c 8c13 bebc
00000370: c12a 6fbd 913c c5bd cc16 b4bd 87d6 173e
00000380: f29a 383c 8e2b 943c ce88 973c f974 aabc
00000390: 2e10 103d 4f07 123d 9924 31bc a820 f2bd
000003a0: eccc 94bb 6f16 c3bd 8190 963d 3050 f53d
000003b0: 35ce 0a3e f840 14bc ca4d f3bd 32ce adbc
000003c0: baa0 85bc bb64 d4bc ba25 fb3d 6903 123d
000003d0: 9559 4abc 3945 bfbb c4ad 713d 3d42 4f3d
000003e0: 5525 f53d 5f37 293c 874d 0cbe f815 5dbc
000003f0: bcc4 9d3d 429c 54bd 50c7 8abd b32e 4bbb
-0.011507137 -0.05497566 -0.0004500843 -0.14756367 -0.026308088 0.049177185 -0.09928275 0.017711153
0.052630473 -0.20224568 0.026028084 0.004682652 -0.09268998 -0.071776934 -0.03825969 -0.01903643
-0.18833075 -0.20282286 -0.16889592 -0.092314616 0.029851647 0.101085834 -0.03548337 -0.01795089
-0.027557408 0.02953923 -0.011820755 -0.0031162712 0.00035291215 0.00010742702 0.07584824 0.018137759
-0.06767533 0.023854613 -0.013048354 -0.0344408 -0.0007248816 -0.05720136 -0.014707669 -0.16335523
-0.023336755 -0.00878611 0.097029015 -0.052556843 -0.055400576 -0.051454462 -0.13363405 0.010967351
0.07779945 -0.08258727 0.0022266954 0.103120096 -0.08086872 -0.073594555 -0.04502235 0.06573959
0.008438089 0.08825733 -0.19399251 -0.027155682 -0.014849354 -0.045681786 0.0067665996 0.025729874
0.15530962 0.068386406 0.04205021 0.06585837 -0.06352474 0.07139791 0.08932558 -0.09298801
-0.071745686 0.061746486 0.014515088 -0.0210702 -0.07978435 -0.08830766 -0.08195244 -0.05065165
-0.07776273 -0.15251021 -0.16162568 0.002259247 -0.01440173 -0.014875197 -0.19987461 -0.10886696
0.050777618 0.037509166 -0.042736966 -0.05373268 -0.10163012 -0.019907195 0.09697781 -0.15761311
-0.20851871 -0.102753766 -0.15249018 -0.10672249 -0.021512942 -0.040981483 -0.08448483 -0.042785145
-0.060860116 -0.028055761 0.04384058 -0.08442313 0.05115963 0.098223306 0.06051549 -0.06645859
0.0031413573 -0.02012461 0.029528575 -0.0286286 -0.06873819 -0.021504352 -0.0263319 0.13554636
-0.10237804 0.003308658 0.047364883 -0.11196807 -0.03373153 0.06539668 -0.12281913 0.048965294
-0.06187357 0.07888346 0.08267851 -0.073451586 0.03712618 -0.16420151 -0.04012324 -0.020112796
0.10136131 -0.078983195 0.15167396 -0.06421227 -0.010579924 0.1990061 0.061641898 -0.0046997364
-0.05533795 0.020581674 -0.009204995 0.11602748 -0.029951211 0.08984687 -0.0036879901 -0.1307391
-0.061660077 -0.045552902 -0.13388771 -0.017753808 -0.123607256 0.028376933 -0.06643282 0.036597766
0.026483648 0.08793711 0.055263557 -0.066755176 -0.01561103 0.078933656 -0.05794095 -0.03714417
0.06648317 0.04344871 0.03943033 0.032222856 0.090208545 -0.09773815 0.094693005 0.067758486
0.0036890567 0.054372244 0.12522392 0.126476 0.0012493588 0.049888305 -0.03229891 0.03603732
-0.03702122 -0.012153254 0.07700759 -0.12611294 0.17317769 0.016510608 -0.04879675 0.01568608
0.011125258 0.009940103 0.01936677 0.05765611 0.058161456 -0.05386761 -0.09139496 -0.10904725
0.06352928 0.2390779 -0.023819817 -0.0099529 -0.04416689 -0.14608079 0.12114638 -0.086317405
0.048725996 -0.002758107 -0.25837764 0.101558894 -0.137197 -0.09323919 -0.23233595 0.011255834
0.01971178 0.09579928 0.01804313 -0.02320268 -0.058390383 -0.09630693 -0.08793411 0.1482793
0.011267411 0.018087175 0.01849785 -0.02080773 0.03517168 0.0356515 -0.010811948 -0.11822635
-0.00454103 -0.09525763 0.07351781 0.11978185 0.13555224 -0.009048693 -0.118800715 -0.021216486
-0.016311992 -0.025926938 0.12263055 0.035647783 -0.01235046 -0.0058371094 0.059003606 0.05060028
0.11970011 0.010328143 -0.1370145 -0.013494007 0.0770354 -0.05190683 -0.06776297 -0.0031003177

bias f4 [32]
00000000: be62 60b5 2ee2 fab4 1c42 4735 da0d 99b4
00000010: bb98 3a33 1b82 f533 cfd0 d533 26e5 a6b5
00000020: 3a85 2935 1462 6a34 504a 1a34 723a 2ab5
00000030: dfad 1535 9008 e4b5 daf9 9434 02b0 3834
00000040: 94af 7334 aaf1 a034 0f87 64b4 f26e 3634
00000050: 2923 e233 f387 ba34 b1be 0835 1c3e ddb4
00000060: 6178 f5b4 b537 e335 959d c934 9631 b135
00000070: ce4d 1bb5 e045 cbb4 ec02 d4b3 f806 d5b4
-8.359019e-07 -4.6730696e-07 7.422948e-07 -2.850855e-07 4.3445407e-08 1.14323676e-07 9.9565675e-08 -1.2434655e-06
6.3151276e-07 2.1828629e-07 1.4369402e-07 -6.3414984e-07 5.575984e-07 -1.6989816e-06 2.774894e-07 1.7200367e-07
2.2695014e-07 2.9978156e-07 -2.1283289e-07 1.6990433e-07 1.0530341e-07 3.4744116e-07 5.094144e-07 -4.1209648e-07
-4.5722393e-07 1.6929031e-06 3.7553824e-07 1.3201959e-06 -5.785522e-07 -3.7862537e-07 -9.872551e-08 -3.9679412e-07

weight f4 [32]
00000000: ac6d 823f 853a 7f3f 734c 7a3f d3f1 803f
00000010: 8ee7 813f db3b 803f e6e3 823f b7b6 763f
00000020: 0a28 823f fb8c 7c3f 8242 7a3f 8ab2 7e3f
00000030: d4e9 833f bf29 833f ba07 803f d8c9 803f
00000040: 491a 7d3f 68af 783f 2292 823f f7bb 7d3f
00000050: d261 7e3f 5eed 7c3f 695c 7c3f f847 823f
00000060: f8bd 793f 2249 803f a476 7b3f 054c 7f3f
00000070: 47f9 733f b976 833f 11ef 763f 8314 7d3f
1.0189719 0.9969867 0.977729 1.0073799 1.014879 1.0018266 1.0225799 0.9637255
1.0168469 0.9865262 0.9775773 0.9949118 1.0305734 1.0247115 1.0002358 1.0061598
0.9886823 0.9714265 1.0200846 0.99114937 0.9936801 0.98799694 0.98578507 1.0178213
0.97555494 1.0022318 0.98227906 0.9972537 0.9530224 1.0270606 0.96458536 0.98859423

bias f4 [32]
00000000: 17c1 86bd 4e54 1bbc 5fac 4cbb f04d 0dbb
00000010: 701a 1fbc 9114 86bb c7ee afbb c910 d6bc
00000020: bbd6 53bc 07d6 26bc 1d39 31bc 6296 30bc
00000030: 7251 f73b 23ee 283b 272e 66bb 0551 f9bb
00000040: 33a5 51bc 1ab6 84bc 5a19 a3bb 14f5 87bb
00000050: fc37 93bb 5086 84bb e734 8dbb 5cb4 8bba
00000060: 8434 36bc f8ce 0bbd 6026 cabb 77f2 4cbc
00000070: 2743 dfbc 12da e73a c0de e0bc 4296 0abb
-0.06579798 -0.009480549 -0.003123067 -0.0021561347 -0.009710893 -0.004091807 -0.0053690406 -0.02613105
-0.012929614 -0.010182864 -0.0108168395 -0.010778042 0.007547551 0.0025776706 -0.0035122724 -0.0076085352
-0.012795734 -0.016200114 -0.0049773874 -0.0041490886 -0.004492758 -0.0040443316 -0.004309285 -0.001065861
-0.011120919 -0.034132928 -0.0061691254 -0.01250898 -0.0272537 0.0017688891 -0.027449965 -0.002114669

running_mean f4 [32]
00000000: 5655 97bf fd95 d5bf f027 15bf 9147 ee3e
00000010: a016 e33b 38ec b43f 4c62 eb3e 522e 01bf
00000020: cb0a 70bf 090f d1bf 5e91 30be 8765 4f3f
00000030: 357b e43d 7077 0ebf 86f5 9abf 79b4 f23e
00000040: c8c6 5f3f ce4a 99be a576 a13e 1330 a1bf
00000050: c683 a0bf bf2c 76bf d281 b1bf 7921 9b3f
00000060: 7001 7cbe e2ac 3ebf 67f4 8ebf ffd4 c0bf
00000070: a3e4 013f 4043 943e 654e d13f f497 d6bd
-1.1822917 -1.6686398 -0.58264065 0.46538976 0.0069301873 1.4134588 0.45973432 -0.50461304
-0.9376647 -1.6332713 -0.17242953 0.81014293 0.111563124 -0.55651 -1.2106178 0.47403315
0.8741269 -0.29939884 0.3153583 -1.2592796 -1.2540214 -0.9616203 -1.3867743 1.211959
-0.24609923 -0.7448255 -1.1168336 -1.5065001 0.50739497 0.28957558 1.6352049 -0.104782015

running_var f4 [32]
00000000: f52d 7a3d 647b db3d 4c5c 513e 4eb3 9b3e
00000010: 8fbe 1f3e 6b9f 903e 0612 0f3e 1868 0f3e
00000020: 5ebf ea3d cebe 663e 6212 103e 9be3 693e
00000030: d7ae 563e 8f2a 8c3d 9fe7 ad3e 2e81 503e
00000040: b197 303e 4115 8e3e 766e a63e d2a7 5f3e
00000050: 08e2 a13e 28c1 2c3e 399e 553e edc6 a23e
00000060: fbc5 5f3e 2cc3 933d a92e 243e 42dc d03d
00000070: 36a0 5e3d 29eb 4f3e df66 a33d 3d90 523e
0.061078984 0.10716894 0.20445365 0.30410236 0.15600036 0.28246626 0.13971719 0.14004552
0.11462282 0.22533724 0.14069512 0.22840731 0.20965134 0.06844055 0.33965775 0.20361778
0.17245366 0.2775059 0.3250615 0.21841362 0.3161776 0.16870558 0.20861138 0.31792393
0.21852867 0.072149605 0.16033424 0.10198261 0.054352008 0.2030455 0.079786055 0.20562835

weight f4 [32, 32, 5, 5]
00000000: c6d9 8d3c e194 943d 56de 1dbd ecc3 08be
00000010: 9c4d e0bc a94e 14bc e87c 9e3c c2d4 a4bc
00000020: cd83 26bd 8d85 633d 72c8 4ebc 81aa 2c3d
00000030: e6bf dfbb 6398 2a3d 1650 33bc aa5c 863c
00000040: 2a78 b03b c01f 7e3d 39f1 3ebb 9e24 75bd
00000050: dd21 95bb b767 353d 6410 f5bc b6ce e83c
00000060: c000 03bd 6a3f 68bd e2f5 5a3c 7c18 24bd
00000070: ce5f 36b9 b692 00bb 33cb 9abc dce6 f13b
00000080: b1cd cbbc e292 1f3d 6344 d7bc 45d8 abbd
00000090: 017c c1bd eb1f dbbb 4780 523c 4300 f2bd
000000a0: 28d3 6abc 5c3c 943c 9006 9e3c a687 923c
000000b0: e71a 27bd da47 40bc 5707 7eba c269 52bd
000000c0: 1534 4abb a56f ae3c ca12 50bd 2c1e b6bc
000000d0: 2106 a63b a638 553d bf05 7fbd b75f 9bbd
000000e0: 9589 553d 4dc6 c43d 0341 c23c 28e2 f8bb
000000f0: a052 a0bd 73fe e0bc 9388 2ebd ec53 b03d
00000100: 7a67 b6bd 68b2 8f3b e1d0 23bd 33a2 5bbd
00000110: 7146 e2bc 0781 203d 0f9b 11bd 7695 a73d
00000120: 962c 4abd 8e4b 30bd 9314 a6bc 12ae a9bd
00000130: 9a1b 9eba 7cf8 d83d ade0 8f3d 02f3 94bc
00000140: 1428 523d 7394 73bd 42ad bbbc 890a 373c
00000150: c665 a7bd 606e 22bd 9c27 03bc c258 c7bc
00000160: 3ba9 edbc 03c5 53bd f6fc 9fbc b3b3 d73d
00000170: b6d1 bb3d 266f 5d3c abd4 33bd 3806 b43b
00000180: b1e6 d83d 8346 7dbc f268 cbbb 5270 fc3d
00000190: 9c96 a93a 839d c23c 9807 b73c 1d13 273d
000001a0: 595b 8d3d 2832 2f3d eb94 5e3b 543c 903c
000001b0: 1177 f43c 6df3 b3bc b01a 95bd 4bd2 91bc
000001c0: c806 a73d 1cb5 90bd 8a54 c03a 5f95 acbc
000001d0: 1056 6b3b eaf5 553d c369 1ebd 5602 883d
000001e0: 477c 4a3d dacd 93bc 1b07 6bbd 392d 25bd
000001f0: dd51 15bd 030c 903c b1f3 c13c 87df c03c
00000200: 1cf4 d8bc 8026 48bb 6b81 83bc 7482 2dbc
00000210: e593 21bd 1fce 873d 86a3 14bd 888f f33c
00000220: 70bd 363c 0c6c efbc 47ef ec3d 5ac2 d3bc
00000230: 3500 82bd 2aa1 8ebd e403 25bc 3d2f 773d
00000240: e0e2 18bd 1dca df3c 3e50 9f39 a811 13bd
00000250: 34f6 c33c c967 adbd 9ea4 e63c 625f d5bc
00000260: cc2f 383d 0524 323d 6828 58bd 86c8 3cbd
00000270: d4cc 283c 48a0 c83c 6789 973b 3a60 80bd
00000280: 8f31 bbbc c26e 01bd 2e75 8abc 4479 6ebd
00000290: 1d97 c63c c8fc 973d 1fef 29bd 8fec 963d
000002a0: 2980 8cbd 88c1 883c e883 983d d6a3 903c
000002b0: d3e0 1f3b ddf4 a8bc 0b9a 8ebd 6874 9ebc
000002c0: e6b0 4cbc e295 693b c0df 73bc daec 7a3d
000002d0: d9a9 103d 44c9 a23d e3b5 21bd ef73 96bd
000002e0: b01d 903c a24a c63b 4d83 c33c ef30 073d
000002f0: 18e0 423d b268 2d3d dbba 95bd 0c13 91bc
00000300: de50 04bc ec1b 303c a8e4 b93d 72d6 c9bc
00000310: 3a6c aa3c 8398 d3bc e0ac 2ebd fa93 98bc
00000320: 5254 923c 3f26 3dbc f7e2 9d3c 90ee dc3d
00000330: 7aa9 a4bc 7959 ab3d 783b 0e3c db9b 2cbd
00000340: 325c f8bb 4ae2 113e 90a5 273c eb8f 983c
00000350: 9771 8b3d 90cf 983d 591b 2fbd 4b46 a93c
00000360: a26b f63c b300 6bbc 456f 52bc 9480 a2bc
00000370: f04a 37bc 480a b63c c1c7 153e 4c4d 96bb
00000380: ce5d 31bd ac03 573d 1971 0fbd b610 ebbd
00000390: 586f bb3d 3c3c ac3c 09ee 18bd a0bc 3dbd
000003a0: 25a8 b13d de8f 8d3d ef9b 273b ae98 d1bd
000003b0: d358 09bd 45a8 653d 78f2 9dbd f71b 10be
000003c0: 4ead 35bd 43fe 383d dd83 1abd d3c4 4dbb
000003d0: c7e8 e3bd 90d2 253e 390a ddbc beb6 d2bb
000003e0: 9ea1 7fbd 17ba 473d 90a7 8fbc 1d46 c63c
000003f0: dac5 a93c 5467 81ba b242 093d 09e4 873d
0.017315757 0.07254959 -0.038542114 -0.13355988 -0.027380757 -0.009051957 0.01934667 -0.020120982
-0.04065304 0.055547286 -0.012621032 0.042154793 -0.006828296 0.041649234 -0.010944387 0.016401608
0.0053854184 0.062041998 -0.002913548 -0.059849374 -0.004551156 0.044288363 -0.029915042 0.02841888
-0.031983137 -0.0567011 0.013364287 -0.040062413 -0.00017392563 -0.0019618697 -0.018895721 0.007382257
-0.024878355 0.038958438 -0.026277727 -0.083908595 -0.0944748 -0.0066871545 0.0128479665 -0.11816456
-0.01433257 0.018095188 0.019290239 0.017886948 -0.04079714 -0.011735881 -0.0009690425 -0.05137039
-0.0030853797 0.02129347 -0.05079917 -0.022231184 0.0050666486 0.052055977 -0.06226134 -0.075866155
0.05213316 0.09608135 0.02371264 -0.0075953193 -0.078282595 -0.02746508 -0.042610716 0.08609757
-0.08906455 0.0043852814 -0.039994124 -0.053621482 -0.02762148 0.03918555 -0.035548266 0.08182804
-0.049358927 -0.043040805 -0.020273482 -0.082851544 -0.0012062669 0.1059427 0.070252754 -0.018182281
0.051307753 -0.059467744 -0.022909764 0.011171945 -0.081737086 -0.039656043 -0.008005049 -0.024334315
-0.02901136 -0.051701557 -0.0195298 0.10532322 0.091708586 0.013515269 -0.043903988 0.0054939054
0.10590876 -0.015458706 -0.006207579 0.12326111 0.0012938562 0.023756748 0.022342488 0.040789712
0.06902189 0.042772442 0.0033963274 0.017606892 0.029841932 -0.02196666 -0.07280481 -0.01780047
0.0815559 -0.07065794 0.0014673632 -0.02106732 0.0035909452 0.052236475 -0.03867508 0.066410705
0.049434926 -0.018042494 -0.057379823 -0.04032633 -0.036455024 0.017583853 0.023675771 0.023544086
-0.026483588 -0.0030540526 -0.016052922 -0.0105901845 -0.039447684 0.06631111 -0.03628876 0.029731527
0.011153564 -0.029226325 0.11569076 -0.02584951 -0.06347696 -0.06964333 -0.010071728 0.060347784
-0.03732574 0.027318055 0.00030386628 -0.03590551 0.02392111 -0.08467061 0.028154667 -0.026046459
0.044967458 0.043491382 -0.05277291 -0.04608967 0.010302741 0.02449049 0.004624534 -0.06268354
-0.02285078 -0.031599768 -0.016901579 -0.058221117 0.024241978 0.07421261 -0.04148781 0.07369339
-0.06860382 0.016693845 0.07447034 0.017656248 0.002439548 -0.020624572 -0.06962975 -0.019342616
-0.012493348 0.0035642316 -0.014884889 0.061261036 0.03531823 0.079485446 -0.0394801 -0.07346331
0.017592281 0.0060513774 0.02386632 0.03300565 0.047576994 0.042336173 -0.073110305 -0.017709278
-0.008075921 0.010748845 0.09076816 -0.024638388 0.02080356 -0.02582956 -0.042645335 -0.018625248
0.017862473 -0.011544763 0.019273264 0.1078769 -0.020100344 0.08366675 0.008681171 -0.042140823
-0.00757935 0.14246479 0.010232344 0.018623313 0.06808775 0.074614644 -0.04275069 0.020663401
0.03008062 -0.014343428 -0.012843912 -0.019836701 -0.0111873 0.0222217 0.14626981 -0.004586851
-0.04330235 0.052493736 -0.035019968 -0.11477797 0.091520965 0.021024816 -0.037336383 -0.046322465
0.08674649 0.06912206 0.0025575121 -0.102341995 -0.033531975 0.056068677 -0.07712263 -0.14073168
-0.04435473 0.045164358 -0.03772341 -0.0031397834 -0.11128383 0.16193604 -0.026982414 -0.006430476
-0.06240999 0.048761453 -0.017535955 0.024203354 0.020724226 -0.0009872713 0.03351087 0.06635291

bias f4 [32]
00000000: 1fda 80b2 8308 d1b3 21a8 aeb3 7a39 a3b1
00000010: 2516 b033 eb07 2d33 8423 8c33 aa8f 6433
00000020: 6aa6 95b3 0860 9a33 b0f5 5a33 846a c5b3
00000030: be3c 1d31 f318 ac33 f8e3 5332 127e f933
00000040: 11a2 31b4 4dfb e5b2 03cc 9733 77e7 3fb3
00000050: a1d3 b533 2b93 2db3 81b6 6632 9e5d 9233
00000060: 9f17 6ab3 421a 3733 d98a ce32 1314 85b3
00000070: 3f01 be31 574d ad32 564f fb33 a489 67b3
-1.5000351e-08 -9.733869e-08 -8.133089e-08 -4.7504587e-09 8.199667e-08 4.0286903e-08 6.525718e-08 5.321605e-08
-6.968624e-08 7.188652e-08 5.0980532e-08 -9.1929024e-08 2.2881035e-09 8.0139124e-08 1.23336505e-08 1.1617898e-07
-1.6543369e-07 -2.6773387e-08 7.068595e-08 -4.468117e-08 8.4669644e-08 -4.041355e-08 1.3429259e-08 6.815684e-08
-5.4503854e-08 4.263189e-08 2.4044697e-08 -6.1969466e-08 5.5298695e-09 2.017502e-08 1.17025294e-07 -5.3909062e-08

weight f4 [32]
00000000: 0ee8 813f 1dd6 7e3f 1e0b 833f f743 823f
00000010: 1fbb 7a3f ea2d 7d3f 7560 7d3f 5d6f 7a3f
00000020: 7d9e 7b3f 47a9 793f 7a84 823f b6f0 803f
00000030: 0461 7c3f 4442 823f 03b0 7b3f 2000 803f
00000040: 1824 813f 2d6d 823f 3a12 793f ab87 793f
00000050: 985c 783f a28b 7a3f 4898 7a3f 524b 803f
00000060: d7b8 803f d456 813f 5e5a 813f 7e5d 803f
00000070: 392e 7f3f 082b 7e3f b7e5 7c3f 813c 803f
1.0148942 0.9954546 1.0237768 1.0176991 0.97941774 0.98898184 0.98975307 0.97826177
0.9828871 0.9752392 1.0196679 1.0073459 0.98585534 1.0176473 0.9831545 1.0000038
1.008914 1.0189568 0.97293437 0.9747264 0.97016287 0.9786931 0.9788861 1.0022986
1.0056409 1.0104623 1.0105703 1.0028532 0.99679905 0.9928441 0.9878802 1.0018464

bias f4 [32]
00000000: ccc5 813c 92ab 5dbb 2835 283c f517 173c
00000010: eb34 43bc 1da0 be3b 078b 64bc 8c99 04bc
00000020: d5e3 da36 d475 36bc 7938 123c 10f5 0a3b
00000030: 667d 6fb9 b79d 1ebd f33e 183b bb1b e7bc
00000040: 0fd2 663c ea89 7a3c 120b 53bc 4dda 16bd
00000050: 6aae 39bc d7d9 c1bb 5b2a 53bb ecaf b9b9
00000060: 546c 023c 93f1 84bb 190a c7bc 46a0 f23a
00000070: 04eb 41bc 3f14 3abc 2e80 bcbb a78b ff3a
0.015841387 -0.0033824188 0.01026658 0.00922202 -0.011914472 0.005817427 -0.013949162 -0.008093249
6.5234294e-06 -0.011136491 0.008924597 0.0021203198 -0.0002283953 -0.038724627 0.002323088 -0.028211465
0.014088168 0.01529167 -0.012881057 -0.03682928 -0.011333087 -0.005915861 -0.003222129 -0.00035417022
0.007960398 -0.004057118 -0.024296807 0.00185109 -0.011835817 -0.011357366 -0.005752585 0.0019496576

running_mean f4 [32]
00000000: 0be6 90bc 4ea0 343f 6881 c63f c716 cf3f
00000010: b6bb d8bf 33c1 b63e 66ed 443e 05ac 9cbf
00000020: c38e d6bf 3e36 b1bf 28b3 723f 1201 513f
00000030: 38f6 02c0 e1ad 843f fbf0 cdbf 0cd8 743f
00000040: b98e a13f 40d2 bd3e 2f5e 6cbf feb8 323f
00000050: f806 23c0 7bf2 dbbf 95cf f8bf 8924 ae3f
00000060: 2822 293f ff88 373f fbfd 6f3f 5992 453f
00000070: 30a7 c33f a904 963f 44b5 683f e558 a23f
-0.017687818 0.70557106 1.5508242 1.6178826 -1.6932285 0.35694274 0.19231185 -1.2239996
-1.6762317 -1.3844678 0.9480462 0.8164226 -2.046278 1.0365564 -1.6089166 0.9564216
1.262168 0.3707447 -0.9233121 0.69813526 -2.5473003 -1.7183374 -1.9438349 1.36049
0.66067743 0.71693414 0.9374692 0.77176434 1.5285397 1.1720172 0.9090159 1.2683378

running_var f4 [32]
00000000: 0516 2a41 33b9 2541 ba74 f640 28f1 1d41
00000010: eafb 5741 3bf3 a840 c3cc f53f ec3f 3e41
00000020: d4a5 4641 5778 4241 e358 cf40 2039 cc40
00000030: fc28 aa41 dfa5 0340 3776 6c41 8667 da3f
00000040: 9639 d840 047c 2341 d4fc 4941 86a1 923f
00000050: c54d 2541 17d1 6441 901c 2641 bdb4 1041
00000060: 450c e040 850b 9b40 baa6 d23f 1d18 aa40
00000070: e89d 9340 e897 a440 a4ad 0041 2142 2741
10.630376 10.357715 7.701749 9.871376 13.499002 5.279691 1.9203113 11.890606
12.415485 12.15438 6.4796004 6.3819733 21.270012 2.056999 14.778861 1.7062843
6.7570295 10.217777 12.624226 1.1455543 10.331487 14.301047 10.381973 9.044126
7.0014977 4.845156 1.6457131 5.3154435 4.6130257 5.1435432 8.042393 10.453645

weight f4 [32, 32, 4, 4]
00000000: 52d6 fa3d e690 30bd 5f11 ebbc 74c0 fe3d
00000010: 92ed af3d ffc3 733d 28b2 5fbb 37e1 c7bd
00000020: f0d5 8d3c 6fd8 863c abfb 973d b77b 85bd
00000030: 7c15 263c 0e50 61bd e328 85bb 0dd7 00bd
00000040: 756c a8bd 9fd6 cd38 a775 d63c 7188 57bd
00000050: 4e43 15bd 7dc0 443d 1df5 643d 5e72 01bd
00000060: b781 f5bc 6f84 373b e2b5 8abd f69e ca3b
00000070: de03 553c 7d9b 48bd 5a4e c23c c9d6 a93d
00000080: 0940 0abd 7a9e c03d 8251 213d 4ef4 e1bb
00000090: 1b2e ccbd 1e59 0ebd 80e3 3abd bf65 8e3d
000000a0: 52a0 013d 5803 5f3c aba8 a0bd e8b7 a6bb
000000b0: 2e56 12be b5ff febd af00 d03c 14be 2d3d
000000c0: 5156 6d3d bbb2 bfbd 47eb 0e3e e38c ad3d
000000d0: a199 14bd 5607 d4bc db4f 093e 38fe 93bd
000000e0: 0500 083e 16af 103e bd63 e5bb 01b6 d73d
000000f0: faed a13c baea 67bd 15c6 c23c 0450 623d
00000100: 37bf c9bb 8b9d cf3c 913a 7b3d 55b4 1cbd
00000110: 9610 843d 8ee0 25bc aa6e ae3c 7a8a 893b
00000120: e755 4f3d 89dd be3d b77b c43b 5796 243d
00000130: 736d ddba e634 4c3c 3b96 8a3d 5699 b7bd
00000140: 6e42 733c 31ac cc3c cc7c 84bd 74c8 4b3d
00000150: cb4f 03bd 442f 1ebd 813b 1dbe 502c acbc
00000160: ac7e 16be f0a4 db3c 22d5 b6bd b4d9 eb3d
00000170: f5ca 4cbc c298 53bc 2a26 203d 62d2 483b
00000180: b050 7c3c 0951 e63c 36d5 343c 8118 163d
00000190: fe01 8cbc b84b 3cbd 41c3 9abd 033e cfbc
000001a0: dcaf 9cbd 9aa1 843c dc64 3f3d ceb8 063e
000001b0: ded4 803b 7f67 e9b8 4189 abbd 2431 e3bd
000001c0: dd7a bf3d e131 13be ff30 a53d f9ef da3d
000001d0: 8fcd 2a3d fb15 393d a597 ac3c fd16 943c
000001e0: 9cf6 d33d 093a 5ebd 1063 8a3d be1a babc
000001f0: 5ffd 0a3d 5a38 82bb e7d3 d1bd 1829 babc
00000200: c249 08be 3d44 eabd 26f2 9e3d c348 2bbd
00000210: 5581 c03c 70d0 8ebd 477d c53b 9c46 b73c
00000220: 0ef7 73bc abad 1bbd 3032 53bd 4b34 c43c
00000230: 5e7b e2bc 6c61 21bd a30c 623d 0729 d03d
00000240: 0f0a 1abd 8ad3 e4bc c0a6 3fbd 4e4f 193d
00000250: b407 f03c 2c1a 4bbc f3b9 6b3d f97d 40bd
00000260: 3005 16bd 9e82 88bc 6ba4 b33c b208 cd3d
00000270: 7fe7 d2bc d556 4cbc ff6e f63d 3fae a93d
00000280: 0358 babc d47a 8bbc 71f4 1d3d 8ef4 703d
00000290: cd28 d4bc 12cf 713d 0da2 08bb 1ab5 7fbd
000002a0: fccc 173b 9ddc 663d a4b7 103e 1dc3 913d
000002b0: 41d2 8bbd c0ab 19bc 82e8 f43d 7fc4 bf3d
000002c0: 97d7 e6bc 5f7f b7bd 0f32 e1bd aca5 0b3d
000002d0: 7069 ee3d 4c85 ccbc 063f 15bd ef2a 323d
000002e0: dc00 173d 9c65 643d 1642 36bd dcaf c23b
000002f0: fb92 093c d0af 0b3b 6d2b c3bc 9925 04bd
00000300: 416d 8a3d e00f 25bd 5558 c8bb 61b3 76bc
00000310: bc53 273d ddf9 bb3d 4b80 2abd ad5c 2fbd
00000320: 042c 8fbc 40c1 103e ca89 91bb 9d70 1cbd
00000330: b499 06be 6a0b c43c bbdb 9dbb 4862 10bd
00000340: 52f8 c33d 2b48 8838 590d aebd 42a7 7bbd
00000350: 0a54 febd eeba 97bc eed1 21bd f8c7 b2bd
00000360: b5af 7ebd 464a 03be 32a1 a6bd 22c9 a7bd
00000370: 680c c5bd 9cc6 553d 5e25 c0bd fbfa 71bd
00000380: 15d4 7c3c dd92 ce3d 071e 8bbd 5623 653c
00000390: fb6b 323d 7dcd 2b3c 956a 60bd 9b42 b63c
000003a0: 3904 83bc 9935 a8bd 4b86 69bd 1366 423c
000003b0: 96ac 293b e9a6 813d 5a99 303d 2b14 84ba
000003c0: ca7c 27bd ec2c 8abd 67aa c43c 7eff a03c
000003d0: 471b 2fbe f796 dfbc 83d0 81bd 66a6 163d
000003e0: f8f4 113d 07c5 48bd b8f5 82bc dc74 f23d
000003f0: 51a2 bd3c c812 cabd 5ee4 183a a924 d839
0.122479096 -0.043106936 -0.028694807 0.12439051 0.08590235 0.05951309 -0.003413329 -0.09759753
0.017313927 0.016460625 0.07421049 -0.06517737 0.010136958 -0.055007987 -0.004063712 -0.03145509
-0.082238115 9.815138e-05 0.026179148 -0.052620355 -0.03644114 0.048035134 0.05589782 -0.03160321
-0.02996908 0.002800252 -0.06772973 0.0061835004 0.01300141 -0.04897641 0.023719002 0.0829292
-0.033752475 0.09405227 0.039384373 -0.0068955785 -0.099697314 -0.034752958 -0.045627117 0.06953
0.031647034 0.013611637 -0.07844671 -0.0050878413 -0.14290687 -0.12451116 0.025390951 0.0424176
0.057943646 -0.09360262 0.13956939 0.08474138 -0.036279324 -0.025882404 0.13409369 -0.07226223
0.13281257 0.1412929 -0.007000415 0.10532761 0.019766796 -0.056620337 0.023776093 0.05525209
-0.006156828 0.025343677 0.06133515 -0.038257916 0.06448476 -0.010124339 0.021293003 0.004197416
0.050619032 0.09319598 0.0059961933 0.040182438 -0.001689358 0.012463784 0.067669354 -0.089647934
0.014847381 0.024984451 -0.064691156 0.049751714 -0.03205852 -0.038619295 -0.1535473 -0.021017224
-0.14696759 0.026812047 -0.089273706 0.11516133 -0.012499561 -0.012914838 0.039098896 0.0030642976
0.015400097 0.028114812 0.011037162 0.036644462 -0.017090794 -0.04597065 -0.07556773 -0.025298124
-0.0765073 0.016190339 0.046727046 0.13156435 0.0039316257 -0.000111295834 -0.083757885 -0.11093357
0.09349606 -0.14374496 0.08065986 0.106903024 0.041699942 0.045186978 0.021068403 0.018077368
0.103497714 -0.054254565 0.06757176 -0.02271783 0.03393304 -0.003974003 -0.10245495 -0.022724673
-0.13309386 -0.11438797 0.0776103 -0.041817438 0.02349917 -0.0697335 0.006026897 0.022372536
-0.014890445 -0.03800742 -0.051561534 0.023950716 -0.027646717 -0.03939955 0.055187833 0.10164075
-0.03760725 -0.027932901 -0.046789885 0.037429146 0.029300548 -0.012396377 0.057550382 -0.046995137
-0.03662604 -0.016663846 0.021928987 0.10011424 -0.025745152 -0.012471874 0.120328896 0.08285188
-0.022747045 -0.017026342 0.038563196 0.058826976 -0.025898362 0.05903537 -0.0020848543 -0.06242857
0.0023162952 0.056362737 0.14132553 0.07117293 -0.06827212 -0.009379327 0.1195841 0.093636505
-0.028178973 -0.08959841 -0.10995876 0.034093544 0.11641204 -0.024965905 -0.036437057 0.043497976
0.036866054 0.055760965 -0.04449662 0.005941374 0.008396859 0.002131451 -0.023824418 -0.03226242
0.0675912 -0.040298343 -0.0061140456 -0.015057416 0.04085134 0.09178517 -0.041626256 -0.042812992
-0.017477043 0.14136219 -0.0044414746 -0.038193334 -0.1314457 0.023931224 -0.0048174537 -0.03524998
0.09568848 6.498428e-05 -0.084986396 -0.061438806 -0.12418373 -0.018521752 -0.039506845 -0.08729547
-0.062179286 -0.12821302 -0.08136214 -0.0819266 -0.09621507 0.05219136 -0.09382127 -0.059077244
0.015431424 0.10086606 -0.06792837 0.0139854755 0.04356001 0.010486004 -0.054789145 0.022248557
-0.015993224 -0.08213348 -0.057012837 0.011865157 0.0025890223 0.06330664 0.043114997 -0.0010076811
-0.040890492 -0.067468494 0.024007035 0.019653078 -0.17100249 -0.027293665 -0.063385986 0.036779784
0.03563401 -0.049016025 -0.015986308 0.118386954 0.023148688 -0.098668635 0.0005832369 0.00041226044

bias f4 [32]
00000000: 6476 75b3 f135 9932 4481 2bb3 022e 12b3
00000010: 6381 cbb2 cff9 88b2 9630 bb31 822b f4b1
00000020: 0f01 d132 58a9 6c33 08cc 3b33 1c9e 94b3
00000030: 2f0f 0a30 8291 e4b2 6db9 b0b3 9f33 1bb3
00000040: a63e fbb2 adc0 3032 f02b 1f32 80fe 85b3
00000050: ec04 ccb2 695d b7b1 c316 8cb3 9c26 c9b2
00000060: 7203 9031 b131 98b2 471b c9b1 fa76 9fb2
00000070: 89f8 90b2 1619 4b33 73b1 01b2 c8e8 db32
-5.7151183e-08 1.7836074e-08 -3.9931606e-08 -3.4035118e-08 -2.3691149e-08 -1.5946084e-08 5.44794e-09 -7.106281e-09
2.4331284e-08 5.510205e-08 4.3724896e-08 -6.920547e-08 5.0225685e-10 -2.6608863e-08 -8.2293674e-08 -3.61357e-08
-2.9248735e-08 1.0288358e-08 9.265008e-09 -6.2395884e-08 -2.3750964e-08 -5.3366205e-09 -6.523398e-08 -2.3417037e-08
4.1913433e-09 -1.7717726e-08 -5.852971e-09 -1.856414e-08 -1.6876827e-08 4.7287436e-08 -7.5491355e-09 2.5600812e-08

weight f4 [32]
00000000: 413f 733f ab51 773f cccc 7b3f 0b8c 743f
00000010: bff1 7a3f 71a2 763f 0d12 7b3f 6e40 7d3f
00000020: 754e 783f bb35 743f e086 7c3f 6fd1 7d3f
00000030: 18f7 7b3f 375e 7a3f a67d 763f f15a 763f
00000040: 6820 793f b19e 7c3f 3e29 773f b568 783f
00000050: 3173 723f 21aa 793f 3929 7b3f 1d5f 783f
00000060: 5308 7c3f a2a3 723f fb6f 783f 5c56 773f
00000070: eba6 7a3f 79cf 7a3f fc6a 7c3f 3193 793f
0.9501839 0.9660899 0.9835937 0.9552619 0.98025125 0.96341616 0.9807442 0.98926437
0.96994716 0.95394486 0.986433 0.99147695 0.9842391 0.9780001 0.96285474 0.96232516
0.97315073 0.98679644 0.96547306 0.9703477 0.9470702 0.9752522 0.98109776 0.9702013
0.984502 0.94780934 0.9704587 0.9661615 0.97910947 0.9797283 0.98600745 0.9749022

bias f4 [32]
00000000: a273 09bd 5dd1 babc d54e 14bc 2332 44bd
00000010: c097 86bc dcf8 f8bc 611d 6cbc b6a7 46bc
00000020: 6fc8 58bc aea7 f3bc aa8b cfbb 5bd8 b3bb
00000030: f9b4 03bc a037 51bc fc3d d5bc aff8 8bbc
00000040: 905d 99bc 6a1e dfbb f6f3 17bc 22a3 9cbc
00000050: f679 30bd 3b20 fabb f7df c9bc ffe3 b4bc
00000060: abf6 fdbb 561d 2cbd 9ef9 9fbc 4b43 88bc
00000070: 07f5 34bc 7114 11bc 3a00 0cbc 1a40 d0bb
-0.03355754 -0.02280491 -0.009051998 -0.047899377 -0.016429782 -0.030392103 -0.014411301 -0.012124946
-0.013231381 -0.029743042 -0.006333788 -0.005488438 -0.008038753 -0.01276961 -0.026030533 -0.017086355
-0.018721372 -0.0068090456 -0.009274473 -0.019120757 -0.04308506 -0.0076332367 -0.024642928 -0.022081373
-0.0077503524 -0.042020164 -0.019528206 -0.01663365 -0.011044747 -0.008854971 -0.008544976 -0.0063552978

running_mean f4 [32]
00000000: d351 0fbf 6daa 98bf 8d6d b0bf 1e35 e73e
00000010: 9b56 873f 73fd 43bf 4c6d 73bf 39c0 cf3e
00000020: c10b c63d 3b4f d4bf 3a58 56bf e298 ccbf
00000030: 4719 e8bf 3941 403f f0cc c9bf 48c4 0dbf
00000040: 5b13 5bbf 1cbd a9bf 8265 773f cdc8 023f
00000050: dc0c 30be 02f9 cf3e 29ae d33e d895 b0bf
00000060: a397 79bf 01f9 1bbe c3cc 69bf b759 dbbf
00000070: 12d8 65bf f974 30bf 2cca aebf 7918 5f3d
-0.5598423 -1.192701 -1.3783432 0.45157713 1.0573305 -0.7655861 -0.9508865 0.40576342
0.09670211 -1.6586679 -0.83728373 -1.5984156 -1.8132714 0.7509952 -1.5765667 -0.55377626
-0.8557641 -1.3260837 0.96639264 0.5108765 -0.17192405 0.40619665 0.4134381 -1.3795729
-0.97497004 -0.15231706 -0.91328067 -1.7136754 -0.8978282 -0.68928486 -1.3655448 0.0544667

running_var f4 [32]
00000000: a387 3240 eb85 8340 7abd 0841 33dd 203f
00000010: 6fce 1a40 7cb4 0640 e75d 2c41 93fc 9c40
00000020: 69d3 b140 9a42 4641 14fa 0e41 0734 4f41
00000030: f4f1 5d41 c5db dc40 0491 4041 c35d 0c41
00000040: 5ebc 1b41 c1f9 3841 8bb7 3141 6660 f040
00000050: feb2 d23f 09f2 f640 436d 833f f73a 6341
00000060: 159f 2441 5a47 0140 b6a2 3041 5c4d 2941
00000070: 4b41 2341 cc46 2341 f2c1 7e41 a971 7140
2.7895286 4.1100974 8.546259 0.62837523 2.4188497 2.104766 10.772925 4.905832
5.557057 12.39126 8.936054 12.950202 13.871571 6.9018273 12.035404 8.772891
9.733488 11.560975 11.10731 7.5117674 1.6460874 7.7170453 1.0267719 14.201896
10.288838 2.01998 11.039724 10.581387 10.203441 10.204784 15.92235 3.7725623

weight f4 [128, 1120]
00000000: 7104 89bc 5734 dfbc ba05 8e3d a2e7 933d
00000010: 10f6 13bd 2257 f0bd 9622 493c 8cc4 52bd
00000020: 3df8 01bd 8ed8 823c de12 c2bc db73 4cbb
00000030: 8ea2 e8ba 3d14 2b3d fe95 5ebd e748 81b7
00000040: aa9b 44bd 960b 4b3d 915f ae3d 0705 8bbc
00000050: 4952 febb 1df5 2dbd 5070 3d3d 47d1 abbb
00000060: 4a19 603d bb1f 04bd 56e3 483b c83b 043d
00000070: 3b30 f63c 94fa 8bbc 01a0 743d 6ddc dcbc
00000080: 6888 e6bc e24b 7ebb 93a5 9ebd dff1 ad3c
00000090: ff51 8a3d 169a c33c 42b5 78bc 10d4 9f3a
000000a0: 16d7 903d 5b85 18bc 2845 91bd 66aa a93b
000000b0: 5333 c0bc dba8 713c 1f00 a0bc 126f 4e3d
000000c0: 2bf7 49bc 305c 8fbb 8f35 ed3c 24e3 2cbd
000000d0: 2e2a b8bd 5b3a 95bc ca37 513d 9fca 423b
000000e0: 2766 793c 5f72 b9bc 6329 313c d4ed 883d
000000f0: 476a 02bd 4c30 3abc 5784 95ba b4da 12bc
00000100: aac9 23bc a4ed 69bd 1637 58bd 8e9d 32bc
00000110: 6666 d63c ba6a 00bc cc63 14bd 8e29 70bd
00000120: 8bb2 ad3c 844b 773c 5c6a 443d f507 c93b
00000130: 6fef dcbc 66d5 963b 0e18 2e3c 3173 64bd
00000140: b39d 5e3d 3b7d 56bd f527 0dbc 9b23 b2bc
00000150: 32fc 67bd b3bc a33c b8c7 2a3d eff0 233d
00000160: 51c0 3bbd 6290 eabd a41e 4cbd 392f c03c
00000170: 5555 febc b980 8d3c bc6e c0bc d1ba 70bd
00000180: 3ef8 13bd b2ad 013d 2179 383d 63ed 31bd
00000190: 1486 49bd 240d 97bc 50ce 823c bb48 87bc
000001a0: 2d09 aabd 3391 45bd 2466 e83c 67e3 fb3c
000001b0: ba16 ecba 9658 bd3c b108 d63c 0f37 aebd
000001c0: f99c 653d 97c1 4c3c ddf1 30bd f990 a3bc
000001d0: 8ed7 39bc 922f 9ebc 0fa0 273d 3e44 cebd
000001e0: d43f da3b 5d77 f0bc b774 093b f717 3ebd
000001f0: ea17 a33c d858 af3a 9f71 58bd 8e9e 93bc
00000200: 52eb 3b3c 5f43 443c ec50 193c 30a3 8abd
00000210: 80ea 673c 7bfb 863b 3d97 db3b b3c3 873c
00000220: 79c7 0c3c cd8f 503d 3329 0fbc 1eb6 383c
00000230: 6763 5dbd 8845 5a3d 1ab2 aabd 3bfd 46bd
00000240: 8847 54bd 3518 d8bc 1df4 aebd 9f15 2a3d
00000250: b03a 76bd fdbb 86bb 53fd 8d3d 9750 c03b
00000260: 0c8f 053c 80fe 1c3d bcca 87bb 7075 2b3d
00000270: 42b6 34bc 9b54 803d 4821 313c 440f 2f3d
00000280: 4895 99bc 17d0 6a3c 3286 013d 919e cabb
00000290: 9e06 3a3d 2aea cf3d fb65 68bd 1642 be3d
000002a0: b880 f7bc 1b1e 6d3d 64ea dfbd 84eb 8b3d
000002b0: b1b6 a1bc 2fad acbd bd19 13bc 60ba 3f3d
000002c0: fcb5 e5bd 81e8 fabc c655 b3ba 1788 99bb
000002d0: e795 ba3d 7032 d4bc d560 f83c 7712 7cbd
000002e0: b957 9fbd dca1 f83c 377f 413c f6e4 023b
000002f0: d553 f53c 8a37 a23c 20b3 aabc 7a7d 103d
00000300: 3577 373d a0db 33bc b1e7 83bd 332d 38ba
00000310: 9167 9dbc 9758 94bd dd5a 973d 8c83 23bd
00000320: 88bf 0cbd bd59 6d3d 4637 6e3d b465 093d
00000330: d2b4 a6bd efb5 3e3d bd0f 683d bf61 883d
00000340: a691 6d3d 9f6e 8dbd db28 9ebc a0a0 8a3b
00000350: 618e 82bc 80f8 98bd f207 e7bc fdc9 2cbd
00000360: 980f 75bd ffd1 7bbd e3d5 1b3d c4fa 90bd
00000370: d764 263d ca45 05bd e279 0c3d 21b2 783c
00000380: 70d6 fe3c 3839 ad3d 1e80 25bd 6302 263d
00000390: 4ca9 973b c6fb 693c 3e1d 7fbd 82c6 7b3d
000003a0: dfb7 00bd 5dc8 65bd 5761 7b3c 3f7c 7f3c
000003b0: d799 0fbd e149 dc3c 6ae3 97bd fe9b bd3c
000003c0: 6096 9f3c 0a22 d03d bbff 6fbd fbd9 f0bb
000003d0: cd67 e03b 253f 833a bf20 7dbd a730 0e3d
000003e0: 0701 a7bc 4e4d 13bc a2f7 4abb 4352 87bd
000003f0: 84a6 833d cb42 b53a e34b b9bd 73da 30bd
-0.01672575 -0.027246637 0.06934686 0.07221915 -0.036123335 -0.11735369 0.012276312 -0.051456973
-0.03173088 0.015972402 -0.023690637 -0.0031196985 -0.001774864 0.041767348 -0.054342262 -1.5411946e-05
-0.048000015 0.049571596 0.085143216 -0.01697017 -0.007761274 -0.042470086 0.046249688 -0.0052434537
0.054711618 -0.032256823 0.003065308 0.032283574 0.030052295 -0.017087258 0.059722904 -0.026960576
-0.028141215 -0.0038802554 -0.077464245 0.021233497 0.06753921 0.023877185 -0.015179934 0.0012193937
0.070722744 -0.009309138 -0.07093269 0.005177784 -0.023461973 0.014749731 -0.019531308 0.050398894
-0.012326996 -0.0043750033 0.028956203 -0.042208806 -0.0899242 -0.018216303 0.051078595 0.0029722822
0.015222109 -0.022637544 0.01081309 0.06685987 -0.031839635 -0.011364054 -0.0011407238 -0.008963276
-0.009996811 -0.057111397 -0.05278691 -0.010901822 0.026171874 -0.007837946 -0.036227986 -0.05863338
0.0212033 0.015093688 0.047952995 0.0061349818 -0.02696964 0.004603076 0.010625852 -0.055773918
0.054349612 -0.052365523 -0.0086154835 -0.021745494 -0.056636997 0.01998744 0.041694373 0.040024694
-0.045837704 -0.1145332 -0.04983391 0.023460018 -0.031046549 0.017273294 -0.023490302 -0.058771912
-0.036125414 0.03165979 0.045037393 -0.04343928 -0.049200132 -0.018438883 0.015967518 -0.016514173
-0.083025314 -0.048234176 0.028369017 0.030748082 -0.0018012144 0.02311353 0.026127191 -0.08506595
0.056057904 0.012497327 -0.04319941 -0.01996659 -0.011342896 -0.019309793 0.04092413 -0.1007161
0.006660441 -0.029353792 0.0020974108 -0.046409573 0.019908864 0.0013377918 -0.052842733 -0.01801994
0.011469679 0.011978953 0.009357672 -0.06769407 0.01415503 0.0041193343 0.0067013786 0.016572809
0.00859248 0.05091839 -0.00873785 0.011273889 -0.054049876 0.053288966 -0.083347514 -0.048581343
-0.05182603 -0.02637873 -0.08542655 0.041524526 -0.060114563 -0.0041117654 0.069330834 0.005868982
0.008151781 0.038328648 -0.004144041 0.041860044 -0.011029782 0.06266137 0.0108111575 0.042739168
-0.01874794 0.014331839 0.03162212 -0.0061834534 0.045416467 0.10152085 -0.05673788 0.09289949
-0.030212745 0.05789004 -0.10933378 0.068320304 -0.019740434 -0.0843147 -0.008978304 0.0468086
-0.112163514 -0.030628445 -0.0013682179 -0.0046854126 0.09110623 -0.025902957 0.03031961 -0.061541047
-0.07780404 0.030350618 0.011810116 0.0019972897 0.0299472 0.019801874 -0.020837367 0.035275914
0.04479142 -0.010977656 -0.06440676 -0.0007025778 -0.019214423 -0.0724346 0.07390378 -0.039920375
-0.034362346 0.05794691 0.05815818 0.033544257 -0.081399575 0.046560224 0.056655634 0.066592686
0.05800023 -0.06905865 -0.01930659 0.004230574 -0.015937032 -0.074692726 -0.02820203 -0.04218482
-0.059829324 -0.061479565 0.038045775 -0.0707908 0.040623512 -0.03253726 0.034295924 0.015179188
0.031108111 0.08458179 -0.040405385 0.04052962 0.004628336 0.014281219 -0.062283747 0.06146861
-0.031425353 -0.056099284 0.015343032 0.015593587 -0.035058822 0.026890697 -0.07416423 0.023145672
0.019480884 0.101627424 -0.058593493 -0.007350204 0.0068483115 0.0010013325 -0.061798807 0.034714367
-0.020386232 -0.008990599 -0.0030970355 -0.06607487 0.06428245 0.001382911 -0.09047677 -0.04317708

bias f4 [128]
00000000: 0615 1cbb d90f a1bb 89e4 30bb dfc8 21bb
00000010: ec65 83bb 6c1f 07bb eba8 b3ba 7d17 c9ba
00000020: b722 88bb c69e 2fbb a39f bbba f078 67ba
00000030: 65bf 503a 4a02 9bbb f579 bbba 3340 9a3b
00000040: 7633 6dba 38df c0ba 1196 b5bb faa4 98ba
00000050: b0d2 8abb a706 5dbb 8685 e2ba a004 efba
00000060: b032 59bb 96eb 1dbb ac4a 27ba 2b6a 87ba
00000070: 0dfa bfb9 48b9 cabb f29d 68bb b189 83bb
00000080: 75e4 88bb 8d3c 9c3a 1d75 43bb 8fd7 92bb
00000090: ab82 94bb 9d57 d0ba f570 c0ba 2d3f 83ba
000000a0: 5e4a edba b46c a13a a16c 1cba 9b9e a1bb
000000b0: 2002 40bb ffaf c7bb 10e1 91bb c309 86bb
000000c0: b9b2 483a 7168 47b9 d563 0dbb 0a09 81bb
000000d0: 941e 03bc 083b 8abb b5b7 3abb e5cc e4b9
000000e0: 8a77 58b9 3d16 f0ba 2921 64ba 12ea f13a
000000f0: d6ae 1e3a e3f9 1dbb 8955 df39 507b 5fbb
00000100: 3e60 7cba 032a b538 e831 43bb 2466 0bbb
00000110: 8774 51bb d561 1c3b e560 caba e1ac 08bb
00000120: b5e3 e738 87dd 79bb 53ac 3cbb c2cf 5bbb
00000130: ea3e b6bb f8f8 7ebb 7940 9bb9 83f7 25b9
00000140: 541d 76bb c7be 3fbb 5acd 67bb eddd ddb9
00000150: ac28 6cba f0e5 6abb a215 c5ba d2ad bcbb
00000160: 6f69 95ba 8b50 99ba f2fa c6ba 0f12 eeb9
00000170: 1aa3 9ebb 53ad 22bb e0ae 1abb a02b 9eba
00000180: a7ff 8bbb f150 8dbb 1cb6 ecba f0b2 b3ba
00000190: fec3 96b9 3b9c 9dba a347 e1ba f4e0 51bb
000001a0: 583c bcbb 550e 9bbb 572f a4bb 8aaa 7bbb
000001b0: 2f64 0dbb 6f61 7439 6789 8dbb fe94 3cbb
000001c0: 8a70 3dbb 1f74 7cba 8df8 99b9 b2c5 18bb
000001d0: cc4d c7ba 4974 c9ba 630a 5fb9 7c38 d1ba
000001e0: 519c f3ba f380 90ba f3e1 aeba c8d3 35bb
000001f0: c166 c6ba 6081 01bb b0ce 9eb8 3499 26bb
-0.0023816242 -0.0049152193 -0.0026991686 -0.002468638 -0.004009953 -0.0020618094 -0.0013706958 -0.0015342083
-0.004154529 -0.0026797517 -0.0014314543 -0.0008829972 0.00079630903 -0.0047304975 -0.0014303314 0.00470736
-0.0009048501 -0.0014714962 -0.005541571 -0.0011645847 -0.0042365417 -0.003372589 -0.0017282225 -0.0018235631
-0.0033141784 -0.002409672 -0.00063816714 -0.0010331323 -0.0003661666 -0.006186638 -0.0035494533 -0.004014217
-0.004177625 0.0011919901 -0.0029824444 -0.004481263 -0.0045321784 -0.0015895251 -0.0014682101 -0.0010013335
-0.0018103828 0.0012315721 -0.00059671147 -0.0049322373 -0.0029298142 -0.0060939784 -0.0044518784 -0.004090519
0.0007656026 -0.00019017026 -0.0021574397 -0.003937845 -0.008002896 -0.004218463 -0.0028490846 -0.00043640207
-0.00020643897 -0.0018317174 -0.0008702451 0.0018456599 0.0006053274 -0.0024105243 0.00042597603 -0.00341006
-0.00096273783 8.638578e-05 -0.0029784385 -0.0021270597 -0.0031960325 0.0023862023 -0.0015440254 -0.0020854997
0.00011057352 -0.0038126425 -0.0028789237 -0.0033540581 -0.005561699 -0.003890572 -0.0002961194 -0.00015827832
-0.0037554102 -0.0029258 -0.0035370202 -0.00042317752 -0.0009008746 -0.003584262 -0.0015036354 -0.0057580257
-0.001139922 -0.0011696977 -0.0015180989 -0.00045408352 -0.0048412206 -0.0024822548 -0.0023602769 -0.0012067445
-0.0042724195 -0.0043126275 -0.0018059644 -0.0013709944 -0.00028756255 -0.001202471 -0.0017187487 -0.0032024952
-0.005744498 -0.004731933 -0.005010526 -0.003840121 -0.0021574607 0.0002330595 -0.004319358 -0.002877533
-0.002890619 -0.00096303405 -0.0002936762 -0.0023311195 -0.001520568 -0.0015369739 -0.00021270807 -0.0015962268
-0.0018586015 -0.0011024758 -0.0013342485 -0.002774464 -0.0015136824 -0.0019760951 -7.572526e-05 -0.0025420906

weight f4 [1, 128]
00000000: 0b1f 52bd 06a1 ffbd 1883 813c b3ed 81bc
00000010: 4b5d 38bd e087 5fbe c70f 23bd 2c25 c8bb
00000020: f371 c53d 4d68 ed3d a94e 043d 3698 a43c
00000030: 399a 0c3c 70d7 76bd e35c 083d cd85 97b9
00000040: 156d 043c 03e3 5fbd 8f64 363e 4f3f a3bd
00000050: 0300 263e 89cf 47bd 5155 acbd c884 a6bd
00000060: 94e8 e83d 5d96 a33d a8ac 7c3b 518c ffbc
00000070: 8329 21bd f715 3e3d 68d7 aa3d fb6a 49bd
00000080: 9306 833d 6d76 05bb 6730 443e 5a27 443e
00000090: 7cf4 13be b092 95bd aaba 833d e24a 9fbd
000000a0: e82e df3c b333 e2bb 4322 663c 2bff 873d
000000b0: 672f 38bd d129 853d ac66 14be 55bc ebbd
000000c0: fe6c a63c 75a6 8f3c 7821 8f3d 4bb8 04bd
000000d0: 4d9e 163e e881 1fbe 97da f5bd 821d de3c
000000e0: a905 303c 23d0 b2bd 96e9 7ebc 8ca3 4cbb
000000f0: 4232 603c 8eda be3d 377e f4bc 0bfe 3cbd
00000100: bc1b a43c 5e34 70bc 4ebb 16bd f2bc 89bd
00000110: ff7f aebc 7369 5539 23ed ca3c d1dd 60bb
00000120: f389 d13b 3717 133d c02b 84bc 3275 e0bc
00000130: 7f72 d63d a579 c73d 46ee 2bbd d3cf 453c
00000140: 3f82 0f3e d0f2 583c 944a 443d 84fd e1bc
00000150: fd3f e2bc 9b9f 00be bc1b d13c cfec 4bbe
00000160: c3ed 96bb aa07 bebd 0e48 ffbd 1ad3 f338
00000170: deac 4d3d 1cbe 3abd c0f1 263e 876f b93c
00000180: b208 0fbe 76e1 113e 90e5 453d abb9 18be
00000190: 3dba 62ba f1b0 a43d 4e6b 05be 9fd1 0b3e
000001a0: a921 cc3d 7495 aa3d 0c97 d63d 91d1 e2bd
000001b0: b35f 043d c75f 223d 5f72 c93d cffc c1bc
000001c0: e0e6 993d 1523 9e3b dc38 dbbb 1ead 013c
000001d0: 5e5e 423d c869 2bbd a038 813b 14f4 36bd
000001e0: 47d5 293d fdf1 66bd 977f e23c 24f7 853d
000001f0: dbee 4abd dff7 053b d0bc 91bb 88c2 fbbd
-0.051299136 -0.12481885 0.01580958 -0.015860414 -0.045010846 -0.21829176 -0.03980997 -0.006107947
0.09640875 0.115921594 0.03230158 0.020092111 0.008581691 -0.06026405 0.03329171 -0.00028900654
0.008082648 -0.054659855 0.17811798 -0.079710595 0.16210942 -0.048781905 -0.0841471 -0.08130795
0.11372486 0.07987664 0.003855506 -0.031194838 -0.03934623 0.046407666 0.08341867 -0.04917429
0.06397738 -0.0020364777 0.19159089 0.19155636 -0.14448732 -0.07303369 0.06432088 -0.07777955
0.027244046 -0.0069031357 0.014046255 0.06640466 -0.04496708 0.065021165 -0.14492291 -0.11510531
0.020315643 0.017535428 0.069888055 -0.032402318 0.14708824 -0.15576899 -0.12004583 0.02711368
0.010743537 -0.08731105 -0.015558621 -0.0031225411 0.013683857 0.0931903 -0.02984534 -0.04614071
0.020032756 -0.014660923 -0.03679972 -0.067254916 -0.021301268 0.00020352546 0.024771279 -0.00343119
0.0063946187 0.03591081 -0.016134143 -0.027399633 0.10471057 0.09739999 -0.041975282 0.012073475
0.14014529 0.013241485 0.047922686 -0.027586706 -0.027618403 -0.12560885 0.02552592 -0.19914554
-0.00460598 -0.092788056 -0.12464915 0.00011626464 0.050213687 -0.04559146 0.16303158 0.022636188
-0.13968161 0.14246163 0.04831463 -0.14914577 -0.00086489675 0.080415614 -0.13029215 0.13654183
0.09967358 0.08329287 0.10478029 -0.11075128 0.03231783 0.03964212 0.09836268 -0.023680119
0.07514739 0.0048259594 -0.006690128 0.0079148095 0.047453277 -0.041848928 0.003943518 -0.044666365
0.041463163 -0.05638312 0.02764873 0.06541279 -0.049544197 0.0020441932 -0.004447557 -0.12292963

weight f4 [3, 128]
00000000: b07d 1fbc 2d96 5c3b dea2 ec3b ace3 ba3b
00000010: e0ef be3b 310e 1c3b dc7d f3bb 3df1 063b
00000020: 3a9e 00bb fcc3 1e3b 1a0d 663c 737d 8d3c
00000030: 378b 95bc 5a1e 88ba 3709 8cbc 5c5a cc3c
00000040: 3c3a a73c f992 0bbc 654f 03bb 7fd6 a53b
00000050: 8c2f 383b 3a08 943a 4d6c c23b bce5 53bb
00000060: 511a e13b 3de2 2ebb d2c9 8b3c a128 99bb
00000070: 4d19 b73c d1fb b83b 3882 3b3b 9744 52ba
00000080: dbe3 413a f250 6d3c 336d 2a3b b633 e13a
00000090: e9f7 b93a 9c2d b0ba 3ee5 08bc 274e 903c
000000a0: 2252 6f3c 8502 8d3c 9b43 b9bc 7217 9138
000000b0: e247 973a e82b e93b 10de 1c3a 1cf6 10b9
000000c0: 9e46 fbbb 9aa3 8ebc f785 2dba 2d3e 103b
000000d0: eb03 d13a 68e6 1c39 769b 8db9 4521 b3bb
000000e0: 7941 52b9 7eb0 493b 8292 a4ba dbea 903c
000000f0: 2bb3 c7bc 5b8d 863b b733 293c 82cf 00bd
00000100: b11d fa3b 72b3 03bb 4718 143b 4c34 9d3b
00000110: ca20 723c d923 91bc 6020 813a ef29 47bc
00000120: 5bd2 8b3c 8edd a43c 29b2 633b 432a 583b
00000130: 3e45 71ba 800d cc3b a1e4 933b 3379 993b
00000140: 2bc2 dd3a 4d5f 313c 7389 ca3b 4ef2 3abc
00000150: ff4d 553a fcb2 493b 313e 1cbc 96a2 28b8
00000160: 9a82 9139 130b 1c3c e14c b5ba 5da5 413c
00000170: 641c eb3a 40e3 f139 ab4a 223b 37ec acbc
00000180: fe2e 1339 8f24 c737 125b f5ba c8f8 00b9
00000190: bf54 4b3c cd02 993b cff4 91b9 6a7a 8a3c
000001a0: 88fc 803b 88a7 c638 8cda b139 ccea 5b3b
000001b0: e79c af3b 7387 b03b 5bd4 863b 6368 e93b
000001c0: 4e62 2e3b 054a 9d3c a866 f938 9cb4 963a
000001d0: bcf7 843a 3e57 473b f6da 3c3c 580f c7ba
000001e0: 5b8d f9bb ab46 7d39 e9c8 433c 3519 8d3b
000001f0: 482f 873b 02b8 27bc 7b5f 963c a6df 423a
00000200: ee9f 623c 4356 19bb b28b b7ba 061f 8bbb
00000210: 309e 883b 711d 80b9 d028 f63b f1d9 813b
00000220: a856 763b 4398 95bb faf6 8fbb 9515 2fbc
00000230: fe29 a53c 4f4d 293b 8557 993c 07bd 5abc
00000240: 0f11 2dbc 9c07 3d3c 7756 ca3a 5a2e 38bb
00000250: c956 2dbb 2f50 54bb d80d f538 2682 003c
00000260: 14d6 463b ca04 103c cff3 14bc 640d 81ba
00000270: bc1e 86bc dc4b 79bb 0f95 dfba 6523 34ba
00000280: 897c 063b cab9 32bc 12b8 14bb 82f7 f639
00000290: 7434 0c3a a212 53bb e888 3b3c 8cb6 82bc
000002a0: f6d8 41bc 5f02 55bc 7cc6 9f3c f9bf 0c3b
000002b0: c1f9 4a3a 29c1 07bb 1381 f63a 1d7e 913a
000002c0: e732 053c 5dc4 a63c 6902 57ba ba59 58bb
000002d0: bf58 73bb ccf9 24bb df89 adba 8438 f93b
000002e0: 4bde 513a 68b5 073a 65c6 eb3b f339 a3bc
000002f0: 696d d73c 8229 5cbb 9141 4b3a 18e6 113d
00000300: 0256 963a a892 413c 616a 0ab8 7500 d8bb
00000310: 6684 0fbc 9cef c33c 9e9a 6cbb 7e6d 1d3c
00000320: f8c0 45bc e0cf 9abc 7e4b 08bb b5b9 9abb
00000330: 9910 d1ba 847d d8bb 605c 54ba cf70 4fbb
00000340: 49d8 b5ba af1c 6bbb 6489 d1bb 7c0b 8c3c
00000350: 682a 2539 6c9d 15bb 22b1 103c 5089 763a
00000360: cafb 143b 5cc2 36bb d7eb acb9 4fb2 36bb
00000370: 7f2a a5bb f00d 6a3a f13e 64ba 1d2b d83c
00000380: 42cb b1b9 4c1e e83a b79e 8e3a f1bb 513a
00000390: 3ef3 bebb 19cd 3c3b 6c0a 04bb ec80 28bc
000003a0: 03ad b4bb 35d6 273a c99c fab9 2560 91bb
000003b0: c21a d3bb 770a aeba 3a32 0b3a aaa3 30bc
000003c0: 36b8 a7bb 2ba6 f6bb 321a eaba c68b 2b39
000003d0: 6c1a bbb9 f4cc 51bb a8b5 7dbc e71d f939
000003e0: 3ca3 443c 8898 88ba 50bd 22bb 8344 6ebb
000003f0: ef9c 08ba 23d9 833c 770e 17bc 8b41 df3a
-0.009734556 0.0033658848 0.0072215637 0.00570341 0.005826935 0.002381217 -0.007430775 0.0020590567
-0.001962556 0.0024225703 0.01404121 0.017271733 -0.01825486 -0.0010385022 -0.017094238 0.02494543
0.02041351 -0.008518928 -0.0020036337 0.0050609703 0.0028104512 0.0011293956 0.0059333206 -0.0032332977
0.0068695922 -0.0026685141 0.017064009 -0.004674033 0.022350932 0.005645253 0.0028611552 -0.0008021085
0.0007396319 0.014484631 0.002600503 0.0017181549 0.0014188263 -0.0013441327 -0.008355437 0.017615391
0.014606984 0.017213115 -0.022615245 6.918506e-05 0.0011541808 0.0071158297 0.00059840176 -0.00013824593
-0.0076683303 -0.017411996 -0.00066193886 0.0022009716 0.0015946602 0.00014963152 -0.00027009443 -0.0054666125
-0.00020051551 0.0030775364 -0.001255587 0.017690113 -0.024377426 0.0041062064 0.010327271 -0.031447895
0.007632934 -0.0020095971 0.0022597478 0.004797494 0.014778325 -0.017717289 0.0009851567 -0.012155994
0.017068079 0.020125177 0.0034743643 0.0032984174 -0.00092037383 0.0062271953 0.0045133387 0.0046836375
0.0016918828 0.010825944 0.006180936 -0.011410309 0.00081369275 0.003077685 -0.009536312 -4.020574e-05
0.0002775386 0.009524125 -0.0013832116 0.011819211 0.0017937538 0.00046136416 0.0024763744 -0.02110873
0.00014036518 2.3739673e-05 -0.0018719158 -0.0001229971 0.012410342 0.0046695233 -0.00027838952 0.016904075
0.003936354 9.472581e-05 0.000339229 0.0033556698 0.0053592804 0.0053872406 0.00411467 0.0071230396
0.0026608887 0.019200334 0.000118923665 0.0011497918 0.0010144631 0.003041699 0.011526814 -0.0015187068
-0.007615728 0.00024154286 0.011949756 0.0043059834 0.0041255094 -0.010236742 0.018356076 0.0007433839
0.0138320755 -0.0023397363 -0.0014003424 -0.0042456416 0.004169248 -0.00024435998 0.0075121894 0.003962748
0.0037588272 -0.00456527 -0.0043934556 -0.010686298 0.020161625 0.0025833433 0.01871849 -0.013350732
-0.010563149 0.011537459 0.0015437145 -0.00281038 -0.0026449433 -0.0032396426 0.00011685089 0.00784353
0.0030340003 0.008790204 -0.009091332 -0.000984591 -0.016372077 -0.00380396 -0.0017057973 -0.0006871729
0.0020521006 -0.010908553 -0.0022692722 0.00047105184 0.00053483923 -0.003220715 0.011446215 -0.015956186
-0.011831513 -0.013001054 0.019503824 0.002147673 0.00077429047 -0.0020714498 0.0018806778 0.0011100207
0.008129812 0.020357305 -0.0008201958 -0.0033012466 -0.0037131754 -0.0025173305 -0.0013239941 0.007605614
0.00080058415 0.0005176873 0.0071952813 -0.019925093 0.026297288 -0.0033594077 0.00077536056 0.035619825
0.0011469724 0.011814751 -3.3000837e-05 -0.0065918514 -0.008759594 0.023917966 -0.0036102901 0.0096086245
-0.012069933 -0.01889795 -0.002079695 -0.004721845 -0.0015950381 -0.0066067595 -0.0008100923 -0.0031652933
-0.0013873662 -0.003587525 -0.006394552 0.01709532 0.00015751424 -0.0022829426 0.008831294 0.00094046164
0.0022733086 -0.0027886843 -0.0003298211 -0.0027877276 -0.0050404663 0.00089284685 -0.0008706889 0.026387746
-0.0003391151 0.0017709224 0.0010881041 0.0008000723 -0.0058273366 0.0028808771 -0.0020147813 -0.010284644
-0.0055137887 0.0006402464 -0.0004780053 -0.00443651 -0.0064423988 -0.0013278265 0.00053099135 -0.010781208
-0.005118395 -0.007527133 -0.001786059 0.000163599 -0.00035687105 -0.003201303 -0.015485205 0.0004751526
0.012001809 -0.0010421434 -0.0024832077 -0.0036356754 -0.0005211373 0.01609475 -0.009219757 0.0017033083
