saved_trials/a2c-MiniWorld-Maze-v0-lr=0.00005-num_steps=160/MiniWorld-Maze-v0.pt (torch_old, 812358 bytes, 23 tensors)

weight f4 [32, 12, 5, 5]
000000 40 32 e6 3b 50 a7 0e bd 99 32 a9 3c 4c 50 02 be
       0.0070250332 -0.03482753 0.02065401 -0.12725943
000010 14 07 85 bb b0 0f 89 3d e6 a1 a1 bd 74 06 20 3d
       -0.0040596817 0.06692445 -0.07892208 0.039068654
000020 d7 fb 93 3d a4 57 39 be 46 d5 32 3d e1 73 c4 3c
       0.07225769 -0.18099838 0.043660425 0.023981037
000030 f2 70 92 bd d8 55 59 bd 7b 3d 9d bc 2e 30 ce ba
       -0.07150449 -0.053060383 -0.019194355 -0.0015730911
000040 ee b6 2e be 93 56 3a be 5e 3d 1a be 4d 8f 97 bd
       -0.1706197 -0.18197088 -0.15062472 -0.07400379
000050 66 fc 43 3d d3 32 f1 3d f6 93 7c bc 0e dc 65 3a
       0.047848128 0.11777272 -0.015416136 0.00087684474
000060 76 ab 13 bc 05 2a b0 3c 1e f0 8f bc 19 3b 03 bc
       -0.009013047 0.021504411 -0.017570551 -0.008009695
000070 8e 75 c0 bb 1e 27 1b bb d1 81 8e 3d 98 71 6f 3c
       -0.0058733886 -0.0023674439 0.06958354 0.014614485
000080 7d 32 8f bd 21 79 a1 3c aa 64 67 bc fd 1d 1f bd
       -0.06992052 0.01971108 -0.014123121 -0.03884696
000090 54 f1 70 bb 18 00 70 bd ef 82 8c bc b1 43 28 be
       -0.0036764937 -0.05859384 -0.017152278 -0.16432072
0000a0 b8 e9 df bc 2e d6 4d bc fa 05 c4 3d b3 8e 60 bd
       -0.027333125 -0.012563271 0.095714524 -0.05482359
0000b0 03 0f 67 bd ed 10 6a bd a7 1a 10 be fd 37 db 3b
       -0.0564108 -0.057145048 -0.14072667 0.006690024
0000c0 92 5b 97 3d 37 9b af bd c2 d0 22 bc 2e db bf 3d
       0.073905125 -0.08574527 -0.009937467 0.09367977
0000d0 c1 68 b6 bd 41 44 ab bd f0 5d 55 bd 17 b0 62 3d
       -0.08906699 -0.08362628 -0.05209154 0.055343714
0000e0 62 9a 39 3a 13 5c a8 3d 18 ba 4e be 32 66 06 bd
       0.0007080195 0.08220687 -0.20188177 -0.032812305
0000f0 68 90 be bc d5 41 57 bd 56 28 b2 3a 68 70 9d 3c
       -0.023262218 -0.052553017 0.0013592343 0.019218639
000100 5c 62 19 3e eb af 78 3d 6e dd 0d 3d be 29 78 3d
       0.14978927 0.060714643 0.034635 0.060586683
000110 dc e9 8e bd 6d de 86 3d 02 29 a3 3d 5e 2b d4 bd
       -0.06978199 0.06585393 0.07966806 -0.10359834
000120 d6 bc a3 bd 0a ce 5c 3d ba 42 e3 3b 9d b1 0c bb
       -0.07995002 0.05390743 0.0069354447 -0.002146817
000130 c9 b0 75 bd 1a f2 8b bd 94 c7 77 bd a6 2e e8 bc
       -0.05998305 -0.068332866 -0.060493067 -0.028342556
000140 45 b6 72 bd b1 e4 07 be 4f 0f 11 be c5 5f b9 3c
       -0.059255857 -0.13270833 -0.14165996 0.022628674
000150 62 21 ce 3b 32 77 64 3b 38 55 39 be 71 9e b8 bd
       0.0062906006 0.0034861085 -0.18098915 -0.09014595
000160 d5 fa 8e 3d df 7e 6b 3d 82 0c d4 bc 3c 3d 12 bd
       0.06981436 0.05749404 -0.02588487 -0.03570293
000170 38 31 a8 bd 47 b6 97 b9 ef a6 ee 3d 33 63 10 be
       -0.08212513 -0.00028936772 0.11652934 -0.14100341
000180 14 80 43 be 52 08 a8 bd a8 a6 07 be 52 4a b4 bd
       -0.19091827 -0.08204712 -0.13247168 -0.08803238
000190 d9 ba 96 bc 3d 13 13 bd 24 cc a0 bd 2d 11 25 bd
       -0.018399643 -0.03590702 -0.07851437 -0.040299583
0001a0 32 66 71 bd 61 00 bf bc 1a b4 4c 3d 26 00 a0 bd
       -0.05893535 -0.02331561 0.049976446 -0.07812528
0001b0 17 25 5a 3d 3a 99 cb 3d 6f 7e 88 3d 27 98 7a bd
       0.053258028 0.09941335 0.0666474 -0.06118026
0001c0 5e 8f 0d 3c ad 70 90 bc 59 e7 01 3d 79 59 bd bc
       0.008640138 -0.017631853 0.03171477 -0.023113953
0001d0 43 32 84 bd 74 bd 87 bc d6 95 be bc 85 98 0e 3e
       -0.06454899 -0.01656983 -0.023264807 0.13925369
0001e0 32 aa c7 bd 67 5f d3 3b 43 fe 51 3d ae 1b df bd
       -0.09749259 0.006450582 0.051267873 -0.10893951
0001f0 15 d1 fc bc b3 c3 85 3d 19 43 f8 bd 9d ba 52 3d
       -0.030861417 0.06531467 -0.12122173 0.0514475
000200 2a 9a 81 bd fe 75 9c 3d 13 7f ac 3d fd f4 90 bd
       -0.063282326 0.07639693 0.08422675 -0.07077978
000210 00 db 23 3d 4c d1 29 be f2 45 32 bd 0d 1c 8c bc
       0.040003777 -0.16583747 -0.043523736 -0.01710322
000220 19 a4 d3 3d 27 b6 9d bd f0 dc 19 3e d5 ab 88 bd
       0.103340335 -0.077007584 0.15025687 -0.06673399
000230 0b 5e 07 bc 78 ae 4c 3e 99 87 80 3d 0d bb b8 bb
       -0.008262168 0.1998843 0.06275863 -0.0056375326
000240 c0 f0 65 bd 22 54 b6 3c a8 c0 18 bc 7d b7 ed 3d
       -0.0561378 0.022256915 -0.009323277 0.11607263
000250 f4 45 fc bc 3d 8b b4 3d 71 17 ac bb 76 9f 05 be
       -0.030795075 0.0881562 -0.005251818 -0.13049111
000260 bf 20 77 bd a0 8e 3b bd 04 de 06 be c7 0b 9c bc
       -0.060333963 -0.045790315 -0.1317063 -0.019048585
000270 52 8d f8 bd 7e ad 03 3d da 4b 85 bd 6d 6b 22 3d
       -0.1213633 0.032147877 -0.06508608 0.03965323
000280 73 d7 d8 3c 6f 85 bd 3d 63 eb 7d 3d 69 b7 80 bd
       0.026469922 0.09253966 0.06199206 -0.06284983
000290 52 53 34 bc 79 79 a2 3d 8b 8b 5c bd 0c 3f f3 bc
       -0.011006193 0.07933325 -0.053844016 -0.029693149
0002a0 a5 99 91 3d 6c 57 49 3d 3a 1a 25 3d 42 fe 11 3d
       0.071093835 0.049155638 0.040308215 0.03564287
0002b0 80 91 c7 3d 90 fc bc bd 05 b9 cf 3d 49 c6 4c 3d
       0.09744549 -0.0922786 0.101427115 0.049993787
0002c0 ad 90 4a bc da 06 23 3d d3 ae dc 3d 07 f7 dd 3d
       -0.012363595 0.039801456 0.107755326 0.10838132
0002d0 b7 e0 8c bc 76 8f 0a 3d f6 2e 42 bd c3 14 94 3c
       -0.017196996 0.03382822 -0.047408067 0.018076306
0002e0 f3 3c 66 bd f3 a2 f7 bc 09 f2 79 3d 18 7a 10 be
       -0.05621047 -0.030229067 0.06102184 -0.14109075
0002f0 c0 0a 20 3e 26 85 25 bb 1e 92 88 bd 3e 9a 65 ba
       0.15629101 -0.0025256365 -0.06668495 -0.00087586406
000300 fb ef 88 bb 3a 50 e3 bb 66 ad 9e 3a e7 81 1c 3d
       -0.0041789985 -0.006937054 0.001210612 0.038209822
000310 83 27 21 3d 09 61 91 bd ee 2a dd bd 08 b6 01 be
       0.039344322 -0.07098586 -0.10799204 -0.12667096
000320 20 dd 33 3d 9b d7 61 3e 2d 0c 26 bd 1d 4c f1 bc
       0.043912053 0.22054903 -0.040538955 -0.029455239
000330 9b fb 83 bd 6d 0e 2a be 7d 1e d2 3d 8d 14 d4 bd
       -0.06444474 -0.16607065 0.102597214 -0.10355482
000340 3c 69 ec 3c 01 02 c5 bc d7 3d 8e be d4 7a aa 3d
       0.028858773 -0.024048807 -0.27781555 0.08324209
000350 3f 12 1e be 0d f6 e5 bd c9 de 81 be e3 36 00 bc
       -0.15436648 -0.11228571 -0.25365284 -0.007825586
000360 9b 83 99 3a 44 4c a0 3d e1 68 73 ba c2 09 33 bd
       0.0011712195 0.078270465 -0.00092853425 -0.043710478
000370 16 67 a2 bd b0 77 ef bd a0 59 db bd 7e cf 04 3e
       -0.07929818 -0.116927505 -0.10710454 0.12969777
000380 2f b6 11 bc 38 0e 07 3b 8c bd 90 3b 26 97 02 bd
       -0.008893534 0.002060784 0.004417127 -0.031882428
000390 0e 3e b0 3c e8 1c c6 3c e0 26 d1 bc 0a 09 07 be
       0.021513965 0.024183705 -0.025531232 -0.13187042
0003a0 b4 78 80 bc b1 f9 df bd 8f fc 7a 3d 1b 24 d7 3d
       -0.015682556 -0.10936297 0.061276015 0.105049334
0003b0 19 11 fa 3d c2 99 a9 bc 52 7a 06 be 3e 96 0c bd
       0.12210292 -0.0207032 -0.13132599 -0.03432297
0003c0 80 30 fe bc 8b d1 1e bd 8d ab e0 3d 5e a0 c4 3c
       -0.031028986 -0.038774054 0.10970221 0.02400225
0003d0 36 0d cd bc b2 d8 b7 bc 8f a9 33 3d 7d 46 12 3d
       -0.025030714 -0.022442196 0.043862876 0.035711754
0003e0 11 52 d9 3d 25 56 23 bb 26 60 1c be 9a 3e d6 bc
       0.10611356 -0.0024923172 -0.15271053 -0.026152898
0003f0 97 12 8d 3d 0e c5 79 bd 58 65 96 bd a4 df 8a bc
       0.06888311 -0.06097894 -0.073435485 -0.016952343

bias f4 [32]
000000 22 6c 03 36 b2 26 01 b6 f0 ab 78 35 ec 02 9d 34
       1.9583463e-06 -1.9245022e-06 9.26374e-07 2.9245655e-07
000010 05 18 ec 35 18 19 1e b5 a8 1b 27 b4 43 ab 10 b6
       1.7590361e-06 -5.8896103e-07 -1.5563148e-07 -2.155736e-06
000020 b1 0e 04 35 2b ef a4 b5 fa 3f 97 34 1f c8 9b b5
       4.919521e-07 -1.2288559e-06 2.817249e-07 -1.1606643e-06
000030 55 24 aa 35 2f 22 db b3 5c 15 e0 b5 2d d7 ad 36
       1.2676561e-06 -1.02042e-07 -1.6695517e-06 5.1808515e-06
000040 1e f0 a6 b5 69 ee 6e 35 e0 ab ff b2 82 9a 33 b6
       -1.2437847e-06 8.900884e-07 -2.9764067e-08 -2.6763014e-06
000050 93 0a 11 b6 8c 47 42 35 1d 08 7a 34 de 89 25 b5
       -2.1612839e-06 7.2374746e-07 2.3286016e-07 -6.1667913e-07
000060 d2 93 25 36 e6 71 ee 35 29 dd 89 35 18 a6 e6 35
       2.4672959e-06 1.7765531e-06 1.0271661e-06 1.7184675e-06
000070 07 88 49 b5 21 20 85 33 42 e1 1a 36 30 99 5d b6
       -7.507628e-07 6.199139e-08 2.3078906e-06 -3.3020733e-06

weight f4 [32]
000000 fa 1d 80 3f 46 57 80 3f 25 72 80 3f 59 dd 7e 3f
       1.0009148 1.0026634 1.0034834 0.995565
000010 15 04 7f 3f 95 b8 7f 3f 72 c3 7a 3f eb 0d 7e 3f
       0.99615604 0.99891025 0.97954476 0.9923999
000020 98 92 80 3f dd b2 82 3f 8d f7 80 3f 30 b4 7d 3f
       1.0044737 1.0210835 1.0075547 0.9910307
000030 bc b6 82 3f 14 ba 82 3f 31 12 82 3f 04 20 7a 3f
       1.0212016 1.0213037 1.0161802 0.977051
000040 b3 32 81 3f 91 f0 7c 3f 13 9f 7f 3f 8d a5 7e 3f
       1.0093597 0.98804575 0.99852103 0.9947136
000050 c0 ee 82 3f b4 99 79 3f bb 9a 7c 3f 34 42 81 3f
       1.0229111 0.9750016 0.986736 1.0098329
000060 3e 2b 76 3f 68 7e 7d 3f a5 03 7c 3f 0a f0 7e 3f
       0.9615973 0.99021006 0.9844306 0.9958502
000070 67 8a 7f 3f fc e3 80 3f 37 69 7d 3f 23 4b 80 3f
       0.9982056 1.0069575 0.9898867 1.002293

bias f4 [32]
000000 2b e1 df 3a da b6 1e 39 f6 5d b5 3b cd 8e 24 bc
       0.0017080655 0.00015136172 0.0055348827 -0.010043812
000010 04 3c 80 3b 01 8a 13 bc da 36 90 bc 83 d3 aa ba
       0.0039134044 -0.009005071 -0.01760428 -0.0013033006
000020 07 9d 81 bc fb 85 f0 3b 1c 88 28 3c a2 d6 0b bc
       -0.015821947 0.0073401905 0.010286357 -0.008535059
000030 35 4b 2e ba e1 cf 0f 3c d5 c6 83 3c 7f c9 94 bc
       -0.000664878 0.00877759 0.016086021 -0.018162487
000040 56 8c f3 3a 31 4f e2 3b bd 0d 1b bc 20 89 1b bb
       0.0018581252 0.006906413 -0.009463725 -0.0023732856
000050 38 be c7 3c 32 0c 6d bc 5d 79 10 bc ba 9c 9e 3b
       0.024382696 -0.01446824 -0.008817998 0.0048404606
000060 f1 69 f1 bc d0 60 8a bc cc 6d ee bb 46 65 97 3b
       -0.029469462 -0.016891867 -0.0072762724 0.004620227
000070 58 21 77 3a 87 09 ea 39 52 b1 c0 bb 98 29 e2 3b
       0.0009427271 0.00044639056 -0.005880513 0.006901931

running_mean f4 [32]
000000 f1 cc 9d bf 96 02 9f bf 6a 2d 9f bf f1 38 2a 3f
       -1.2328168 -1.2422664 -1.2435734 0.66493136
000010 9a 73 88 bf 1c cc a9 3f dc 59 36 3f 09 bd 84 bf
       -1.0660279 1.3265414 0.71230865 -1.0370189
000020 f3 ba 98 3e 95 47 bc bf d9 75 ab bf 63 15 94 3f
       0.2983013 -1.4709345 -1.3395339 1.1569027
000030 fd 7e 9c 3e 99 19 95 bf 70 da 84 bf 97 a8 79 3f
       0.30565634 -1.1648437 -1.0379162 0.9752287
000040 21 b2 4f 3f a8 f4 8a 3f a6 83 94 3e c5 b8 85 bf
       0.8113118 1.0855913 0.2900669 -1.0447012
000050 4e 9c a2 bf 9d cc 4f 3f a3 4a 93 bf b2 a4 89 3f
       -1.270395 0.8117159 -1.1507152 1.0753386
000060 7f 8c f3 be f7 6e 44 3f 01 5a 92 bf 4a 55 8f bf
       -0.47568128 0.7673182 -1.1433717 -1.1197903
000070 d0 dd 82 3f e3 35 eb 3e ee e1 a3 3f bb 5c 2f 3e
       1.0223942 0.4593955 1.2803323 0.17125218

running_var f4 [32]
000000 75 38 17 3d e2 47 24 3d 0f b4 6b 3d 88 ec 11 3d
       0.036919076 0.040107615 0.057544764 0.035625964
000010 ae 0f db 3c 41 79 66 3d a0 45 bf 3c cf 44 fd 3c
       0.026740875 0.05626798 0.02334863 0.0309166
000020 34 92 a4 3c 81 a3 63 3d fc 2a 35 3d da c9 3f 3d
       0.020089246 0.05557585 0.044230446 0.04682336
000030 c2 e3 8f 3c 18 fd f8 3c 49 f3 3f 3d 3c df 03 3d
       0.017564658 0.030394122 0.046862874 0.032195315
000040 a9 40 fe 3c 62 39 d6 3c 66 03 9c 3c 95 ec 3c 3d
       0.031036692 0.02615041 0.01904459 0.04612406
000050 62 91 6b 3d 6b 24 47 3c 23 af 31 3d 15 ae 46 3d
       0.057511695 0.012154679 0.043379914 0.04850586
000060 7b 5c 9b 3c 25 6f dc 3c 55 cc 31 3d 74 e9 23 3d
       0.018964997 0.026908467 0.043407757 0.04001756
000070 bf 31 a5 3c ae 15 b4 3c 20 96 2a 3d 4c 71 12 3c
       0.020165322 0.021982994 0.041647077 0.008938145

weight f4 [32, 32, 5, 5]
000000 4a bd af 3c ff 30 a1 3d d6 58 f5 bc 91 c0 00 be
       0.021452565 0.078706734 -0.029949587 -0.12573458
000010 1e 09 b3 bc 7f 8a 2d bb aa 17 e9 3c 66 fe 17 bc
       -0.021854933 -0.0026480255 0.028453667 -0.009276962
000020 16 ad 02 bd 77 b8 81 3d 57 ed 1d bc 3e b8 4b 3d
       -0.03190335 0.06334012 -0.009639106 0.049736254
000030 e9 9f aa ba c9 22 48 3d c0 34 f3 bb c4 29 b7 3c
       -0.0013017628 0.0488613 -0.00742206 0.022358783
000040 f8 81 5e 3c bd 63 8d 3d 9e 6a 67 3b 7e 31 6a bd
       0.013580792 0.06903789 0.0035311352 -0.057176106
000050 1c 20 48 3b 45 6c 53 3d 10 17 b2 bc 28 25 16 3d
       0.0030536717 0.051616926 -0.021739513 0.03665653
000060 fd b3 e2 bc 30 2e 54 bd 6b 99 a6 3c dd 04 11 bd
       -0.027673716 -0.05180186 0.020336827 -0.03540503
000070 10 49 0e 3c 2f 7a 81 3b 23 d8 57 bc df f3 6d 3c
       0.008684412 0.003951333 -0.01317409 0.014523475
000080 4b ec 93 bc 16 24 3f 3d 00 9b a2 bc 67 c2 a0 bd
       -0.01805701 0.046665274 -0.0198493 -0.07849579
000090 49 4f b4 bd 4f ef 87 ba eb 23 9a 3c d4 20 e6 bd
       -0.08804185 -0.0010371002 0.018815955 -0.1123673
0000a0 3d 75 35 bc 5a 1b c9 3c ac ef b9 3c 82 9f c1 3c
       -0.011075315 0.024549175 0.022697292 0.02363563
0000b0 95 b1 16 bd 7d 80 14 bc e2 d9 9b 3b f5 fa 44 bd
       -0.03679045 -0.009063837 0.0047561983 -0.048090894
0000c0 b2 10 5d 3b fd 6d ba 3c b7 f8 3f bd ee 79 b2 bc
       0.0033731875 0.022757525 -0.046868052 -0.021786656
0000d0 c4 5c b1 3b 46 67 6e 3d 04 ab 78 bd 37 03 8f bd
       0.00541267 0.058203958 -0.06070997 -0.06983035
0000e0 e1 15 64 3d 76 07 c8 3d ca 55 ee 3c 87 ea d6 bb
       0.055684928 0.09767048 0.029093642 -0.0065587196
0000f0 70 52 90 bd 81 ad ae bc ee 91 21 bd 15 3c ba 3d
       -0.07046974 -0.021322967 -0.03944581 0.09093491
000100 ef e4 b2 bd cc 70 4d 3c 3a b5 0f bd fc 07 4f bd
       -0.08735072 0.0125391 -0.03508494 -0.050544724
000110 65 19 b3 bc 24 d4 25 3d c1 57 02 bd b2 bc ac 3d
       -0.021862695 0.040485516 -0.03182197 0.08434428
000120 d7 91 45 bd 04 fe 1b bd b9 9c ad bc f7 07 a9 bd
       -0.048234787 -0.038084045 -0.021192895 -0.08253472
000130 84 c4 5e 3b 05 8c d7 3d cf 52 9d 3d 0a cd 02 bc
       0.0033991644 0.105247535 0.0768181 -0.007983455
000140 51 f3 5d 3d cd f5 5f bd 85 20 d0 bc 2d a6 49 3c
       0.054187123 -0.054677773 -0.025406132 0.012307686
000150 cc e7 88 bd 7a b0 14 bd c4 07 59 bb 39 78 ea bc
       -0.06684837 -0.036301114 -0.00331162 -0.02862178
000160 16 be da bc b7 80 28 bd 97 e7 85 bc 65 94 de 3d
       -0.026701968 -0.041138377 -0.016345782 0.10868148
000170 4f 75 b2 3d 77 89 8c 3c 29 db f2 bc 8d 1e 12 3c
       0.08713781 0.017155392 -0.02964552 0.008918417
000180 96 8a d8 3d 31 e0 99 bc 84 1c 2b bb 9c 2b 08 3e
       0.10573308 -0.01878366 -0.0026109526 0.13297886
000190 52 bd 92 ba f8 c3 b5 3c 11 66 7b 3c de a4 0c 3d
       -0.0011195338 0.022188172 0.015344159 0.034336917
0001a0 d2 92 83 3d 49 79 29 3d 1b d1 7f 3b 5b b8 34 3c
       0.06424488 0.041375432 0.0039034549 0.011030282
0001b0 f0 5f cc 3c 32 57 c0 bc 36 b5 98 bd 7b 37 95 bc
       0.02494809 -0.023479078 -0.07456438 -0.018214932
0001c0 10 2e 9a 3d 34 04 9b bd 59 14 6f 3a b9 92 cb bc
       0.07528317 -0.07569161 0.00091201585 -0.024850236
0001d0 7a ae 73 38 31 b9 30 3d e0 d7 3f bd aa 11 7e 3d
       5.809821e-05 0.043145362 -0.046836734 0.062028565
0001e0 99 d3 27 3d 6e f6 eb bc ff 90 8f bd 9d 3f 45 bd
       0.04097328 -0.02880403 -0.07010078 -0.04815637
0001f0 90 28 2a bd 9f 56 a9 3c 4e 46 04 3d 44 cd f2 3c
       -0.04154259 0.020671187 0.03229361 0.029638894
000200 40 4d 91 bc 0e 16 00 3c 81 f0 40 bc de bc a9 ba
       -0.017737031 0.007817758 -0.011776091 -0.0012949964
000210 67 a0 06 bd 9a cc 98 3d 98 d3 dd bc 4b 61 06 3d
       -0.032867815 0.074609 -0.027078435 0.03280763
000220 49 73 88 3c 77 cb da bc fc b2 fd 3d 83 59 9d bc
       0.016656535 -0.026708348 0.12387654 -0.019207722
000230 f9 36 80 bd 4b 37 83 bd 70 37 ca bb 91 09 89 3d
       -0.06260485 -0.06407031 -0.0061711594 0.06691278
000240 a7 78 bc bc b9 d7 da 3c 06 03 61 3b 5b b9 0f bd
       -0.02300675 0.026714193 0.0034334077 -0.035088878
000250 b1 e9 f1 3c bc 39 8a bd 6d 46 bd 3c 58 f1 e9 bc
       0.029530378 -0.06749293 0.02310487 -0.028557464
000260 21 03 2f 3d d7 4a 5d 3d ee d7 28 bd 0f 43 5f bd
       0.042727593 0.05402645 -0.04122155 -0.05450731
000270 91 6e 0a 3c 1c 4a e1 3c 0d 31 b1 3b 43 f8 59 bd
       0.008449213 0.027501158 0.0054074586 -0.053215276
000280 1d be f2 bc f6 ee 02 bd 33 82 77 bc fd cd 71 bd
       -0.029631669 -0.031966172 -0.0151067255 -0.059034336
000290 f9 9b d9 3c cd 3d 89 3d 97 58 36 bd e0 e2 98 3d
       0.026563631 0.06701241 -0.04451808 0.07465148
0002a0 f7 37 86 bd e4 0d c0 3c 50 c7 8a 3d a3 38 86 3c
       -0.06553643 0.023444124 0.06776297 0.016384428
0002b0 9b 2b 04 3c 93 b8 66 bc 43 ea 70 bd f7 ee ab bc
       0.008067037 -0.014082092 -0.05881716 -0.02098797
0002c0 ff f1 5b bc 9d 90 bd 3b b2 7f 25 bc bd 27 80 3d
       -0.013424396 0.0057850615 -0.010101246 0.062575795
0002d0 ce 0f 12 3d b9 67 a4 3d 86 7b 15 bd 74 a8 8f bd
       0.035659604 0.08027596 -0.036494754 -0.07014552
0002e0 77 06 85 3c 0c ee af 3b 56 59 dc 3c c7 71 18 3d
       0.016238434 0.0053689536 0.026898067 0.03721788
0002f0 e1 5a 52 3d bf 71 24 3d af 1e 8e bd 27 58 4b bc
       0.0513562 0.04014754 -0.06939446 -0.012411154
000300 e1 a4 c9 ba 12 17 74 3c ea c2 bc 3d bf d6 8d bc
       -0.0015384221 0.0148980785 0.092168644 -0.017314313
000310 5e c4 e9 3c 03 33 8d bc bc 09 1a bd de 9c 50 bc
       0.028536018 -0.017236238 -0.03760694 -0.012732713
000320 18 3e 67 3c 19 3c 48 bc 5c 10 a1 3c 6e c4 de 3d
       0.014113925 -0.01222136 0.019661121 0.1087731
000330 1b 9b 2d bc 7b 17 a5 3d f1 73 2c 3c 90 a3 19 bd
       -0.010596062 0.08061119 0.010525689 -0.0375095
000340 94 1f 09 bb 73 28 12 3e df 53 32 3c 16 2b e8 3c
       -0.0020923363 0.14273243 0.010884254 0.028340857
000350 31 27 9a 3d d5 6b 9a 3d 89 20 0a bd d3 8e be 3c
       0.075270064 0.075400986 -0.033722434 0.023261463
000360 df fa 16 3d f6 ad ff bb a8 6a 08 bc 6c 06 b5 bb
       0.036860343 -0.00780272 -0.00832621 -0.005524447
000370 ec dd f4 bb bf 9d 00 3d 3b 5c 1e 3e ff 4b 10 3b
       -0.007472744 0.03140044 0.1546487 0.0022017953
000380 db a3 21 bd 0e a6 83 3d 88 b2 db bc f1 0a db bd
       -0.039462905 0.06428157 -0.026818529 -0.10695446
000390 eb d2 cc 3d 92 9e d3 3c 29 ef d8 bc 9a 11 1b bd
       0.10001167 0.025832448 -0.026481228 -0.037858583
0003a0 d5 0a bf 3d ce 65 9f 3d f5 da c7 3b b7 0b be bd
       0.09328238 0.077830896 0.0060990998 -0.09279578
0003b0 19 b9 d3 bc cf 33 7d 3d 16 17 8a bd f5 de 0a be
       -0.025845097 0.061816987 -0.067426845 -0.13561614
0003c0 3c a2 11 bd a4 14 54 3d 62 3c 09 bd 2b e7 bd 3b
       -0.03555511 0.051777497 -0.03350485 0.0057953796
0003d0 42 35 d9 bd 44 73 2d 3e b8 0d 9b bc 9d ba da ba
       -0.10605861 0.16938502 -0.01892744 -0.0016687695
0003e0 e3 8d 57 bd 11 99 5f 3d f9 95 8e bc 7a ce e0 3c
       -0.052625548 0.054589335 -0.017405497 0.027442206
0003f0 88 7c f9 3c b7 ac f8 3b a6 64 0e 3d 35 97 8d 3d
       0.030454889 0.0075889486 0.034763955 0.06913606

bias f4 [32]
000000 d4 fb 98 b3 64 9b 0e 34 50 58 ef b2 4b 92 bf b2
       -7.123859e-08 1.3281311e-07 -2.7863422e-08 -2.2301853e-08
000010 9b 8c 95 33 45 88 ba b3 e0 10 3d b3 1e 30 4c 32
       6.963929e-08 -8.686087e-08 -4.402034e-08 1.1885303e-08
000020 6f e4 53 32 73 a8 4f b3 9d 0d c5 33 01 c4 51 b4
       1.2333756e-08 -4.8349147e-08 9.1760036e-08 -1.9535948e-07
000030 f0 55 9c 32 68 8e 2a b3 ad c8 cb 31 f5 c3 90 33
       1.819987e-08 -3.9710727e-08 5.9308918e-09 6.741167e-08
000040 45 d4 cb b3 4c 4e 45 32 85 ae 19 33 ad 7c c7 33
       -9.491536e-08 1.1484712e-08 3.5781813e-08 9.289338e-08
000050 c7 79 5b b3 a0 7d 96 b3 7a 63 0a b3 ce 74 6e b3
       -5.1100667e-08 -7.0077704e-08 -3.2221102e-08 -5.5519926e-08
000060 6c 93 3f 34 ca be 8b 33 64 6c a0 31 a0 62 f9 b3
       1.7841893e-07 6.507396e-08 4.6689355e-09 -1.1612906e-07
000070 04 62 fd 32 1e 29 00 34 08 04 08 34 81 9e 99 b3
       2.9497649e-08 1.1935887e-07 1.2667454e-07 -7.1534494e-08

weight f4 [32]
000000 26 92 80 3f 94 6a 71 3f 3d c8 7e 3f 88 87 84 3f
       1.0044601 0.9430325 0.9952429 1.0353861
000010 b2 54 7e 3f 01 93 80 3f 75 65 82 3f ce c6 7f 3f
       0.99347985 1.0044862 1.0187212 0.99912727
000020 cd b8 7e 3f 29 bc 81 3f 8c 56 7e 3f f8 ff 77 3f
       0.99500734 1.0135547 0.9935081 0.9687495
000030 4f a1 76 3f f0 8c 84 3f 39 75 7f 3f 19 35 82 3f
       0.9633989 1.0355511 0.9978824 1.0172454
000040 40 31 83 3f 44 68 81 3f ac 98 82 3f 8b 62 7b 3f
       1.0249405 1.0109944 1.0202842 0.9819724
000050 6a 3e 7e 3f 4d 65 81 3f 29 43 80 3f f0 e7 7d 3f
       0.99313986 1.010904 1.0020496 0.99182034
000060 19 4f 7e 3f 07 47 7e 3f 33 63 7e 3f c8 95 81 3f
       0.99339443 0.9932713 0.99370116 1.0123835
000070 dc 9f 7f 3f e6 21 80 3f a1 1e 7c 3f 02 9d 7d 3f
       0.998533 1.0010345 0.98484236 0.990677

bias f4 [32]
000000 f7 76 3f bb 1a 02 33 bd ea ce f4 39 8c 21 15 3d
       -0.0029215196 -0.043703176 0.0004669347 0.036408946
000010 c2 91 34 3b 94 1e 5d bc dc 94 87 3c f1 08 dc 3b
       0.0027552699 -0.01349606 0.016550474 0.006714933
000020 74 ae 7c bb f5 b3 68 3c 10 82 e1 3b dc 06 e1 bc
       -0.003855613 0.014203061 0.0068819597 -0.027469091
000030 f9 fd 75 bc 9e 2a 0b 3d 66 81 d3 39 16 18 bd 3c
       -0.015014165 0.03397619 0.00040341466 0.023082774
000040 da a3 b5 3c d1 d0 a4 bb 78 cd 9d 3c 0f 31 c5 3b
       0.022172857 -0.0050297757 0.019263014 0.006017811
000050 c0 12 ff 3a 46 f0 4c 3c 2e 82 0e 3c 54 55 6d 3b
       0.0019460544 0.0125084575 0.008698029 0.003621419
000060 ff 1b a4 3b 0e 6a e3 bb 64 da 56 ba 1a 35 06 3c
       0.00500822 -0.006940133 -0.0008195995 0.008191371
000070 01 d1 ff 3b 22 58 54 3b d0 4d a2 bb 95 e4 e9 3b
       0.0078068976 0.0032401164 -0.0049531236 0.007137845

running_mean f4 [32]
000000 99 8d 32 3f f9 35 d1 bf 2f b0 d1 3f 95 fe b6 3f
       0.6974731 -1.6344596 1.6381892 1.4296442
000010 ef 62 c1 bd 3b ed d8 3f 07 31 10 3f e9 d2 05 3f
       -0.09442698 1.6947397 0.5632481 0.5227495
000020 6e cb 96 be 22 8c 27 3f a5 7c cc 3e 85 19 a0 3f
       -0.2945208 0.654482 0.39938846 1.2507788
000030 ce 6f cf bf a2 c5 03 40 ba 4d a3 3e 75 fe 5b 3f
       -1.6205995 2.0589375 0.31895238 0.85935146
000040 3e 4d c4 3f 1e 23 d5 3f b0 f4 99 3f 34 fb ff bf
       1.5336072 1.6651342 1.2027798 -1.9998536
000050 02 18 f3 bf 44 8d c6 3e 8a 2a 06 3f 74 87 0c 40
       -1.8991702 0.38779652 0.5240866 2.1957674
000060 64 f5 c1 bd af a3 ee 3e 71 39 c0 3d e6 31 e0 3f
       -0.09470633 0.46609256 0.09385956 1.7515228
000070 a3 91 5d 3f f3 d1 7f 3f 5e 43 39 be 85 c7 f7 3f
       0.8655035 0.9992973 -0.18092105 1.9357764

running_var f4 [32]
000000 b4 1b 77 40 5f 17 a1 40 13 52 83 40 9c 08 2b 40
       3.8610659 5.034103 4.103769 2.6724005
000010 9d 8d 12 40 c8 1a f7 3f 03 67 6f 40 2e cd 91 40
       2.2898934 1.9305048 3.7406623 4.5562963
000020 8a 56 6d 3f 4f d5 6c 40 5d 15 93 40 61 2a 26 40
       0.92710173 3.7005193 4.596358 2.5963366
000030 f1 ed a8 40 28 e7 08 40 a7 97 b5 40 2a 2e 79 40
       5.2790456 2.1391087 5.6747622 3.8934426
000040 f4 e6 f9 3f 77 7f 9a 40 1f da 59 40 f2 94 42 40
       1.9523606 4.8280597 3.403938 3.040341
000050 e2 6d 2b 40 de c7 9c 40 34 14 9f 40 97 74 62 40
       2.6785817 4.899398 4.971216 3.538366
000060 62 78 8e 40 b3 59 a6 40 7e bf f2 40 ce 2b 9a 40
       4.452195 5.1984496 7.5858755 4.8178473
000070 21 6c 94 40 64 c8 79 40 1e ab d1 40 17 e6 07 40
       4.6381993 3.9028559 6.5521383 2.1234186

weight f4 [32, 32, 4, 4]
000000 84 b8 ea 3d 77 de 5d bd ef a2 2f bd 9a 22 f0 3d
       0.11460975 -0.054167237 -0.042879995 0.1172535
000010 d7 4c 9c 3d ec 3b 43 3d ab 8f 9c bc 6a d9 e5 bd
       0.076318435 0.047664568 -0.019111475 -0.11223109
000020 a4 e3 c6 3b be 49 8b 3a 5d 7b 6b 3d c5 11 ac bd
       0.0060696173 0.0010626835 0.057490695 -0.08401827
000030 c3 5a 1d bb f7 3c 90 bd d0 87 b2 bc 43 d0 4d bd
       -0.0024010397 -0.07042878 -0.021793276 -0.050247442
000040 70 ab ad bd 3a fd fa bb eb db c6 3c 08 a3 6c bd
       -0.08479965 -0.0076595815 0.024274787 -0.057772666
000050 7b 45 f7 bc 68 3f 43 3d e7 ae 74 3d 2e 00 06 bd
       -0.030184498 0.04766789 0.059737112 -0.032715015
000060 41 99 d5 bc 35 0b 76 3b a3 4d 81 bd 93 fa f1 3a
       -0.026074054 0.00375433 -0.06313636 0.0018461518
000070 f4 fc 80 3c 2b 42 49 bd 05 f1 eb 3c fa 70 a5 3d
       0.015745617 -0.04913537 0.02880145 0.08078189
000080 64 12 1c bd d1 05 aa 3d 77 7d cc 3c 46 81 aa bc
       -0.038103476 0.08301891 0.02496217 -0.020813596
000090 a3 e5 d5 bd 5b f9 3d bd 44 1b 7c bd 9b 44 64 3d
       -0.1044419 -0.046380382 -0.06154944 0.05572949
0000a0 fe a4 f8 3c c1 49 98 3b 98 6a bb bd 62 c9 8f bc
       0.030352112 0.004647464 -0.091511905 -0.017552081
0000b0 ab 6c 15 be 9f 32 09 be d6 60 74 3c da 99 f0 3c
       -0.14592235 -0.13398217 0.014915666 0.029370237
0000c0 3f 72 78 3d da f0 b3 bd a2 8a 0a 3e 2f 08 b3 3d
       0.06065583 -0.08786173 0.13529447 0.08741795
0000d0 6a e5 18 bd 82 74 b5 bc 38 9f 03 3e 42 a4 95 bd
       -0.03732816 -0.022150282 0.12853706 -0.0730672
0000e0 f7 8b 07 3e ee de 16 3e 10 fc 42 bc 4e 97 d3 3d
       0.13236986 0.14733478 -0.011900917 0.103315935
0000f0 c0 c9 b4 3c 96 83 3b bd 8f a5 e9 3c f3 df 79 3d
       0.022068858 -0.045779787 0.028521327 0.06100459
000100 02 32 19 bc b5 83 c4 3c 3f b5 4c 3d 12 75 4f bd
       -0.009350302 0.023988584 0.049977537 -0.050648756
000110 1a 2e 80 3d c9 5d 7d bc b9 14 d5 3b 4d 1f c6 bb
       0.06258793 -0.015464255 0.0065027145 -0.006046212
000120 1e c6 38 3d 64 b9 b7 3d 46 85 16 bc 49 0e ee 3c
       0.045110814 0.08970907 -0.009187048 0.029059546
000130 17 f0 d9 bb bf 76 3b 3c df 91 63 3d b6 24 da bd
       -0.0066509354 0.0114418855 0.055559035 -0.10651533
000140 74 65 1f 3c 5c d0 53 3c 13 51 a2 bd 25 af 44 3d
       0.009728778 0.012928095 -0.0792562 0.048018593
000150 55 0f 23 bd 83 ff 5b bd 6a 77 32 be 36 1a e5 bc
       -0.039809544 -0.05371047 -0.17428365 -0.0279666
000160 bb 43 21 be 1f f3 41 3c 63 86 dd bd 2c 53 e0 3d
       -0.15748493 0.01183775 -0.10816648 0.10953364
000170 78 b8 a0 bc 49 9d 9b bc 35 60 e0 3c 03 ed 26 bb
       -0.019619212 -0.018995898 0.027389625 -0.002547086
000180 1a f9 ff 3c a5 73 52 3d 6c c0 14 3d 90 4f 65 3d
       0.03124671 0.05137982 0.03631632 0.05598408
000190 ce 61 f5 bb 7a 60 fe bc a7 ee 76 bd 2f 0f 20 bc
       -0.007488466 -0.031051863 -0.06028619 -0.009769245
0001a0 b5 a5 8b bd 87 78 08 3d 3e 26 82 3d f9 27 17 3e
       -0.068187155 0.03331807 0.0635495 0.14761342
0001b0 76 0a c7 3c 22 94 db 3c 70 a7 83 bd 78 d8 b8 bd
       0.02429698 0.026804034 -0.064284205 -0.09025663
0001c0 17 04 b2 3d ce a4 1e be c1 00 9e 3d 35 24 d3 3d
       0.08692186 -0.15492555 0.077149875 0.1030964
0001d0 6b c5 10 3d 2e 9e 07 3d d9 c2 8c 3c 6f 7c 43 3c
       0.035344522 0.033109836 0.017182754 0.011931523
0001e0 cb da d8 3d 0d dd 60 bd da 50 84 3d 86 9b b8 bc
       0.105886064 -0.05489831 0.06460734 -0.022535097
0001f0 d8 e1 24 3d 4f 69 03 3c b9 69 ca bd 43 de b1 bc
       0.040254444 0.008020713 -0.09883446 -0.021712428
000200 70 71 0f be d4 b8 f7 bd d7 ef a1 3d f7 a3 22 bd
       -0.14008117 -0.120958 0.07907074 -0.03970715
000210 67 27 a3 3c 1f c0 9d bd ea fa 96 3b b0 f6 ac 3c
       0.01991625 -0.0770266 0.004607548 0.021113724
000220 f1 04 a3 bc b6 40 4b bd 14 5e 5c bd 92 be 8f 3c
       -0.019899817 -0.04962226 -0.053800657 0.017546926
000230 c8 e6 03 bd f5 0d 42 bd d7 31 57 3d 98 5d c5 3d
       -0.032202512 -0.04737659 0.052537765 0.09636992
000240 ac 54 0c bd 4e 8d 93 bc 0f 8b 09 bd 64 ae 5e 3d
       -0.034260437 -0.018011715 -0.033579882 0.05436553
000250 1f e7 02 3d 0b 39 0c bc ad 73 88 3d c3 bb 03 bd
       0.031958696 -0.008558522 0.066626884 -0.032161485
000260 c1 ba 09 bd 27 15 49 bc 09 ec f1 3c 21 65 e4 3d
       -0.033625368 -0.0122731095 0.029531496 0.11152101
000270 0a 84 6d bc c2 da 4c 3b 36 42 08 3e 03 15 c4 3d
       -0.014496813 0.003125832 0.13306507 0.0957432
000280 8f 51 00 bd e3 dd ad bc fb 27 10 3d d4 b9 46 3d
       -0.03132778 -0.021223968 0.03519438 0.048517063
000290 9c f2 03 bd 23 e6 6c 3d a4 59 d2 bb 03 0a 97 bd
       -0.032213792 0.057836663 -0.0064193774 -0.073749565
0002a0 4b a1 c5 b9 d5 32 7f 3d 1c 6f 0f 3e 3e 54 80 3d
       -0.0003769494 0.062304337 0.14007229 0.06266068
0002b0 a3 e3 89 bd 38 98 be 3a 64 c7 f7 3d 25 2a bf 3d
       -0.067328714 0.0014541214 0.120985776 0.0933421
0002c0 07 5c 06 bd ab 21 c9 bd 41 ac fa bd 70 b5 91 3c
       -0.032802608 -0.09820875 -0.12239886 0.017786711
0002d0 ba 21 e1 3d 91 19 08 bd 3c 08 49 bd 14 27 ee 3c
       0.10992761 -0.033227507 -0.04908012 0.029071368
0002e0 96 57 f8 3c d2 78 34 3d ba 9d 77 bd 65 49 04 bc
       0.030315202 0.044060536 -0.060453154 -0.008074139
0002f0 93 45 81 3b 9d 03 a9 bb bb 3f 17 bd 6a 6a 3d bd
       0.0039450615 -0.0051579014 -0.036926012 -0.046244062
000300 3e b2 93 3d c3 0d 24 bd fc cb f4 bb e0 55 86 bc
       0.072117314 -0.040052187 -0.007470606 -0.01639837
000310 f9 70 18 3d 57 94 b7 3d 22 fe 3a bd a9 62 24 bd
       0.037217114 0.089638405 -0.045652516 -0.040133152
000320 1a df eb bc 43 6f 08 3e ef de fa bb a7 99 02 bd
       -0.028792907 0.13323693 -0.0076559703 -0.031884816
000330 20 fe 07 be 2f a4 a6 3c 93 32 1e bc 6a 71 e9 bc
       -0.13280535 0.02034196 -0.0096556125 -0.028496463
000340 0c 2b 01 3e 91 b4 0f 3d 56 d1 54 bd 72 5b bb bc
       0.12614077 0.03508431 -0.05195745 -0.022870753
000350 f9 c5 d1 bd a8 cf de 3b 7f 71 62 bc a5 d0 57 bd
       -0.102428384 0.006799657 -0.013821005 -0.052689213
000360 74 cb 22 bd c1 df d3 bd bc a5 6b bd 87 a7 4e bd
       -0.03974481 -0.10345412 -0.057531103 -0.050452735
000370 82 a0 8b bd b8 30 ab 3d a0 dd 87 bd 73 fc d6 bc
       -0.06817724 0.08358902 -0.066340685 -0.026243424
000380 47 d4 1a 3c c1 90 cc 3d b4 65 98 bd 3a 37 e3 3b
       0.009450025 0.09988547 -0.07441273 0.0069340738
000390 cc 08 35 3d ba 86 22 3c 88 8f 82 bd b1 9e 0b 3c
       0.044197842 0.009919817 -0.06375033 0.008521722
0003a0 0b 6f 8c bc f5 6a a2 bd 03 e8 76 bd 06 8e eb 3b
       -0.017142793 -0.07930557 -0.060279857 0.0071885614
0003b0 e5 81 0b 3c e7 ea 95 3d a5 7e 48 3d 79 25 d1 b8
       0.008514856 0.07320195 0.048948903 -9.9728764e-05
0003c0 a3 0a 95 bc a3 3d 18 bd 54 b9 5b 3d df fd 50 3d
       -0.018193549 -0.037168156 0.05364354 0.05102336
0003d0 ae 64 21 be 70 5f 92 bb d0 76 21 bd 5f 71 82 3d
       -0.15761063 -0.0044669434 -0.03941995 0.0636928
0003e0 12 e6 5c 3d 67 b0 d8 bc f4 f4 b6 3b dc 25 15 3e
       0.05393035 -0.026451303 0.0055834 0.14565223
0003f0 c6 6e 58 3d 3f 87 8c bd 81 2e e7 3c d9 b3 cf 3c
       0.052840017 -0.06861734 0.028220417 0.025354313

bias f4 [32]
000000 c2 bc 20 32 c4 89 4d 32 9e 12 89 b2 b4 62 5d b3
       9.356144e-09 1.1963895e-08 -1.5957365e-08 -5.1545342e-08
000010 6d 9d b3 b0 82 2d ff 32 f1 36 47 b3 e8 0e 8f 32
       -1.3068707e-09 2.9706602e-08 -4.6383267e-08 1.665417e-08
000020 11 48 16 b3 08 6b cf b1 1c 9d f1 32 82 64 97 b3
       -3.499014e-08 -6.036661e-09 2.8127538e-08 -7.049768e-08
000030 73 4f 51 31 d5 54 a1 b0 ec 02 dd b2 d4 95 ff 31
       3.0458664e-09 -1.1738402e-09 -2.5729115e-08 7.4385103e-09
000040 0d 3f 1c 33 ac 8b 1e 33 fc 6a 24 b1 96 43 b9 32
       3.6378925e-08 3.6914273e-08 -2.3925955e-09 2.1567569e-08
000050 3c f5 14 b3 b1 e8 2a 31 bb 79 38 b2 91 fd 4d b3
       -3.4681975e-08 2.4870526e-09 -1.0737888e-08 -4.79609e-08
000060 9b 65 cd b2 50 18 3a 33 ae 61 0b b3 c1 6f de b2
       -2.3911346e-08 4.3328612e-08 -3.24523e-08 -2.5895021e-08
000070 67 bf 5e 31 0c fd 01 32 a2 25 40 32 79 2c 53 33
       3.2414051e-09 7.5663245e-09 1.1184428e-08 4.9167713e-08

weight f4 [32]
000000 a3 d3 79 3f ae 9d 77 3f ee 42 7c 3f 67 cb 72 3f
       0.97588557 0.96724975 0.98539627 0.9484162
000010 e6 8e 7b 3f c5 bd 73 3f f0 19 7b 3f 49 87 78 3f
       0.9826492 0.9521144 0.9808645 0.9708143
000020 8c 03 78 3f ae 02 7b 3f b7 cc 78 3f bc ef 7b 3f
       0.9688041 0.98050964 0.9718737 0.9841268
000030 e6 70 79 3f 32 4a 77 3f 17 e5 73 3f d1 ac 7a 3f
       0.97437894 0.9659759 0.9527144 0.97919947
000040 1f 01 74 3f 52 97 7b 3f 84 db 7b 3f 4c cd 72 3f
       0.9531421 0.9827777 0.9838183 0.9484451
000050 42 9e 75 3f 37 9c 79 3f 22 04 75 3f 6b d5 76 3f
       0.9594461 0.9750399 0.9570943 0.964194
000060 c8 a2 79 3f da 6a 77 3f b8 76 7d 3f 21 0a 79 3f
       0.9751401 0.9664742 0.99009275 0.9728108
000070 b3 cd 72 3f 24 0d 74 3f f8 e0 79 3f a3 7a 7a 3f
       0.9484512 0.9533255 0.976089 0.9784338

bias f4 [32]
000000 9d 25 8d bc fb 83 84 bc 2b 74 ac bb 5c 2e c7 bc
       -0.01722985 -0.016176214 -0.0052628717 -0.024314098
000010 63 f2 2b bb d2 b3 b2 bc d6 7f 33 bc 5a 7e 21 bc
       -0.0026237003 -0.02181426 -0.010955771 -0.009856785
000020 e0 16 1d bc 84 81 21 bc 77 77 14 bc a7 91 20 bc
       -0.009587973 -0.009857539 -0.009061686 -0.009800351
000030 1f e5 34 bc cf 27 6d bc 81 19 0f bd 09 fa 2a bc
       -0.011040955 -0.014474823 -0.03493643 -0.01043559
000040 aa 96 7b bc 4a 5d 14 bc 17 fa cf ba 73 77 1d bc
       -0.015355745 -0.009055445 -0.0015867379 -0.009610998
000050 6e 6e 9e bc e1 63 a3 bc fa 18 af bc e0 80 b1 bc
       -0.019339766 -0.019945087 -0.021374214 -0.021667898
000060 61 5e 72 bc 1a 7d b8 bb 27 e2 86 3b de 8f dd bb
       -0.0147930095 -0.0056301476 0.004116315 -0.006761535
000070 4d 6f a7 bc f3 2e 83 bc ee 9d 1b bc fb b8 de bb
       -0.020438815 -0.016013598 -0.009498103 -0.0067969537

running_mean f4 [32]
000000 59 d0 32 3e 6d 28 24 c0 9a 40 0d c0 38 ae a5 3f
       0.17462291 -2.5649674 -2.207068 1.2943792
000010 62 e2 40 3f 0e 38 01 c0 86 32 10 c0 45 53 e5 3e
       0.7534543 -2.0190463 -2.2530837 0.44790092
000020 d0 01 10 c0 24 dc 02 c0 74 c1 25 3f 94 fa 22 c0
       -2.2501106 -2.0446863 0.6474831 -2.546544
000030 e2 46 66 bf d1 a9 c0 3e e3 22 86 bf b5 04 8d 3e
       -0.8995191 0.3762956 -1.0479397 0.27542654
000040 2b 3f c3 3f 00 f4 e3 bf 77 d0 a1 3f 39 0a e4 3e
       1.5253652 -1.7808838 1.2641743 0.4453905
000050 43 3c a2 3f e2 2d 04 c0 aa 44 a1 be 78 65 04 3e
       1.267464 -2.0653005 -0.314977 0.12929332
000060 e8 b5 73 3e 66 0f 82 3f 05 3b 3e 3f 60 d9 27 c0
       0.2379986 1.0160949 0.74308807 -2.6226425
000070 58 4f 0b c0 bf d2 df be ff c0 81 bf 12 77 16 3f
       -2.1767178 -0.43715474 -1.0137023 0.58775437

running_var f4 [32]
000000 27 cc 4e 40 86 10 e6 40 d5 b0 8f 40 70 07 47 40
       3.2312105 7.189517 4.490336 3.109829
000010 c7 65 bc 40 f2 ca 7d 40 31 aa ea 40 e4 1b 8e 40
       5.887424 3.9655118 7.3332753 4.4409046
000020 1f 22 cb 40 49 55 88 40 64 43 a5 40 ce 08 bb 40
       6.347915 4.260411 5.1644764 5.844825
000030 c6 d7 6d 40 98 64 96 40 6c 61 8c 40 1d 78 1b 3f
       3.7162948 4.6997795 4.3868923 0.60730153
000040 d5 89 00 40 18 41 a6 40 61 36 a2 40 66 a1 8c 40
       2.0084126 5.195446 5.069138 4.394702
000050 e7 5b 81 40 c5 64 79 40 3d 53 64 40 54 6f 22 40
       4.0424685 3.8967755 3.5675805 2.538045
000060 7a 37 25 40 7d f4 61 40 9d d4 7f 40 19 16 b6 40
       2.581511 3.5305474 3.997352 5.6901975
000070 a6 dd ac 40 47 8f 55 40 5f 24 a5 40 69 21 64 40
       5.4020567 3.33687 5.16069 3.5645392

weight f4 [128, 1120]
000000 ab 6b 0b bc 9c 48 d9 bc 2f f3 8c 3d 1a 76 8f 3d
       -0.008509557 -0.02652388 0.06882321 0.07004948
000010 18 f6 0a bd 60 ec ea bd 7b 43 7b 3c e8 1b 5d bd
       -0.0339261 -0.11470866 0.015335913 -0.05398169
000020 e7 b1 ee bc 81 da 7c 3c c0 78 d1 bc 13 68 1c bc
       -0.029137565 0.015432955 -0.025570273 -0.009546298
000030 3f 01 a1 bb b6 a6 19 3d 29 b6 6b bd 76 6f a1 bb
       -0.0049134786 0.037512504 -0.05754677 -0.0049266173
000040 1e 51 4a bd 67 ca 3f 3d 77 af a6 3d 70 3d a8 bc
       -0.049393766 0.046823885 0.08138936 -0.020537108
000050 e0 eb 22 bc cc ad 35 bd 90 36 42 3d 9b 88 0a bc
       -0.009943932 -0.0443552 0.047415316 -0.008455421
000060 f8 5f 6d 3d 75 62 20 bd a4 ed 46 ba 39 cc 05 3d
       0.05795285 -0.039156396 -0.0007588512 0.032665465
000070 c6 cf e4 3c a3 75 6a bc 61 0c 6e 3d 4a 5c 9b bc
       0.027931105 -0.014310273 0.058117274 -0.018964905
000080 43 1d fb bc c1 3e 30 bb 61 8e 9e bd cc 4a 4e 3c
       -0.030653602 -0.0026892873 -0.07742 0.012591075
000090 bc 7b 60 3d 24 1e 89 3c f1 98 9b bc 63 53 a2 bb
       0.054805502 0.016738005 -0.018993827 -0.004953788
0000a0 92 0d 90 3d 3c 7a 1d bc 40 cb 90 bd 4b ab 10 3c
       0.07033838 -0.0096116625 -0.07070017 0.008829902
0000b0 5f 25 a3 bc 0f a7 0a 3c fd 96 b0 bc 0f 24 51 3d
       -0.01991528 0.008462681 -0.021556372 0.05105978
0000c0 bf f0 15 bc 76 ca 2e ba 01 44 02 3d f2 56 29 bd
       -0.009151637 -0.0006667742 0.031803135 -0.041342683
0000d0 4f ba b7 bd 91 fb 87 bc e2 3d 55 3d ec 49 01 3c
       -0.089710824 -0.016599448 0.05206097 0.0078911595
0000e0 db 11 96 3c 5c 8b b2 bc 00 9a 28 3c c9 87 87 3d
       0.018319061 -0.021794967 0.010290623 0.06617696
0000f0 63 4a 15 bd 94 56 74 bc e7 00 06 bb f4 0f 73 bc
       -0.036447894 -0.01491322 -0.0020447315 -0.0148353465
000100 5f ea 67 bc a4 e9 75 bd 81 61 6a bd 32 88 68 bc
       -0.0141549995 -0.06003727 -0.057221893 -0.014192628
000110 21 23 ac 3c a8 e0 67 bc 44 40 2d bd 90 45 94 bd
       0.021012845 -0.014152683 -0.042297617 -0.072398305
000120 b4 2e 8b 3c 30 63 43 3b 7c 4e 21 3d b4 5f 6a b8
       0.016990043 0.002981376 0.03938149 -5.5879078e-05
000130 28 d5 01 bd bb 60 dd 3b 34 3b 20 3c e9 2a 6b bd
       -0.031697422 0.006755916 0.00977974 -0.05741397
000140 e6 3e 5c 3d 7d 42 5b bd b2 f2 46 bc 24 45 a3 bc
       0.053770922 -0.053530205 -0.012142824 -0.01993043
000150 88 c7 62 bd 80 fe 6c 3c ec 98 1c 3d 5b 74 17 3d
       -0.05536607 0.014464974 0.038231775 0.0369762
000160 20 dd 37 bd 27 3c ea bd d0 be 4f bd 52 63 92 3c
       -0.044888616 -0.114372544 -0.050719082 0.017869625
000170 2a 68 03 bd 9a d0 7e 3c 66 10 c7 bc 43 1a 74 bd
       -0.03208176 0.015552664 -0.024299812 -0.059595358
000180 af b9 26 bd b3 30 fd 3c ef e6 2b 3d 61 ad 31 bd
       -0.040704425 0.03090701 0.041968282 -0.043378238
000190 f9 6b 3a bd 81 61 9b bc 49 f3 8d 3c e1 1a 90 bc
       -0.045513127 -0.018967392 0.017327921 -0.017590942
0001a0 4b 4c a4 bd 89 ea 54 bd 1a c7 eb 3c cb 2e 06 3d
       -0.08022364 -0.051981483 0.028781462 0.03275947
0001b0 2a 8d fc ba 2f d7 cd 3c 66 4f ee 3c 3f 39 a7 bd
       -0.0019268144 0.025127022 0.029090595 -0.08165216
0001c0 7a 0b 76 3d 82 72 4e 3c c5 98 32 bd 81 e2 02 bd
       0.06006954 0.012600543 -0.043602724 -0.031954292
0001d0 aa 6a 95 bb 43 df a6 bc 40 58 28 3d fa 97 d4 bd
       -0.0045598345 -0.020370131 0.041099787 -0.1038055
0001e0 ff 0c b3 ba 2c eb d1 bc 63 ea d2 ba 20 0f 3d bd
       -0.0013660489 -0.025624834 -0.0016091581 -0.046157002
0001f0 ff 50 83 3c f5 9f fd 3b e8 0e 58 bd 4b 1f 86 bc
       0.016029833 0.0077400156 -0.05274859 -0.016372344
000200 69 3d 7d 3c 1f 29 49 3c 61 72 8f 3c 24 a2 81 bd
       0.015456536 0.01227787 0.017510595 -0.06329754
000210 5a 0e a2 3c ac 07 01 3c 49 61 3c 3c b2 9e 9a 3c
       0.019782234 0.007875364 0.011497804 0.0188745
000220 6e 7e 19 3c 33 12 4f 3d 10 b5 0c bb 17 c2 5a 3c
       0.009368522 0.050554466 -0.0021470226 0.013351939
000230 ff d9 7f bd 96 bd 57 3d bc f2 c0 bd 16 8d 47 bd
       -0.062463757 0.052671038 -0.09421298 -0.048718534
000240 25 3f 5a bd 6c 37 f6 bc ad 51 a8 bd 1f cf 0e 3d
       -0.053282876 -0.030055724 -0.082187034 0.034865495
000250 44 4f 7a bd ab c0 17 bc 83 28 87 3d 4b 25 ee 3b
       -0.06111075 -0.009262244 0.06599524 0.0072676293
000260 19 7d ad 3b c0 ea 02 3d 36 a6 85 bc c7 8e f3 3c
       0.005294454 0.031962156 -0.016314607 0.029731167
000270 af 5c 8c bc 0d c0 7d 3d 60 27 01 3c 53 f9 19 3d
       -0.017134039 0.061950732 0.007882923 0.03759129
000280 47 f5 9e bc a7 42 2a 3c 87 61 f9 3c da dd da bb
       -0.019404067 0.010391868 0.030442012 -0.006679279
000290 4b ce 47 3d 6b 1b d7 3d 18 a3 6d bd 52 44 bc 3d
       0.04878072 0.105032764 -0.058016866 0.091927186
0002a0 c4 ad da bc d8 fb 84 3d 9e 9f d9 bd 1c 91 8d 3d
       -0.026694186 0.06493348 -0.10626148 0.06912443
0002b0 fb 9c 90 bc ec 83 a7 bd 43 0a 89 bb 6a 75 24 3d
       -0.01765298 -0.08179459 -0.0041821315 0.040151037
0002c0 80 33 fe bd 80 a6 1b bd 59 de 2b bc 1d a1 20 bc
       -0.124121666 -0.038000584 -0.0104900235 -0.009804037
0002d0 41 46 b8 3d 8f 5d e4 bc 59 48 fd 3c e6 51 75 bd
       0.08997775 -0.027876643 0.030918287 -0.059892558
0002e0 59 36 94 bd 44 fe e7 3c f6 fb 45 3c 9d 96 0c 3a
       -0.072369285 0.028319485 0.012083998 0.00053630193
0002f0 dd c6 04 3d 66 2f c0 3c a2 75 e0 bc 44 c4 f9 3c
       0.032416213 0.023460101 -0.027399842 0.030489095
000300 95 94 2f 3d 3f b4 67 bc 43 d4 83 bd 5b 82 b8 bb
       0.04286631 -0.014142095 -0.0643697 -0.005630774
000310 87 88 d8 bc 87 28 aa bd 81 4c 94 3d 59 68 26 bd
       -0.026432289 -0.08308511 0.072411545 -0.040626857
000320 6a 07 21 bd af 53 4c 3d 53 72 4d 3d c3 03 d8 3c
       -0.03931371 0.049884494 0.050157856 0.026368981
000330 64 63 a8 bd 13 20 33 3d 9f 9f 51 3d 09 dd 8b 3d
       -0.08222082 0.04373176 0.051177617 0.068292685
000340 1c 96 5c 3d 89 38 99 bd 40 b1 b4 bc ad 4b e5 bb
       0.053854093 -0.07481486 -0.022057176 -0.0069975466
000350 4b 13 be bc b5 e6 a4 bd 31 54 16 bd c5 bc 4d bd
       -0.023202559 -0.080518164 -0.036701385 -0.050228853
000360 df 8d 85 bd f7 fd 7d bd 3d 67 23 3d 18 a3 90 bd
       -0.065212004 -0.062009778 0.039893378 -0.07062358
000370 3f 02 25 3d bc 68 f6 bc c6 63 18 3d d2 ce 8d 3c
       0.040285345 -0.030079238 0.037204526 0.017310534
000380 41 43 08 3d b3 76 a7 3d 2f 47 1f bd 67 71 31 3d
       0.033267263 0.08176937 -0.038886245 0.04332104
000390 cd e1 e6 3b 10 94 86 3c 2c cb 81 bd 82 dc 6b 3d
       0.0070459605 0.016428024 -0.0633758 0.05758334
0003a0 0b f6 f5 bc d4 a0 61 bd 48 ce 88 3c 70 14 5b 3c
       -0.030024549 -0.05508502 0.016699925 0.013371572
0003b0 3f 73 20 bd cf 02 d1 3c 9e a5 a0 bd 7a 3e 9c 3c
       -0.039172407 0.025514035 -0.07844089 0.01907276
0003c0 cc ad 91 3c 1a 53 c5 3d b9 b6 77 bd 80 58 47 bc
       0.017783068 0.09634991 -0.060476992 -0.012167096
0003d0 6f 60 a4 39 bb 01 f0 39 eb 8c 87 bd 5f 9d c9 3c
       0.00031352366 0.00045777656 -0.06618675 0.024611173
0003e0 67 63 c2 bc ab d3 5f bc d3 b6 a1 ba 65 b8 89 bd
       -0.02372904 -0.013661305 -0.0012337811 -0.067246236
0003f0 be 13 55 3d fe 5f 12 bb a1 b8 c3 bd 8d 81 2f bd
       0.05202078 -0.0022335048 -0.095566995 -0.04284816

bias f4 [128]
000000 3e 6d c2 bb 75 62 e7 bb d2 15 fc ba 62 90 20 bb
       -0.005933433 -0.0070612975 -0.0019232577 -0.0024500121
000010 5d ec 8d bb 7e 2d d1 bb a0 4e a9 bb 98 49 0c bb
       -0.004331155 -0.006383597 -0.0051668435 -0.002140617
000020 76 f1 d6 bb fc e6 90 bb ff fe d6 ba 93 20 f8 ba
       -0.006559546 -0.0044220667 -0.0016402899 -0.0018930606
000030 60 da f9 39 61 c6 71 bb f3 2f 3c bb 36 a5 33 bb
       0.00047655683 -0.0036891925 -0.0028715103 -0.0027411706
000040 02 1a 70 bb 19 58 79 bb 34 19 e9 bb dd cc ea ba
       -0.0036636596 -0.0038046895 -0.0071136 -0.0017913837
000050 74 a4 a4 bb 93 7f 99 bb d3 0b 9a bb 1b f7 af bb
       -0.005024487 -0.0046843975 -0.0047011166 -0.0053700334
000060 47 24 fa bb 95 f0 19 bb ad 95 a3 38 72 f6 c5 bb
       -0.007633719 -0.0023489345 7.800325e-05 -0.0060413415
000070 4e a1 39 bb 2f fc 58 bb b2 0e a3 bb dd 17 26 bb
       -0.0028324905 -0.0033109298 -0.004976117 -0.0025343813
000080 13 2a 95 bb 96 7c 0d bb 80 29 b9 bb 7c 08 51 bb
       -0.004552135 -0.0021589152 -0.005650699 -0.0031895926
000090 ea 63 b3 bb 0a b4 9b bb cf a9 bc ba fc 82 b0 bb
       -0.005474557 -0.004751687 -0.0014393869 -0.0053867083
0000a0 fc 12 53 bb f1 07 ee ba 21 8f a2 39 25 ea a6 bb
       -0.003220736 -0.0018160326 0.00031005687 -0.00509383
0000b0 64 1d ec bb 04 80 c9 bb 15 b1 db bb d0 e3 89 bb
       -0.007205652 -0.006149294 -0.0067044594 -0.0042080656
0000c0 36 31 1e bb 66 1d da ba 7e c2 6a bb 5b a3 9c bb
       -0.0024138219 -0.0016640841 -0.0035821493 -0.0047802157
0000d0 97 90 bc bb 20 45 6d bb 6b 97 97 bb bc ed 1a bb
       -0.005754541 -0.0036204532 -0.0046262047 -0.0023640236
0000e0 fb 4c af b9 3e e2 a2 bb 41 a8 86 bb f3 a6 0d 39
       -0.00033435956 -0.004970818 -0.004109413 0.00013509001
0000f0 b9 02 8e b8 e9 bd af bb 7e 45 ae ba 5a af 6d bb
       -6.771595e-05 -0.005363215 -0.0013295857 -0.0036267848
000100 75 b8 c6 ba e7 68 4c bb ab d6 41 bb 4c 73 2e bb
       -0.0015161174 -0.0031190456 -0.0029577415 -0.0026619015
000110 ce 18 a3 bb 0b c8 c5 ba 8b 7b 89 bb b0 c9 33 ba
       -0.004977322 -0.0015089525 -0.0041956357 -0.0006858362
000120 0d 78 cc 39 41 49 9e bb b2 18 ee ba db c9 eb ba
       0.00038999357 -0.00483051 -0.0018165319 -0.0017989235
000130 57 e4 bc bb df 54 17 bc 74 44 b1 ba 8f d8 a1 3b
       -0.005764525 -0.009236543 -0.0013524429 0.004939146
000140 cc 06 97 bb 87 f3 14 b9 a0 3d 5f bb bb 66 0a bb
       -0.0046089645 -0.00014205101 -0.003406383 -0.002111836
000150 14 68 31 bb a4 cc f0 bb 2c 5b c2 bb e5 4c ba bb
       -0.0027070092 -0.007348614 -0.0059312787 -0.005685436
000160 ac 83 34 bb 8a 59 fe bb 9b ab 4b bb 3f 55 aa ba
       -0.0027544303 -0.0077621387 -0.0031077627 -0.0012995376
000170 33 25 ac bb 90 eb 55 bb 9a 8e aa bb 20 2f 41 bb
       -0.005253458 -0.0032641627 -0.0052049877 -0.0029477552
000180 f7 34 94 bb ef 05 e3 bb c9 4d a7 bb ef 06 53 bb
       -0.0045229155 -0.0069281976 -0.0051057083 -0.0032200178
000190 f3 b1 5b ba fd c3 bf bb e8 81 d4 bb bc 2a 95 bb
       -0.00083807035 -0.005852221 -0.0064852126 -0.0045522135
0001a0 1f e3 02 bc 1b bc 00 bc 44 90 c1 bb 87 cd b6 bb
       -0.00798872 -0.007857348 -0.0059070904 -0.0055787
0001b0 7d 50 14 bb 1d 2d 2b ba 01 f1 b8 bb f0 f2 73 ba
       -0.0022630983 -0.0006529855 -0.0056439643 -0.0009305915
0001c0 5b 35 c5 bb f2 39 f1 b9 71 60 2f bb 39 80 6f bb
       -0.0060183234 -0.00046010275 -0.0026760364 -0.0036544933
0001d0 42 19 19 bb a9 75 9b bb 3b 29 8d 38 8b 5b c2 ba
       -0.0023361002 -0.004744251 6.731084e-05 -0.0014828307
0001e0 35 8a 02 ba ee c6 18 bb 3d 2f 3f ba ed 51 9f bb
       -0.0004979701 -0.002331193 -0.0007293111 -0.0048620612
0001f0 c4 03 d0 bb f1 16 fc ba ef e6 33 bb 20 88 b2 bb
       -0.006348105 -0.0019232911 -0.002745088 -0.0054483563

weight f4 [1, 128]
000000 b2 95 de bc 99 e0 e1 bd fb d6 7d 3c b7 36 25 bc
       -0.02717099 -0.11029167 0.01549315 -0.010083846
000010 bd c6 37 bd 6d 58 5c be 17 f2 32 bd ac e8 07 bc
       -0.044867266 -0.21518107 -0.043687906 -0.008295219
000020 b5 68 d7 3d eb 09 09 3e 97 a4 e6 3c db 5a 37 3c
       0.10518018 0.1338269 0.028154654 0.011191095
000030 11 48 fd 3b 42 20 34 bd 8c cb b8 3c 66 64 db 38
       0.0077295383 -0.043976076 0.022557996 0.000104614344
000040 c4 67 a6 3a 07 61 68 bd 06 7c 3d 3e 3d e8 a9 bd
       0.001269572 -0.056733157 0.18504342 -0.08296249
000050 7c 9d 29 3e 7c f8 32 bd ed 6b 86 bd 8e 06 75 bd
       0.16563982 -0.043694004 -0.06563554 -0.059820704
000060 98 b7 db 3d eb 69 97 3d 2a 9e e6 3b bc 86 3e bd
       0.10728377 0.07393249 0.0070378976 -0.04651521
000070 0b 43 e6 bc 02 2a 62 3d 74 53 91 3d 57 03 3a bd
       -0.02810814 0.055215843 0.070959955 -0.04541334
000080 ab 32 79 3d d0 2e 82 bb ee df 40 3e b9 20 45 3e
       0.060839336 -0.0039728656 0.18835422 0.19250764
000090 20 e7 13 be 0d fb 97 bd c6 e8 6a 3d 43 8f b0 bd
       -0.14443636 -0.07420931 0.057350896 -0.08621075
0000a0 a6 1a c7 3c f3 02 13 bc ad 28 bd 3c 09 c8 95 3d
       0.0243047 -0.008972871 0.023090685 0.07313544
0000b0 e9 6f d8 bc 35 40 8e 3d 08 2a 14 be af e5 ea bd
       -0.02642055 0.0694584 -0.14469159 -0.1146959
0000c0 2a a0 94 3c 4b 2a 92 3c a4 4e 94 3d 20 1e ae bc
       0.018142778 0.017842432 0.07241562 -0.0212546
0000d0 a3 8a 18 3e 8c 1e 20 be a3 7e ea bd 2a ec aa 3c
       0.14896636 -0.15636653 -0.11449935 0.020864565
0000e0 e2 b8 16 3c 55 34 ac bd 54 5d 29 bc bb 65 52 bc
       0.009199353 -0.08408419 -0.010337193 -0.012841637
0000f0 46 25 e0 3b 6a 11 c1 3d d0 b8 d0 bc b8 b1 77 bd
       0.006840381 0.094271496 -0.02547875 -0.06047222
000100 ea b5 f0 3b b9 49 42 bc 97 df 0a bd 3b 2a 96 bd
       0.0073459046 -0.011858397 -0.03390464 -0.073322736
000110 b3 f0 93 bc 3b 2d 08 3c 2e 10 9a 3c a6 05 0d bc
       -0.01805911 0.008311565 0.018806543 -0.008607304
000120 2a 5e ce 3b ce 6c 37 3d 8a c3 91 bc 44 e2 c4 bc
       0.0062978463 0.0447815 -0.017793436 -0.024033673
000130 ca 42 d6 3d 94 59 cc 3d 90 12 ea bc 0f 96 1a 3c
       0.10461958 0.09978023 -0.028573304 0.009435191
000140 e5 57 0d 3e e7 aa 47 3c 48 8d 3f 3d 73 1c da bc
       0.1380306 0.012186742 0.046765596 -0.026624894
000150 87 8b dc bc 1b 49 f4 bd 0a 1f 7e 3c d4 10 5e be
       -0.026922 -0.11928006 0.01551033 -0.21686107
000160 23 30 04 bc 76 ae c3 bd 83 83 02 be 3c 49 53 3a
       -0.008068117 -0.0955476 -0.1274548 0.0008059924
000170 b4 84 37 3d 13 43 14 bd 38 c7 23 3e 24 43 ba 3c
       0.04480429 -0.03619678 0.15993965 0.022737093
000180 45 0f 0e be 8f 75 0d 3e 1f 16 3c 3d 03 a1 16 be
       -0.13873012 0.13814376 0.045919534 -0.14709859
000190 56 89 e5 ba 6e 49 9b 3d ba cb 05 be 4a 4d 06 3e
       -0.0017512243 0.07582365 -0.13065997 0.13115421
0001a0 b4 f4 b3 3d 64 14 b5 3d ac 37 c7 3d 09 c6 b2 bd
       0.08786908 0.0884178 0.097274154 -0.087291785
0001b0 3a 8f 12 3d 30 78 c2 3c 71 97 dd 3d 13 4d ad bc
       0.035781123 0.02373895 0.10819901 -0.021154916
0001c0 ea 58 ba 3d a8 91 95 3b 27 c8 30 bb e6 7b 55 3c
       0.0909899 0.0045644827 -0.002697477 0.013030028
0001d0 d6 8d 44 3d 9e f6 08 bd 41 d1 9d 3b 24 ca bb bc
       0.047986828 -0.033438317 0.004816205 -0.022923537
0001e0 19 77 12 3d 4e 79 6b bd 1c 74 ea 3c f7 45 7c 3d
       0.03575811 -0.057488732 0.028619818 0.06159016
0001f0 0f 68 2c bd 35 ed ba 3a 37 0d 53 bb 11 3a fd bd
       -0.042091426 0.0014261367 -0.0032203922 -0.12364591
