saved_trials/a2c-small/MiniWorld-MazeS2-v0.pt (torch_old, 812358 bytes, 23 tensors)

weight f4 [32, 12, 5, 5]
00000000: f4a2 0e3c 165d 0ebd 5dd5 a43c 07ad 00be
00000010: 3e5d dfbb 4c64 8c3d 2bd6 a4bd 618e 193d
00000020: 5199 943d 9226 3dbe fd4c 3b3d 5803 ba3c
00000030: 8628 99bd 902a 63bd 4091 c9bc 7bb0 c63a
00000040: 28c8 2dbe df03 3ebe 8897 1dbe 3a95 a7bd
00000050: f4d8 533d cd57 f83d a054 8dbc be5a 62ba
00000060: ebcd 7cbc 95c2 e93c 745c 51bc 5094 00bc
00000070: 730e 40bb 7dae 2b3b d7c0 9a3d 4e01 913c
00000080: 6f21 92bd 1c3a ae3c 66fd 1bbc 043b 08bd
00000090: 41b2 f1b9 d4c5 78bd 6620 8fbc 879a 24be
000000a0: ac9b 9bbc c50f a8bb da9c c53d 5dfa 58bd
000000b0: b21e 5abd 00c4 39bd f53d 04be 9c1c 423c
000000c0: 7204 a53d 93e8 a1bd e58c a23a f6c3 d23d
000000d0: eea8 b0bd 1a48 a0bd 2d37 3bbd 47dd 863d
000000e0: 5a36 0c3c e2fb aa3d 1e84 4abe 2a3f dcbc
000000f0: 6c28 55bc 4a6a 36bd ca51 193b 7d18 b43c
00000100: 957d 1e3e 6d93 963d 0b11 403d 1464 843d
00000110: c452 85bd ccd6 8f3d f0b0 c43d 8623 b3bd
00000120: 0467 92bd 82da 803d 974a 703c aba7 d63b
00000130: 6d1f 5abd 0815 82bd c571 4fbd 3971 a1bc
00000140: 0e90 51bd 14b0 02be e191 0fbe e4a4 fd3c
00000150: b195 543c cb07 233c b248 34be 0307 b9bd
00000160: 00ce 983d 5f30 783d cbfc a2bc 597e f3bc
00000170: a2bb a8bd 1d11 e03a 3a5a ee3d 7494 0abe
00000180: c806 3dbe 424d a4bd 639a 03be afc8 b3bd
00000190: de26 d1bb 7527 cebc 080e 96bd 73e6 07bd
000001a0: 6dc5 48bd 7dec 4dbc 18be 743d 780f 98bd
000001b0: 9052 773d db9a de3d abd2 9b3d c7e7 4ebd
000001c0: 02da 4a3c d586 4abc 7458 1e3d 04a8 51bc
000001d0: 7112 53bd 2077 3cbc f378 9ebc c141 133e
000001e0: ff18 afbd 20e2 a73c 3626 713d 429c d1bd
000001f0: 81c5 c1bc 1223 a63d 6084 d9bd 6f2e 733d
00000200: a5a2 5dbd c49f b13d cd3d ca3d fe17 68bd
00000210: 5e59 3e3d bcc8 20be b74f 0abd ba6a 7cbb
00000220: 1fdb f13d f97e 90bd 6925 213e 6504 72bd
00000230: 6e1b d03b 834e 5e3e 7019 913d da23 9539
00000240: 137f 51bd d039 1f3d 995a 0f3c b1cb 013e
00000250: 0fef b7bc fcc9 c43d 5d89 a23c 2cea e1bd
00000260: e036 26bd 4c10 f2bc d8d3 edbd f767 8a3b
00000270: fd85 d4bd 131c 4d3d 1bfa 52bd 67fa 5d3d
00000280: 1d85 423d 020b dc3d 92f7 9d3d 67cd 57bd
00000290: d83f d637 e7f0 cb3d f4eb 1fbd d2f0 75bc
000002a0: 878d a63d 3136 663d 9b96 7d3d eb12 563d
000002b0: 59f3 e83d 3392 a2bd f97b dd3d 8cd9 983d
000002c0: 6039 eb3b 8ef5 653d 47e3 f23d 9321 fb3d
000002d0: 5d60 be3b 2813 533d 18a0 03bd f8c8 da3c
000002e0: b3b7 2bbd fd84 0fbc 6baf 9d3d f671 02be
000002f0: dd1d 263e 9258 103c 362d 37bd de31 823c
00000300: 2fc1 293c 50f5 9938 0d8b 153c 6d59 823d
00000310: ff37 733d 1320 5cbd 4c59 c6bd d8f7 efbd
00000320: 7eb9 8e3d 5a65 773e bada bebc caf1 9cbc
00000330: 42bb 53bd fc49 11be 9e24 f93d da37 b3bd
00000340: 275a 163d 3ee8 3bbc 30bc 82be abce cd3d
00000350: fc13 0fbe d85d dabd 1084 79be fa93 773c
00000360: 101b 9c3c 3b5b bf3d 8342 b33b 66cd 18bd
00000370: 3684 58bd 8c0e c5bd b3c4 b7bd fb38 0f3e
00000380: cf4c 35ba 677c 013d bdfd 0c3d 5d14 4ebb
00000390: a045 2f3d 2a06 2c3d 4fbc 9c38 7782 d7bd
000003a0: 7e9b 233c 150d bbbd 71cd 9c3d d19a 023e
000003b0: e39b 143e 6c90 a739 b7f7 f0bd c1d1 bcbc
000003c0: f4fa 15bc 3390 8abc 9c6b 043e a70f 1a3d
000003d0: 7350 86bc d08f 08bb 42ad 843d 0f60 5d3d
000003e0: a4db fa3d 197e e53b f78a 06be 675c 17bb
000003f0: e5f1 b33d e7d7 54bd 4978 87bd 601c d23a
0.008705843 -0.034756742 0.02012127 -0.12566005 -0.0068165353 0.068550676 -0.08048662 0.0374893
0.07255805 -0.18471745 0.04572772 0.022706673 -0.07478432 -0.055460513 -0.024605393 0.0015158796
-0.16970885 -0.18556164 -0.15389836 -0.081827596 0.051720574 0.12126122 -0.017252266 -0.00086347375
-0.015429954 0.028535167 -0.01277839 -0.00784786 -0.0029305487 0.0026196532 0.075563125 0.017700817
-0.07135283 0.021267943 -0.009520864 -0.033259407 -0.00046099912 -0.06073554 -0.017471503 -0.16074573
-0.018995129 -0.005128833 0.09649058 -0.05297314 -0.05325193 -0.045352936 -0.1291426 0.011847641
0.080574885 -0.07905688 0.0012401609 0.10291283 -0.08625971 -0.07826252 -0.045706917 0.06585174
0.00855788 0.08348824 -0.19776961 -0.026885588 -0.013010126 -0.04453496 0.0023394697 0.021984333
0.15477593 0.07352338 0.046891253 0.06464401 -0.06509927 0.07023391 0.09604061 -0.0874701
-0.07148555 0.06291677 0.014666221 0.0065507493 -0.053252626 -0.06351668 -0.05064561 -0.01970731
-0.051162772 -0.12762481 -0.14020492 0.030962415 0.012975142 0.009950588 -0.17605856 -0.090345405
0.074611664 0.060593005 -0.019895932 -0.029723333 -0.08238913 0.0017094944 0.11638303 -0.13533193
-0.18459618 -0.08022548 -0.12851863 -0.08778512 -0.006382807 -0.025165299 -0.07326895 -0.033178758
-0.049016405 -0.01256859 0.0597516 -0.074248254 0.060381472 0.1086938 0.07608541 -0.05051401
0.012381079 -0.012361248 0.038658574 -0.012796406 -0.05153126 -0.011503011 -0.019344782 0.14380552
-0.085496895 0.020493567 0.05887433 -0.10234882 -0.023653748 0.08112158 -0.10620952 0.059370454
-0.054110188 0.08673051 0.09875069 -0.056663506 0.046471946 -0.15701574 -0.03376743 -0.0038515762
0.11809372 -0.07055468 0.15736927 -0.059086222 0.006350926 0.21709637 0.0708493 0.00028446206
-0.051146578 0.038873494 0.0087496275 0.12675358 -0.02245286 0.09608838 0.01984089 -0.11030993
-0.040579677 -0.029548787 -0.116126716 0.0042238194 -0.10377119 0.0500756 -0.05150805 0.05419388
0.047490228 0.10744287 0.07713236 -0.05268612 2.5540518e-05 0.09958058 -0.03904338 -0.015011029
0.08132463 0.056204025 0.061911207 0.052264135 0.1137454 -0.079380415 0.108146615 0.07463369
0.0071784705 0.056142382 0.11859756 0.12262263 0.0058098272 0.05153194 -0.0321351 0.026707157
-0.041923236 -0.008759734 0.07699474 -0.12738785 0.1622233 0.008810179 -0.04472085 0.01589292
0.010361 7.3413015e-05 0.009127391 0.06364713 0.059379574 -0.053741526 -0.09685001 -0.11717194
0.069689736 0.24159756 -0.023297656 -0.019158263 -0.051692255 -0.14188379 0.12165187 -0.08750887
0.03670707 -0.011468945 -0.255342 0.100491844 -0.13972467 -0.106624305 -0.24366784 0.015110964
0.019055873 0.09343573 0.0054705753 -0.03730526 -0.05286046 -0.09621915 -0.08973064 0.1398658
-0.00069160474 0.03161278 0.03442167 -0.0031445243 0.04279101 0.041998066 7.473735e-05 -0.10522931
0.009985803 -0.091333546 0.07656372 0.1275437 0.14512591 0.00031960325 -0.11765998 -0.023049237
-0.00915407 -0.016914463 0.12931675 0.037612583 -0.016395783 -0.0020837672 0.06478359 0.054046687
0.122489244 0.0070035574 -0.13138948 -0.0023095848 0.08786372 -0.051963713 -0.066147394 0.0016030185

bias f4 [32]
00000000: 5ec5 1cb6 c928 d4b5 eb76 5335 7164 8b34
00000010: 8a76 bc33 0d9f d9b3 752d 4036 a72d c5b5
00000020: 07ac b034 42eb 8fb6 73e3 07b6 aa30 c1b5
00000030: aeb9 cdb5 da61 e3b5 ba78 5e35 70cb c134
00000040: a51c 0336 7921 19b3 3a9e 56b6 206b 2c36
00000050: 34d8 8536 3bd3 70b6 954c af36 70ce ffb4
00000060: 1bc5 d0b6 fc7b 4536 30ef a835 5b4e 8035
00000070: cadd 8835 8548 b4b4 d135 1c36 ea46 52b6
-2.3360694e-06 -1.5807101e-06 7.8776674e-07 2.5963848e-07 8.775994e-08 -1.0133781e-07 2.863669e-06 -1.469093e-06
3.290772e-07 -4.2891197e-06 -2.024896e-06 -1.4393784e-06 -1.532773e-06 -1.6941297e-06 8.2877125e-07 3.6097072e-07
1.9537194e-06 -3.565353e-08 -3.1980585e-06 2.5692352e-06 3.9888782e-06 -3.588574e-06 5.2243217e-06 -4.7647654e-07
-6.221829e-06 2.9427456e-06 1.2586588e-06 9.559548e-07 1.0197339e-06 -3.3580378e-07 2.3277137e-06 -3.1333716e-06

weight f4 [32]
00000000: 453c 813f ef8b 7f3f 5e52 7a3f 606b 803f
00000010: fba9 7e3f 1307 803f 5359 7c3f 1ee3 7c3f
00000020: b327 803f 80d0 7f3f 8fbf 7e3f 6365 803f
00000030: 76a3 7e3f aa7a 7c3f 231a 833f 9e78 7f3f
00000040: 6203 7d3f 6ede 7b3f 5b47 803f 8363 7e3f
00000050: 7583 7f3f d5c0 7f3f cdd5 833f 352f 803f
00000060: cbaf 7b3f 8f62 813f 9059 803f 1b05 803f
00000070: 7cd6 803f 2b5b 7b3f b0de 7f3f e147 803f
1.0096518 0.99822897 0.9778193 1.0032768 0.9947812 1.0002159 0.985738 0.98784053
1.0012115 0.9992752 0.99511045 1.0030941 0.9946817 0.9862467 1.0242351 0.9979342
0.98833287 0.98386276 1.0021776 0.9937059 0.9980996 0.99903613 1.0299622 1.0014406
0.98315114 1.0108203 1.0027332 1.0001558 1.0065455 0.98185986 0.9994917 1.0021936

bias f4 [32]
00000000: b683 15bd e551 60bc c40d 22bb 7cbb e13b
00000010: c7c6 d83a 7986 1c3b f0ec 6aba aaeb 0abc
00000020: 2485 d0bc 0b56 96b9 9a74 b9bb 42f6 cdba
00000030: b0d0 75bc 474d f2bc 152d 873c fc26 973b
00000040: e410 ddbc 97e3 68bc 460a 073c 0aba e1bb
00000050: 936c 91bc 0c4f 50bc 8ae8 833c 729e 393c
00000060: eb14 76bc bfdf 36bd f580 a5bb 97b0 6bbc
00000070: 138f 7d3c e193 c1bc 9d1a cf3b 3d8b 84bc
-0.036502562 -0.0136914 -0.0024727443 0.006888805 0.0016538732 0.0023883863 -0.0008961698 -0.008479038
-0.025454111 -0.00028674336 -0.005659652 -0.0015713649 -0.015003368 -0.029577864 0.016500989 0.0046128016
-0.026985593 -0.014214418 0.0082421955 -0.0068886327 -0.017751968 -0.012714159 0.016102094 0.01132928
-0.015019636 -0.044646975 -0.0050507733 -0.014385364 0.015476006 -0.023630084 0.006320311 -0.016179675

running_mean f4 [32]
00000000: 521e 83be 6a0d 96bf 7fbe a9be 254a a9bc
00000010: d546 2fbf 96ba a03f 4612 d63e e522 37bf
00000020: f6e1 37bf 5261 2abf 6f4d adbf a05f 523e
00000030: bb60 0b3d 4836 3abf 305b 013c 1148 dd3e
00000040: 0c14 e5bd 3b42 fd3e 9a97 433d 9027 16bf
00000050: d425 3abe dd9d 023e ab87 00bc 3efa 6a3f
00000060: 2cdd 79be 3441 bcbe a552 d0bd 35db 4bbf
00000070: 8d84 cc3e 9835 45bf 5164 333f cac3 d03d
-0.2560907 -1.1722844 -0.3315315 -0.020665238 -0.68467456 1.2556942 0.41810817 -0.7153762
-0.71829164 -0.6655475 -1.3539256 0.2054429 0.034027796 -0.72739077 0.007895276 0.43219045
-0.11185464 0.49464592 0.047752 -0.5865412 -0.18178493 0.12755533 -0.007844846 0.9178809
-0.24400777 -0.36768496 -0.10172013 -0.7963136 0.39944878 -0.770349 0.70074946 0.10193594

running_var f4 [32]
00000000: a1f1 e23c 5688 ad3d 206c 1a3d 92b7 433d
00000010: 2fd3 c63c d68b c33d 915d a13c f5fd f53c
00000020: ef96 823d 9d2a f93c 33c0 d03d 17f1 503c
00000030: 7c80 593c 9ced 253d 1542 073d ab19 8f3c
00000040: bfbc 913c ab62 823d 6186 b63c 62a6 6c3d
00000050: 937f 033d 1039 3b3c c226 5e3c 5138 853d
00000060: 768d 493d 4958 133d b7b0 303c 3aa0 843d
00000070: 187d 343d e067 3f3d 589c 103d e877 c63c
0.027703108 0.0847327 0.037700772 0.04778249 0.024270622 0.09548156 0.019697936 0.030028323
0.063764445 0.030415827 0.10192909 0.012752793 0.013275262 0.040509805 0.033022005 0.017468294
0.017790196 0.06366476 0.022280874 0.057775863 0.032104086 0.011427179 0.013559045 0.06504882
0.049207173 0.035972867 0.01078432 0.06475873 0.04406461 0.046729922 0.03530535 0.024227098

weight f4 [32, 32, 5, 5]
00000000: 4ea1 813c a657 923d 40d3 19bd 48c0 07be
00000010: 6b51 8dbc cd66 58bc ab4f 8e3c 1f54 94bc
00000020: 99f9 30bd c682 823d 163f b1bc ac75 103d
00000030: aafc 15bc 944c 183d 750a a7bb 7fed 393c
00000040: 7cd6 c039 17ba 733d 5f4a f3bb ade5 65bd
00000050: 83a6 29bc 5bf8 183d aa03 01bd 61b1 cd3c
00000060: 9c51 f5bc 99de 81bd a1e4 223c f4f4 4fbd
00000070: f80f 77bb 3de5 e1bb 35d1 c7bc 22d2 9f3b
00000080: 4a12 0cbd 5a26 0f3d f628 f9bc 4861 b5bd
00000090: fea2 c3bd 9c35 80bc a49d e53b 14ea fcbd
000000a0: a4a9 a9bc 37b1 963c e817 223c 5a27 643c
000000b0: edd6 39bd dace a2bc d665 ccb9 3392 7bbd
000000c0: e937 babb 3b9e 7e3c f2bd 81bd 1be6 0bbd
000000d0: 9550 07bc dca6 203d bf4c 8cbd 95d8 a9bd
000000e0: ce06 323d 1733 9f3d 6188 263c 59e0 a6bc
000000f0: 26b8 a3bd f30b 14bd 0b08 81bd b595 8c3d
00000100: ad93 d2bd fdc5 113b 5e14 49bd f1c2 97bd
00000110: b550 3ebd 0bb1 f73c d85d 3bbd 7d3c 8c3d
00000120: 5637 97bd 244a 81bd 802b bbbc bdd1 b3bd
00000130: 2ba7 f2bb d0f2 de3d 15b0 933d 50a6 b3bc
00000140: d98e 3d3d 3cc0 84bd 42c1 9cbc 96f8 133c
00000150: 1f6c b2bd bdc6 3abd 2522 79bc d086 c5bc
00000160: 2b14 0cbd 20f0 6fbd 4405 d4bc 960f c03d
00000170: 1ae6 b13d c101 bc3b 78c1 4ebd a889 63bb
00000180: cc55 b73d 9e69 c9bc 40a4 a7bc d427 e33d
00000190: e8de 0dbc e211 953c 4c00 d43b e950 f13c
000001a0: ac4d 763d 578e 133d 5514 9fba c084 313b
000001b0: a305 943c 613d febc 39ba a3bd 8a90 c3bc
000001c0: 2394 893d d8aa a6bd ecfb e6bb a4a6 fabc
000001d0: 35d9 a8bb 4276 073d 97d0 56bd 6756 683d
000001e0: dac2 133d 759e 04bd 58a7 a3bd 6885 5ebd
000001f0: 78b9 40bd 7490 883c 269c cc3c 0a40 e13c
00000200: 3633 a6bc acdb 5e3b f9d3 85bc 1d4f 1abc
00000210: bc1b 11bd 6cd2 933d c76e 00bd 054b ee3c
00000220: b16f 153c 58c2 ecbc 8e59 f03d 97a9 b3bc
00000230: 4813 88bd e919 9abd 44da 3dbc 7639 733d
00000240: 6e48 0dbd 787c ae3c d29e 0bbc 11cc 21bd
00000250: fdb2 9b3c 2bd5 a7bd b75d 5e3c 96c9 1ebd
00000260: 9ff9 0c3d 0167 263d 7563 1cbd 4de4 71bd
00000270: d7d1 e3b9 15d2 723c 00b2 2cba 5896 5abd
00000280: 8a8b 0dbd 9e55 2dbd 9a4d c0bc 22cb 62bd
00000290: 4112 f63c 89f3 743d b510 70bd 1808 793d
000002a0: 30e4 8dbd a5cc bc3c 88f7 663d d9d8 0639
000002b0: 91b7 11bc f102 b4bc cc97 89bd 4c1c d5bc
000002c0: 9dfd 99bc 2c03 0a3a f0bb babc 0982 613d
000002d0: 5011 f53c b1cd 9a3d e63a 24bd ec86 a6bd
000002e0: accb 0e3c 1f95 87ba ede3 a33c 29de ff3c
000002f0: e7cd 0c3d c35f fb3c a724 96bd 6645 86bc
00000300: 415d 98bb c86f 743b df1e b13d c7af c5bc
00000310: f9f6 ad3c e3e8 c8bc 93bb 56bd b49a 9cbc
00000320: 78f1 033c 7ecb b3bc 1f9b 5b3c 6549 c13d
00000330: b287 d7bc aad8 9b3d 0a18 f93a 27f9 30bd
00000340: 25c1 7fbc 711a 0f3e 33e3 923b 926e 5e3c
00000350: d8f0 8c3d a518 8a3d e2b1 3fbd 8c18 8e3c
00000360: 31a0 c83c 3dbb 47bc c6d6 95bc 697e b1bc
00000370: 9819 85bc ca2f 6c3c 1f39 143e dd20 59bc
00000380: a8bb 47bd 676c 5d3d cac9 03bd ff97 e6bd
00000390: 6051 be3d 49da e33c 3db3 0ebd fae8 31bd
000003a0: 38dc ac3d b21e 8a3d 4779 f33b 64f3 c7bd
000003b0: baa0 02bd 43af 623d 9d01 a4bd 6a32 09be
000003c0: 3f8e 20bd a28d 463d 07b8 14bd 9829 c9bb
000003d0: 9cf7 d1bd 68cb 263e 3469 d7bc 3dd5 f2bb
000003e0: 1ff9 83bd 0178 713d a7b0 d6bc 3bda a23c
000003f0: 4996 8b3c 591b 59bb 338b ce3c 9a48 7b3d
0.015823986 0.07145624 -0.03755498 -0.13256943 -0.017250737 -0.013208103 0.017371973 -0.018106518
-0.043206785 0.06372599 -0.021636527 0.03526847 -0.009154478 0.037182406 -0.005097682 0.011348127
0.00036780897 0.05950364 -0.007424637 -0.05612724 -0.010354641 0.037346225 -0.031497635 0.025108995
-0.029946141 -0.06341285 0.009942205 -0.050770715 -0.0037698727 -0.0068937824 -0.02439175 0.0048773447
-0.03419713 0.034948684 -0.03041504 -0.088564456 -0.09552573 -0.015650563 0.0070073176 -0.12349334
-0.020710774 0.01839505 0.009893395 0.013925398 -0.045370985 -0.019874025 -0.00038985786 -0.061418723
-0.0056829345 0.015540655 -0.06335057 -0.034154993 -0.008258958 0.03922163 -0.06850576 -0.08293263
0.04346352 0.077734165 0.010164351 -0.02037065 -0.07994108 -0.03614421 -0.06300362 0.06864492
-0.10282073 0.0022243254 -0.04909169 -0.07410229 -0.046463687 0.030235788 -0.045743793 0.06847475
-0.07383601 -0.06312969 -0.02284789 -0.08780239 -0.007405182 0.108861566 0.07211319 -0.02192989
0.04627881 -0.06481978 -0.019135121 0.0090314355 -0.08712029 -0.045599688 -0.015205895 -0.024112135
-0.03419892 -0.05857861 -0.025881417 0.09377973 0.086864665 0.005737514 -0.050477475 -0.00347195
0.08951911 -0.024586495 -0.020464063 0.11091581 -0.008659102 0.018197004 0.006469762 0.029457526
0.060132667 0.036024418 -0.0012136797 0.0027087182 0.018069094 -0.031035127 -0.079945035 -0.023872633
0.06717708 -0.081380546 -0.0070490744 -0.030597039 -0.005152846 0.033071764 -0.05244502 0.056723025
0.036074497 -0.03237768 -0.07990903 -0.054326445 -0.047051877 0.016670443 0.024976801 0.027496357
-0.020288091 0.0034005446 -0.016336428 -0.009418276 -0.03542684 0.07217869 -0.031355646 0.029088506
0.009120868 -0.028901264 0.11735831 -0.021931453 -0.066443026 -0.07524473 -0.011587683 0.05938097
-0.034492902 0.021299586 -0.008521752 -0.039501254 0.019006247 -0.081949554 0.013572148 -0.038766466
0.034417745 0.040625576 -0.038180787 -0.059055615 -0.00043453157 0.014820595 -0.00065878034 -0.053366035
-0.034556903 -0.04231798 -0.023474503 -0.055369504 0.030038001 0.059802566 -0.058609683 0.060798734
-0.06928289 0.0230468 0.056388408 0.00012860018 -0.008893863 -0.021974059 -0.06718406 -0.02601447
-0.01879769 0.0005264755 -0.022794694 0.05505565 0.029915482 0.07558764 -0.040095232 -0.08131203
0.008715551 -0.0010344124 0.020006144 0.031233864 0.03437605 0.030685311 -0.0733121 -0.016390514
-0.0046497886 0.0037298072 0.08648466 -0.024131669 0.02123593 -0.024525112 -0.05242498 -0.019116737
0.008053176 -0.021947619 0.013403683 0.09437827 -0.026309822 0.07609685 0.0019004357 -0.04320636
-0.015610014 0.1397493 0.0044826507 0.013576167 0.06881875 0.06742982 -0.0468005 0.01734569
0.024490448 -0.012190637 -0.018290889 -0.021666722 -0.016247556 0.014415691 0.14474915 -0.013252464
-0.048762947 0.05405846 -0.032174863 -0.1125946 0.09292865 0.027814047 -0.034838904 -0.043435074
0.08440441 0.06744136 0.007430229 -0.0976322 -0.031891562 0.055342924 -0.0800812 -0.13398138
-0.039198156 0.048474915 -0.036308315 -0.0061389916 -0.10252306 0.16288531 -0.026295282 -0.007410674
-0.064440005 0.058952335 -0.026207281 0.019879451 0.017039435 -0.0033127873 0.02521286 0.061348535

bias f4 [32]
00000000: 7fa0 9034 6573 3d34 edff d733 fcab 4a34
00000010: 56b2 96b3 75d8 0cb4 a696 1a33 c9ff d0b4
00000020: 1158 9bb4 3315 1134 dfd3 48b3 2bf0 6232
00000030: 2e39 bcb3 cfec 2b32 8f29 47b2 1aa9 88b3
00000040: 3774 e733 0e14 fc33 3bac 0cb4 4277 5e34
00000050: 6122 fb33 0706 dcb2 55c2 fe32 e95a 4f34
00000060: 2e5e 98b1 6445 d833 0b13 6330 f191 5934
00000070: 3fbe a333 a8fc 7833 f75e fc33 e337 1a33
2.6938866e-07 1.7643977e-07 1.005827e-07 1.8875284e-07 -7.0173584e-08 -1.3117263e-07 3.5992933e-08 -3.8929127e-07
-2.8935077e-07 1.351189e-07 -4.6758824e-08 1.3209539e-08 -8.764833e-08 1.0007354e-08 -1.1592774e-08 -6.363753e-08
1.0777915e-07 1.17383124e-07 -1.3101173e-07 2.0718747e-07 1.1694352e-07 -2.5614112e-08 2.9657864e-08 1.931145e-07
-4.434489e-09 1.0070906e-07 8.260918e-10 2.0262793e-07 7.6248845e-08 5.797179e-08 1.17519384e-07 3.5906748e-08

weight f4 [32]
00000000: 6443 803f baf6 803f 8117 803f 804b 813f
00000010: 7ff2 7e3f 0c9d 7d3f 653d 803f b116 7d3f
00000020: 9fab 7e3f 1ca9 7c3f 9953 813f 79c6 7c3f
00000030: a4de 7d3f 483c 803f 8ce5 7c3f 0c2f 7d3f
00000040: caca 803f 7ab4 803f 1994 803f 42e9 803f
00000050: 7f6f 7e3f fe14 7c3f d2c5 7d3f e9ee 803f
00000060: 7eba 7f3f 94ff 7e3f 3b6b 7d3f acfa 7e3f
00000070: 7679 803f 05c5 803f ce49 7c3f 5d13 803f
1.0020566 1.0075295 1.0007173 1.0101166 0.9958877 0.9906776 1.0018736 0.9886275
0.99480623 0.9869554 1.0103637 0.98740345 0.9916785 1.0018396 0.9878776 0.9889991
1.0061886 1.0055077 1.0045196 1.0071185 0.9938888 0.9846953 0.99129975 1.007291
0.9989394 0.9960873 0.98991746 0.99601245 1.0037067 1.0060126 0.98550117 1.0005909

bias f4 [32]
00000000: 0d81 873c ce69 2a3b 2fa5 31bd e002 c9bc
00000010: c929 593b 3c77 553a 2741 0bbc c700 d0ba
00000020: 8c87 3c3a 33fe 4fbb d1b7 26bc 4f1d 33bc
00000030: 8888 97bb 5bab 59bc 88ed fdb9 e9a1 00bd
00000040: 0819 bcbc 4a09 0dbc 17f8 86bc 979d 75bc
00000050: eb20 643b cb77 31bb c05d 3abb 9c9a 1ebc
00000060: c320 0a3c d524 ca3b 957b 1bbc 168c 57bb
00000070: c4cf 20bc cff9 4c3a 2c14 a33a 0f64 8cbc
0.016541028 0.0026003006 -0.043370422 -0.024537504 0.0033136478 0.00081430725 -0.00849942 -0.0015869372
0.0007191829 -0.0031737208 -0.010175661 -0.010932281 -0.00462443 -0.013285483 -0.00048432895 -0.03140441
-0.022961155 -0.008608172 -0.01647572 -0.014991186 0.003480966 -0.0027079459 -0.0028437227 -0.009680416
0.008430663 0.0061689415 -0.0094899135 -0.0032889894 -0.00981516 0.0007819207 0.0012441925 -0.017137555

running_mean f4 [32]
00000000: 221f 98bf 792b a6be c896 d23f 8974 9a3f
00000010: 7d18 2fbf a2d6 c93e 8d84 333f 523c 113e
00000020: b038 5cbf 2baa bfbe 9aff 2c3f 9529 30bf
00000030: f306 9cbf 5a41 f73f 935d 3ebf 0f0c 6a3f
00000040: 1fe0 b93f f8d7 f83e 7a74 a23f b028 863e
00000050: 2bb7 cdbf 3dee eebe fa77 993e 05f0 9a3f
00000060: 502d 15be f999 89bf b720 b93f d659 db3e
00000070: 096b 703f d6c1 313f bb61 afbe 8c61 953f
-1.1884501 -0.32455042 1.6452265 1.2066814 -0.6839674 0.39421564 0.7012413 0.14183167
-0.86024 -0.37434515 0.6757752 -0.6881345 -1.2189621 1.9316819 -0.7436153 0.9142465
1.4521521 0.4860227 1.2691796 0.26202917 -1.6071523 -0.46666136 0.29974347 1.2104498
-0.14568067 -1.0750114 1.4463109 0.42841977 0.9391332 0.69436395 -0.3425425 1.1670394

running_var f4 [32]
00000000: a530 2d40 ddfa 653f 6305 0c40 18eb a03f
00000010: e246 aa3f ee97 4440 f3d1 e73f 037b e63f
00000020: 00f5 b33f e9ef 1b40 2540 713f 64fa b93f
00000030: c02d a23f 9cfe 0840 27bc f53f 216c 963f
00000040: 4e33 cf3f 42fe 4240 87e7 6240 49d3 103f
00000050: 5618 ce3f 07a7 4a3f 77b7 bf3f 80c1 8f3f
00000060: a5d8 843f bf44 aa3f 8aa0 c03f e7a8 5c3f
00000070: 941c da3f 711e fe3f 616b a83f d091 4b40
2.706094 0.8983591 2.1878288 1.2571745 1.3302882 3.071773 1.8110946 1.800629
1.4059143 2.436518 0.942385 1.4529538 1.2670212 2.1405401 1.9198045 1.1751748
1.6187532 3.0467687 3.5453813 0.56572396 1.6101177 0.79161114 1.4977864 1.1230927
1.0378615 1.330223 1.5048993 0.86195225 1.7039971 1.985304 1.315777 3.1807747

weight f4 [32, 32, 4, 4]
00000000: b775 113e d7d5 09bd a180 3cbd 71ce d43d
00000010: f587 d53d bfcd 873d 068b 8fbc 1775 dbbd
00000020: a83c 0d3d f49b b03c 8763 583d 301a 9fbd
00000030: 3c71 ca3c 40d9 63bd 1584 d8bc 8253 2cbd
00000040: 4e7c a0bd 85a2 1d3b 6050 d23b 4696 75bd
00000050: e1c1 dbbc 4304 4b3d 5949 313d 96d0 18bd
00000060: c59c c4bc 7b74 a13a 4db4 9cbd 9325 59bb
00000070: b002 ab3c 2db7 5cbd fba4 863c 03bd 933d
00000080: ba0a f1bc 0cc1 c13d e28c 1a3d 96ce 21bc
00000090: ae05 c4bd 65bb 03bd 3bf6 3fbd 9d3b 8b3d
000000a0: f09a 1e3d 6ea1 933c 7656 9ebd c517 e8bb
000000b0: b0ca 0cbe 3c3e f4bd 7589 e33c dea3 303d
000000c0: 6bac 7f3d 04dd b8bd becc 0e3e ce75 ab3d
000000d0: ea14 12bd 705e c4bc 3628 0b3e 9b38 9ebd
000000e0: c544 083e a2a9 133e 61e4 e1bb 9e44 ca3d
000000f0: 699d 9b3c 0d8e 53bd a1f1 dd3c 0f8b 593d
00000100: c837 f5bb 9446 113d 3592 7d3d f984 61bd
00000110: ee88 933d c710 6fbb d83a a03c dcaa 30bc
00000120: 2822 7d3d 8617 cf3d 542c 833b 77f8 e63c
00000130: f2ea 563c df5a be3c 7a9d 893d 26ac cfbd
00000140: f94d 083d 876b 093d d7f0 84bd 24c7 6d3d
00000150: 591a a5bc 6b7c 0abd ea8c 21be bee7 8ebc
00000160: 3db9 0fbe 294b e23c dfad c2bd 4335 f13d
00000170: 27f9 8639 694a d3ba b7ec 2e3d 4aab 3b3c
00000180: f100 223d 5d76 633d 8319 173d a496 863d
00000190: 2775 61bb 4c35 f8bc e5e1 7ebd 9530 84bb
000001a0: 035c 88bd 013c ec3c ab01 713d f82a 153e
000001b0: cb1d bd3c b92e 853c 4fb6 8fbd e74b c1bd
000001c0: e0a4 bc3d f31a 18be 1663 9b3d 6b97 d33d
000001d0: 079f 213d d8af 073d 8129 603c 8997 3d3c
000001e0: dfa2 ce3d ab20 80bd d4d2 763d 0027 d6bc
000001f0: 2fc8 043d 8013 bdbb 2ea4 dabd 3790 efbc
00000200: 76e5 07be 5e67 04be 8787 853d d1ae 32bd
00000210: 6dbf dd3c bfe0 b6bd d9a7 f9bb 5bbc 813c
00000220: 00c2 48bc f99d 80bd 8432 7fbd 2666 753c
00000230: e699 d7bc 7fde 74bd 0397 353d 83d6 bc3d
00000240: 60a6 07bd 99c5 9bbc fc05 00bd a184 5f3d
00000250: 03d2 013d 50ca 2ebc fc9e 933d ec06 07bd
00000260: 1d3a 21bd fed3 9dbc 803e 0f3d 2b35 e73d
00000270: cd9b d3bc 6123 20bc 6490 033e 160b b73d
00000280: 57a3 abbc acd9 4abc 8210 363d 0b39 813d
00000290: 7bb5 c9bc b7c9 773d fc14 263b 70af 78bd
000002a0: d6d7 1f3b 9587 773d ccef 0e3e 15ae 7c3d
000002b0: 8378 8bbd 7d6f 6cbb 256f f53d 5a42 b53d
000002c0: 0eb4 c2bc 0282 c8bd 1af6 e0bd df88 d83c
000002d0: 6efc f53d 4d63 04bd 122a 1abd 6134 313d
000002e0: 7ad3 163d 6d88 2a3d a334 38bd 2d48 60ba
000002f0: d191 2f3a eee6 28bc bf3b bbbc 30b6 18bd
00000300: e2ee 733d 90f6 60bd bcc2 98bc a239 aebc
00000310: c658 e53c f55c 9f3d f693 40bd 42af 23bd
00000320: a4d7 0fbd ac78 033e 9e01 0bbc bd21 13bd
00000330: 7b27 16be e281 253c 80b7 e4bb cbcc 04bd
00000340: f1ee 063e 371f 0f3d d664 59bd 3e27 f0bc
00000350: a178 cbbd 8507 d73b 3662 7cbc 733e 72bd
00000360: c6fc 34bd 9c7f dcbd 3e10 80bd 367c 74bd
00000370: 555f 9cbd e865 9f3d 9034 a0bd 6f24 18bd
00000380: 5360 85ba 70fc c33d 5607 b3bd 2c53 b23c
00000390: 6a5b ce3c 96aa c33a 3b8c 92bd 567d e63c
000003a0: 77f2 1bbd bc41 babd 382a 98bd 7444 993c
000003b0: c883 acbc 51bc 593d 0453 d43c 32f5 453b
000003c0: 8c01 c2bb ab09 d6bc 51f9 823d 5b4a 693d
000003d0: e082 19be a775 b23b 63d1 f7bc 5970 813d
000003e0: a35d 763d d7d7 a9bc e296 653c dcdb 0d3e
000003f0: 631f 6b3d 8335 87bd 4d52 f63c f2f9 ac3c
0.14205061 -0.0336512 -0.046021108 0.10390938 0.10426322 0.0663104 -0.017522346 -0.107156925
0.034481674 0.02155874 0.05282929 -0.07768667 0.024712197 -0.055627108 -0.02643017 -0.042071827
-0.07836209 0.0024053168 0.006418273 -0.059957765 -0.026825847 0.04956461 0.04328284 -0.037308298
-0.024000535 0.0012318039 -0.07651577 -0.0033133968 0.020875305 -0.053885628 0.01643609 0.072137855
-0.02942406 0.09460649 0.037732013 -0.009875914 -0.09571396 -0.032161135 -0.046865683 0.0679848
0.03872198 0.018021312 -0.07731335 -0.0070829117 -0.13749194 -0.11925933 0.027775506 0.043125026
0.06242029 -0.090265304 0.1394529 0.08372079 -0.035664476 -0.023970813 0.13589558 -0.077256404
0.13307483 0.14420179 -0.00689368 0.09876369 0.018995957 -0.051649142 0.027092757 0.053111132
-0.0074834563 0.0354677 0.061907012 -0.055058453 0.07203852 -0.0036478506 0.019559309 -0.010782924
0.061800152 0.101119086 0.004003087 0.02819465 0.013117539 0.02323669 0.067194894 -0.101402566
0.033277486 0.03354981 -0.06491249 0.058051243 -0.020154165 -0.03381006 -0.1577641 -0.017444488
-0.14035507 0.02762373 -0.095058195 0.11777737 0.00025744105 -0.0016120198 0.042706218 0.011454413
0.03955168 0.055532802 0.036889564 0.06571701 -0.0034402104 -0.030298851 -0.06222715 -0.0040341117
-0.06658175 0.028837206 0.05883948 0.14567173 0.023085495 0.01625763 -0.070171945 -0.09438305
0.09211135 -0.1485403 0.075872585 0.10331615 0.0394583 0.033126682 0.01368177 0.011571773
0.10089659 -0.06256231 0.060259655 -0.026141644 0.032417472 -0.005770147 -0.10675846 -0.029243572
-0.13271126 -0.12930056 0.065199904 -0.04362375 0.027068818 -0.08929586 -0.007618886 0.015836885
-0.012253284 -0.06280131 -0.062304035 0.014977967 -0.026318502 -0.0597825 0.04433347 0.09220602
-0.033117652 -0.01901512 -0.031255707 0.054569844 0.031694423 -0.010668352 0.07208058 -0.032965586
-0.03936206 -0.019266125 0.034971714 0.11289438 -0.025831128 -0.00977406 0.1284805 0.08937661
-0.02095191 -0.012380999 0.044449337 0.06309708 -0.02462267 0.060495105 0.0025342098 -0.060714185
0.0024390123 0.060432035 0.13958663 0.061689455 -0.06810095 -0.0036077194 0.1198409 0.08850546
-0.023767497 -0.09790422 -0.1098444 0.026432453 0.12011038 -0.032321263 -0.037637778 0.043262843
0.036822774 0.041634012 -0.044972073 -0.0008555677 0.00066974486 -0.010308964 -0.022855638 -0.037283123
0.05955399 -0.05492264 -0.018647544 -0.021267716 0.027996432 0.07781402 -0.047016107 -0.03996206
-0.03511776 0.12839001 -0.008484272 -0.035920847 -0.14663498 0.010101767 -0.0069798827 -0.03242187
0.13177086 0.03494188 -0.05307468 -0.029315587 -0.099351175 0.0065621757 -0.015404275 -0.059141587
-0.044186376 -0.10766527 -0.06253098 -0.05968877 -0.07635371 0.07783109 -0.078225255 -0.03714412
-0.0010175802 0.09569633 -0.087416336 0.021768175 0.025190074 0.0014928158 -0.07155653 0.028135937
-0.03807303 -0.09094569 -0.074299276 0.018709399 -0.021058932 0.05315811 0.025918491 0.0030205962
-0.0059205946 -0.026127657 0.063952096 0.056955677 -0.14991331 0.005446154 -0.03025121 0.06320257
0.060147893 -0.020732803 0.014013024 0.13853401 0.05740298 -0.066020034 0.030068541 0.021115277

bias f4 [32]
00000000: faea e432 7f59 8433 e940 23b3 d995 b033
00000010: dfc0 fdb2 dcfb 8b34 e8f6 cab3 2e63 1fb3
00000020: 6624 38b3 8ee2 5034 3748 b433 d370 76b3
00000030: 3b67 9532 c2ae 39b3 693a 35b4 b8ff 20b4
00000040: 0ec0 19b3 ec16 b9af 6e23 0733 185a bdb2
00000050: 4956 9533 94f9 6ab3 9cc8 c6b3 6ed9 2eb3
00000060: f57c cd33 f1d7 e0b2 df0f dd32 9398 8134
00000070: a67e 28b3 5976 d5b2 dafa 0333 b518 21b3
2.6649548e-08 6.163008e-08 -3.801043e-08 8.222896e-08 -2.9540784e-08 2.607402e-07 -9.45127e-08 -3.7110276e-08
-4.2873943e-08 1.945393e-07 8.395039e-08 -5.737895e-08 1.7392827e-08 -4.323261e-08 -1.6878188e-07 -1.4994191e-07
-3.579776e-08 -3.366759e-10 3.146436e-08 -2.2043466e-08 6.9540484e-08 -5.470936e-08 -9.256584e-08 -4.0710283e-08
9.568786e-08 -2.617523e-08 2.5735003e-08 2.4139135e-07 -3.9230734e-08 -2.4850282e-08 3.0728962e-08 -3.7508205e-08

weight f4 [32]
00000000: 0664 7d3f c131 7d3f ca50 7d3f 8684 763f
00000010: 5979 7c3f ce29 7f3f 98c4 7e3f 5b07 7b3f
00000020: 0045 7f3f 4e80 7e3f c1d6 813f 34c7 7f3f
00000030: 098f 7f3f fdc2 783f ca2e 7b3f ba28 7e3f
00000040: 047d 7c3f bf39 7d3f 51a3 7c3f e093 7f3f
00000050: 9e76 773f 61aa 7c3f b8ad 7b3f 48dd 7b3f
00000060: 8c59 7e3f ec8a 803f e12a 813f cceb 803f
00000070: c77c 7f3f 6b70 823f e0f5 7d3f 0d29 7d3f
0.9898075 0.98904043 0.989514 0.96295965 0.9862266 0.99673164 0.9951873 0.980581
0.9971466 0.9941453 1.0143663 0.99913335 0.9982763 0.9717253 0.9811827 0.99280894
0.9862826 0.9891624 0.986867 0.99835014 0.9666537 0.9869748 0.9831195 0.98384523
0.9935539 1.0042396 1.0091211 1.007196 0.9979977 1.0190557 0.992033 0.98890764

bias f4 [32]
00000000: f25f 363b 9cf8 ffbb 2236 36bb d750 96bc
00000010: 9eb4 3cbb 1480 debb e57b a1bb 97d9 b4ba
00000020: e767 353b 443b 993b df49 743c d492 07bb
00000030: cf0f 143b 5bc1 4ebc 19ca e4bc 0dee 8f3a
00000040: ff01 42ba 2dae ebbb 18f0 55bb 74ef b1ba
00000050: 5272 6bbc cac3 a3bb 2c7b c1bc 49b6 47bc
00000060: f2dc a73b bc25 0f3c bb58 b93c 6f00 7b3c
00000070: 0327 96ba 5ad0 b53c 43c2 49bb 1f45 bcbb
0.0027828184 -0.007811619 -0.0027803262 -0.018349094 -0.002879418 -0.0067901704 -0.0049280995 -0.0013797757
0.0027680339 0.0046762545 0.01491019 -0.0020686882 0.002259243 -0.012619342 -0.027928399 0.0010980979
-0.000740081 -0.007192394 -0.0032644328 -0.0013575391 -0.014370518 -0.004997705 -0.023618303 -0.012189456
0.0051227743 0.008737024 0.022625318 0.015319928 -0.0011455718 0.022194076 -0.0030785955 -0.0057455446

running_mean f4 [32]
00000000: 798d 043f 088e 82bf 9ec3 84bf a46a 5cbb
00000010: b0cb 933f 8634 e23d 0f65 3ebf 529d 233f
00000020: 5636 dfbe fa2a 71be d61c bd3e b86a a8bf
00000030: 7b18 95bf 082a b83d e163 dbbe 4eb6 72bf
00000040: 5a82 043f bf5f afbf 808d 8e3f 766d 0d3e
00000050: 83b9 463f e85e 9dbf c107 8cbd aeb2 37bf
00000060: a30e 00bf 6545 903f 449d d53e 914e 2ebf
00000070: 91bb 1e3f 27d7 123f 2c00 35bf 79e5 613f
0.5177837 -1.0199594 -1.0372198 -0.0033632899 1.1546535 0.11045174 -0.74372953 0.63911927
-0.43596143 -0.2355155 0.36936063 -1.3157568 -1.1648096 0.08992392 -0.4284964 -0.94809425
0.517614 -1.3701094 1.1136932 0.13811287 0.7762682 -1.2294588 -0.068374164 -0.7175702
-0.50022334 1.1271178 0.41721547 -0.6808863 0.62004954 0.57359546 -0.7070339 0.8824077

running_var f4 [32]
00000000: 33d2 533f 9ec9 4140 06b3 2940 61b5 443f
00000010: b5d3 c740 f76d 873f 2821 f73f 75ef 7c40
00000020: c840 e53f 010e 923f ff90 b03f e2c8 2b40
00000030: 7d44 8140 9e19 cb3e d1df 023f 8b9a 0240
00000040: a6fe 3c40 3e4d 3940 3ee5 1440 996d 0940
00000050: 12d0 d23f 7d22 ae40 f6ce 713f a806 de3f
00000060: 0c7c be3f e132 9c3f 4a26 1740 6d70 063f
00000070: 1e5b fd3f c2a6 2940 baf6 2140 345d de3f
0.82742614 3.0279307 2.6515517 0.7683926 6.244593 1.0580434 1.9306993 3.9521153
1.7910395 1.1410524 1.3794249 2.684136 4.0396104 0.39667982 0.51122767 2.0406826
2.9530425 2.8953395 2.3264918 2.1473143 1.6469748 5.44171 0.9445642 1.7345781
1.4881606 1.2203027 2.361712 0.525153 1.9793432 2.650803 2.530684 1.7372193

weight f4 [128, 1120]
00000000: 9359 4fbc f14f f7bc a1da 783d 95e0 9d3d
00000010: f099 18bd c54f e0bd a94e a43c 49ea 67bd
00000020: ba52 e5bc 27fb 753c d968 73bc eed4 0d3b
00000030: 7442 1eb9 7fdd 263d 8b8b 68bd b7e9 cb3b
00000040: 93d0 25bd b0b5 5d3d 4582 af3d f58b e1bc
00000050: e39f 4cbb c021 4dbd f965 483d 15e2 03bb
00000060: 9884 363d f222 f3bc 1fa6 2cbc 8398 cf3c
00000070: 2bae 093d 53c3 93bc 4bdb 873d b621 a8bc
00000080: 4227 22bd 5077 023b f1d3 95bd c48d 753c
00000090: f2b3 893d 971d af3c 2add 9abc 851b 383c
000000a0: a7e2 973d eb58 74bc b4b3 8ebd d8fa ea3b
000000b0: 30cb b5bc 6730 853c 21b9 e0bc dfec 553d
000000c0: 2bc3 67bc 705c d1bb f41b 1b3d 4b5e 42bd
000000d0: f100 b3bd 3535 c1bc 25e9 323d b101 d83b
000000e0: 86d8 563c 1a45 a2bc f3d9 1c3c 20ba 833d
000000f0: 3689 2bbd 9494 95bc bdb4 703b 49c4 29bc
00000100: 2521 14bc 1cb9 8cbd f6f4 60bd 1c98 1ebc
00000110: 987b d43c 7ff2 70bb 44d6 2cbd 03b3 81bd
00000120: 81e2 d23c 712e 2c3c 0779 4e3d fa18 4a3b
00000130: 25e4 edbc fcd6 f13b b46e b63b d8b5 5abd
00000140: f714 753d f23a 57bd 43eb 69bc 09e8 e3bc
00000150: 3118 5abd c9b4 a93c 6fe6 1e3d f510 0d3d
00000160: 0981 59bd caf7 ecbd 4e40 4cbd 74fa a93c
00000170: c6ba 07bd 1639 6b3c 4abe c0bc a3be 7ebd
00000180: 5e58 1dbd 0718 0b3d bd6d 383d bb89 1ebd
00000190: 4564 75bd 4f08 76bc c688 b53c 7161 87bc
000001a0: 8629 a6bd 375c 5cbd df30 093d 1c7f 0c3d
000001b0: 40f3 6eba 6bd9 a13c c256 043d 69dd a9bd
000001c0: 6647 743d c4b3 973c 7972 29bd 4017 c8bc
000001d0: 3c46 cebb e9c9 a6bc 1a42 403d a30e d2bd
000001e0: 4116 0c3c 13e3 d5bc 35ba c83b c7d4 29bd
000001f0: d474 8d3c 5ba0 103c c450 60bd b808 2cbc
00000200: fa97 953c d462 523c 978e 5b3c 5e60 90bd
00000210: 31f1 b53c 6fce 403c f366 1139 8ef0 4b3c
00000220: 56b9 e73a a82d 533d d0e8 fdb9 bbf4 7c3b
00000230: 9170 88bd c8bc 523d 5e6f c7bd f059 45bd
00000240: ca3f 42bd 1065 07bd 3585 a9bd 5c87 0a3d
00000250: cfda 7dbd e5af 91ba 11d8 903d f730 2e3c
00000260: 0da9 253c f7ba 1b3d c33e 1bbb d7ab 0a3d
00000270: 128a 7fbc 8bc2 823d 9fa4 6c3c 9860 273d
00000280: 5ba5 87bc dc07 483c 1fdf 023d 4ac9 58bb
00000290: 0c89 353d 438d d73d 625c 61bd ea73 c13d
000002a0: 92a5 dabc 2c21 7e3d a113 ddbd f45d 923d
000002b0: cba0 80bc f227 a9bd e06f f7bb f9ca 4e3d
000002c0: cabf 02be c3a3 14bd 74a6 083c 979c 49bc
000002d0: bfab c63d 1f0b 19bd 0500 f13c 02b7 45bd
000002e0: b1c7 aebd f14d 1c3d e048 c43b fe73 393a
000002f0: f060 233d 501f 973c a9dc 85bc 87dc ea3c
00000300: d49c 433d 3644 82bb fd0c 87bd 990c cb3b
00000310: aa45 d2bc 5b0a 9abd a6e8 9e3d ce29 3abd
00000320: bb5a cdbc fad8 423d 415b 6c3d 7849 1e3d
00000330: ceab a7bd e642 673d 7ad0 4b3d f27c 9c3d
00000340: e4f3 823d 6a77 9dbd 2dc0 81bc 4ea4 3abc
00000350: f2a8 95bc a5ef 9ebd 10c5 fabc 23eb 45bd
00000360: 2c4a 98bd f989 75bd fc69 ff3c edfb 97bd
00000370: 17a4 283d 7e1a 09bd 4037 203d 807c 113c
00000380: 04fa c03c 0c79 ad3d bc8c 26bd d388 363d
00000390: d3ed 30ba 0c5f 2f3c 4f43 7ebd 9c21 573d
000003a0: 2876 dbbc 9d8f 62bd 5f22 113c 83e3 a63c
000003b0: 3c7e 42bd 5a80 023d cf9f 97bd 1961 9f3c
000003c0: 1346 f23c 8820 aa3d b5e4 81bd 38c2 eebb
000003d0: 1e8e a43b eb50 843b 9cb2 8bbd 59ec a53c
000003e0: ff06 a3bc c226 b7bb 222c cdba fb54 8fbd
000003f0: 37fc 453d eee1 b0b9 9804 b6bd a474 29bd
-0.0126556335 -0.030189486 0.060755376 0.07708851 -0.03725618 -0.10952715 0.02005704 -0.056619916
-0.027993549 0.015013493 -0.014856541 0.0021641809 -0.0001509281 0.04073858 -0.056773704 0.0062229293
-0.040482115 0.05412835 0.08569769 -0.027532557 -0.003122323 -0.050081015 0.048925374 -0.002012377
0.044560045 -0.02967975 -0.010537653 0.025341278 0.033613365 -0.018037474 0.06633624 -0.020523887
-0.03958822 0.0019907542 -0.07315815 0.014987413 0.06723775 0.021376414 -0.018904287 0.01123703
0.074162774 -0.014913778 -0.069678694 0.007171016 -0.022191614 0.016258432 -0.027432026 0.05222785
-0.014145653 -0.0063891932 0.037868455 -0.047453206 -0.08740414 -0.023584941 0.043679375 0.0065919985
0.013113147 -0.01980834 0.0095734475 0.06431985 -0.0418789 -0.018259324 0.0036728822 -0.010361739
-0.009041105 -0.06871244 -0.054921113 -0.00967982 0.02593784 -0.0036765633 -0.042196527 -0.06332972
0.025742771 0.010509119 0.05040839 0.003083764 -0.029039452 0.0073803645 0.005567396 -0.053396076
0.059834447 -0.05254645 -0.014277282 -0.027820604 -0.053245727 0.020716088 0.038793977 0.03444
-0.053101573 -0.115706995 -0.049866013 0.020749308 -0.033137105 0.014356872 -0.023528237 -0.062193524
-0.03841435 0.03395846 0.04502653 -0.03870557 -0.059910078 -0.015016629 0.022159945 -0.016525956
-0.08113389 -0.05379888 0.033493873 0.03430091 -0.00091152266 0.019756993 0.0323093 -0.08294184
0.059638403 0.018518336 -0.041368935 -0.024425149 -0.0062949937 -0.02035995 0.04693804 -0.10256698
0.008550228 -0.026109254 0.0061257132 -0.041462686 0.017267622 0.008827294 -0.054764524 -0.010500126
0.018260945 0.012840945 0.013400695 -0.070496306 0.022209736 0.011767968 0.00013866629 0.012447489
0.0017679136 0.051557213 -0.0004842938 0.003859802 -0.06662095 0.051449567 -0.097380385 -0.048181474
-0.047424115 -0.033055365 -0.0827736 0.033820495 -0.06197625 -0.0011115043 0.070724614 0.010631791
0.010111106 0.0380201 -0.0023688532 0.033855285 -0.015596883 0.063847624 0.014443546 0.040863603
-0.01655834 0.012208905 0.031951066 -0.0033078962 0.04432015 0.105249904 -0.055019744 0.09445937
-0.026690278 0.062043354 -0.107947595 0.071468264 -0.015701672 -0.08259572 -0.0075511783 0.05048654
-0.12768474 -0.036288988 0.008340467 -0.0123054 0.09700727 -0.03736412 0.029418955 -0.048270233
-0.08534182 0.03816027 0.0059901327 0.0007074474 0.03988737 0.018447548 -0.01634057 0.028669609
0.047756985 -0.0039754165 -0.06594274 0.00619657 -0.025667984 -0.075215064 0.07759218 -0.045450024
-0.025067678 0.047570206 0.057704214 0.038644284 -0.08187066 0.056460284 0.049759366 0.07641019
0.06394175 -0.07688792 -0.015838707 -0.011391712 -0.018269036 -0.07760552 -0.030611545 -0.048319947
-0.07436022 -0.059946034 0.031178467 -0.07421098 0.041172113 -0.03347253 0.03911519 0.008879781
0.023556717 0.084703535 -0.04066156 0.04456408 -0.0006749306 0.010703813 -0.06207591 0.052522287
-0.02678974 -0.05531274 0.008858292 0.020372158 -0.047483668 0.031860687 -0.07403528 0.01945548
0.02957443 0.08306986 -0.063424505 -0.0072863363 0.0050218245 0.0040379665 -0.068211764 0.0202543
-0.019900797 -0.005589337 -0.0015653411 -0.069986306 0.048336234 -0.00033737667 -0.08887595 -0.041371003

bias f4 [128]
00000000: 996d a8bb 2383 8dbb 7878 bd3b 4a06 0d3c
00000010: fe78 cfbb f714 cabb 8da1 f4ba c3ce b13b
00000020: 78e9 b9bb 1e47 7fbb 3726 f7b8 94e7 983a
00000030: 3685 3c3c b635 15bc 6464 04bb 99ec b53b
00000040: c92c 9b3a 59f0 99b8 9ee9 37bb 26b3 9cba
00000050: b815 d1bb 1c85 9abc dc59 dcbb c374 aabb
00000060: b1d4 b8bb 5ef2 b7bb 6b58 dd3b b24d b7bb
00000070: 810c 5c38 37d3 273c b448 8fbb 4d59 82bc
00000080: 5362 c738 9c9c 1e3b 1aa2 763b b76d 7dbb
00000090: 5019 f4bb a61d 5abc cbde 80bb 589a acbb
000000a0: 0661 463b b7d5 593b cea2 f23a 687a 6f3a
000000b0: 44ae f0ba 4653 1abb 14c7 57bb 717f 53bb
000000c0: a3ac ae3b a7f7 123c fe42 4cb9 3792 973b
000000d0: 8abb 7fbb a6b0 89bc f963 15bc c16d b13b
000000e0: 281b d43a 7e56 56bb 7da6 953b 6d03 f63b
000000f0: 1780 a23c 4f56 083b f1eb 633a b18c b9bb
00000100: c6de 693b 3988 f238 0f6a 50bc 5f25 e6bb
00000110: ca76 9438 a500 033c 176f 983b 63a8 8d3b
00000120: 203d cb3c fd14 d039 2407 863a 3ae0 1ab9
00000130: fe59 50bb d832 b63a de40 c6bb 9fee 0e3c
00000140: 5116 1abc d781 d23a aa16 ef3a c7f8 f1ba
00000150: b30c 30bc 90f0 09bc 34d6 9c3b 17a8 04bc
00000160: 5288 973b 710e e4bb 7687 91bb 4225 be3b
00000170: 5828 86bb 1a7b 083b 5da5 99ba ce1c 403b
00000180: defe 33bc 3fd6 8ebb 4317 c73b af56 90bb
00000190: 42c9 c53b 4c1b b73b fc24 a1bc 29d1 bbbb
000001a0: 6231 fbba 31e0 3fbb edc6 e1ba 6096 67bc
000001b0: 39c8 f03a 08bc 98ba 6c7e 22bb c5c9 a539
000001c0: aeee 813a 2222 a23b ff45 d43b 1208 35ba
000001d0: 6018 443b 0280 28bb d2d8 893c 588d 73bb
000001e0: 1f8a 27bb efd8 52bb 3d78 9dba 34d2 c838
000001f0: 3e2c 86b9 626c 8b3c 20ec 6f3b b360 aebb
-0.005140018 -0.004318611 0.0057821833 0.008607456 -0.006331562 -0.00616705 -0.0018663869 0.0054262592
-0.0056735836 -0.0038952301 -0.00011784996 0.0011665695 0.011506369 -0.009107044 -0.002020144 0.0055518863
0.0011838909 -7.340377e-05 -0.002806283 -0.0011955246 -0.006380763 -0.0188623 -0.0067245793 -0.0052019074
-0.005640589 -0.005613609 0.006754925 -0.005593979 5.2463733e-05 0.010243229 -0.0043726806 -0.015911723
9.507374e-05 0.0024202233 0.003763324 -0.0038670131 -0.0074493065 -0.013312733 -0.003932809 -0.0052674226
0.0030270233 0.0033238956 0.0018511654 0.00091353664 -0.0018362482 -0.002354817 -0.0032925056 -0.0032272006
0.0053306385 0.008970178 -0.00019479913 0.0046255845 -0.0039021694 -0.016807865 -0.009118074 0.005414695
0.001618241 -0.0032705362 0.004566966 0.0075077326 0.019836469 0.0020803397 0.0008694521 -0.0056625237
0.0035685762 0.00011564833 -0.012720599 -0.007023498 7.079316e-05 0.007995759 0.004651915 0.004323052
0.02480942 0.0003968849 0.0010225517 -0.00014770115 -0.003179192 0.0013900651 -0.0060502132 0.008723884
-0.009404735 0.0016060424 0.0018241007 -0.0018460982 -0.010745215 -0.008419171 0.004786277 -0.008096716
0.004624405 -0.0069597294 -0.004441197 0.0058027813 -0.004094165 0.0020825327 -0.0011722256 0.0029314044
-0.010986058 -0.004359036 0.006075771 -0.0044048647 0.0060359547 0.005587971 -0.019670956 -0.005731721
-0.0019164497 -0.0029277916 -0.0017225422 -0.014134973 0.0018370218 -0.0011652717 -0.0024794592 0.00031621582
0.0009913051 0.0049479166 0.0064780707 -0.00069058046 0.0029921755 -0.0025711064 0.01682702 -0.0037163105
-0.0025564504 -0.003217276 -0.0012013983 9.5758965e-05 -0.00025591435 0.017019454 0.0036609247 -0.005321586

weight f4 [1, 128]
00000000: 3645 78bd 4b1b 05be 1334 af3c 78dd 83bc
00000010: 7613 61bd d151 50be 4cd1 45bd a382 73bc
00000020: 113d ce3d cf76 ff3d 5484 f83c b246 ad3c
00000030: 4304 cd3b 210d 8bbd 0c91 0a3d d83d 33ba
00000040: 6083 383c a131 66bd 0fff 293e 2e71 a0bd
00000050: 8317 253e fd8f 5ebd 47e9 adbd ab6e 9abd
00000060: 9b91 f03d 5856 aa3d b34d f63b aa40 3fbd
00000070: 4dd1 2bbd 93cb 593d 689c b03d ab63 49bd
00000080: 638d 7b3d 0ee6 ccba 121a 3d3e b2ab 383e
00000090: b843 0dbe dd19 a1bd 2f76 873d 166d acbd
000000a0: 0c7a f73c a20d 8fbc d560 af3c 742c 833d
000000b0: a464 3cbd a554 8d3d 0f28 0dbe c111 d9bd
000000c0: 37d1 c63c 808f e83c 36a3 8f3d 17e8 13bd
000000d0: 4053 0c3e fd10 18be 3e58 f7bd 66d8 e53c
000000e0: 8a28 e33b 9d6f afbd 827a 99bc e909 25bc
000000f0: 32e4 853c b332 c13d 5187 f8bc ab8d 73bd
00000100: fe79 973c 1dcd 92bc 01a2 0fbd 8ed8 92bd
00000110: 4325 d3bc 3e98 3dba 58ed db3c a3ce 5abc
00000120: d057 1a3c da5f 553d b376 a8bc c277 f2bc
00000130: 4e53 bc3d 9a63 d23d 3f98 38bd d903 823c
00000140: fac0 093e 297d a23c 3003 4e3d c1bc 09bd
00000150: 72bd f6bc 009c e0bd e2af 173d b093 5fbe
00000160: e177 d2bb 627b c2bd 7586 e3bd d381 693a
00000170: 94c6 3c3d b791 26bd 6e85 123e e2dd f43c
00000180: c48f f3bd f138 063e cac5 423d b641 ffbd
00000190: ae63 f938 edb6 a63d 4dac ebbd ebec 113e
000001a0: 5de0 ce3d ad46 ac3d 0053 bc3d 276d b4bd
000001b0: cd04 1d3d c2ff 183d eb59 f03d 5f52 d9bc
000001c0: 979b b03d 660e d23b 13b8 13bc 4592 1d3c
000001d0: 0094 613d f42c 02bd 5a66 243c 401b 2cbd
000001e0: 9a0e 343d 7cc9 66bd 017b f93c f5a4 633d
000001f0: 5739 42bd f371 a63b 8ec0 f6bb 6c85 dfbd
-0.06061288 -0.12998693 0.021387136 -0.016096815 -0.0549502 -0.2034371 -0.048295304 -0.014862689
0.10070241 0.12473833 0.030336536 0.021151874 0.0062566116 -0.067896135 0.033829734 -0.00068375235
0.011261791 -0.056199674 0.16601203 -0.07834087 0.1612225 -0.054336537 -0.0849176 -0.075406395
0.11746522 0.0831725 0.0075165867 -0.046692528 -0.04194765 0.05317266 0.08623582 -0.049167316
0.061414134 -0.0015632526 0.18466976 0.18034247 -0.13795364 -0.07866261 0.066143386 -0.08419244
0.030209564 -0.017462555 0.021408478 0.06404963 -0.045994416 0.0690091 -0.13784812 -0.105990894
0.024269683 0.028388739 0.07013552 -0.03611001 0.13703632 -0.1485023 -0.12077378 0.028057288
0.006932323 -0.085662104 -0.018735174 -0.010073164 0.016344164 0.09433498 -0.030337961 -0.059461277
0.018490788 -0.017920071 -0.03506661 -0.07170211 -0.025774604 -0.00072324637 0.026846573 -0.01335493
0.00942035 0.052093364 -0.020564413 -0.02959812 0.091955766 0.10272904 -0.04506707 0.015870975
0.13452521 0.019835072 0.05029601 -0.033627275 -0.030119631 -0.10967255 0.03703297 -0.21833682
-0.006422982 -0.0949619 -0.1110963 0.000890759 0.046087816 -0.04066631 0.14308712 0.029890958
-0.118926555 0.13107659 0.047551908 -0.12463705 0.00011891812 0.08140359 -0.11507473 0.14250533
0.10101388 0.08411918 0.091955185 -0.08809882 0.038334657 0.037353285 0.117359005 -0.026528535
0.086234264 0.006410408 -0.009016055 0.009617393 0.055072784 -0.031781152 0.010034168 -0.042018175
0.043959238 -0.056344494 0.03045416 0.055577237 -0.047417965 0.005079502 -0.0075302785 -0.1091412

weight f4 [3, 128]
00000000: 82e7 8aba e0c8 553c 3150 1d3d 464c 7a3d
00000010: a95e 073c 6c4a 903c 7e6b 133b 30b4 db3c
00000020: a28a 17bd b042 843b 2a40 073d 919f b43c
00000030: 6119 d13c 8a1d 9bbc b1a6 b8bd cae5 23bd
00000040: beea de3c 3d64 31bc 337b 2cbc 5adc 9abc
00000050: b639 99ba 10f5 b03c cb7f 06bc 0d29 8b3c
00000060: 245d 753c a3df 7dbd 5327 94bd 1a20 b1bc
00000070: 7417 97bc 522a 4c3c fc2a 10bd 95bc 7b3c
00000080: cc9b 89bc 2b9c 2fbd fd62 ce3b e204 d0bb
00000090: fe55 d3bb d271 413b 4b73 73bc 94ac aabc
000000a0: e303 e73c 69a6 16bd 5270 b6bd f071 2ebd
000000b0: 716c 41bd b123 afbb 72dd 8bbc bc4a 31ba
000000c0: 12c3 6ebd 58cf 933d 6792 acbb f00d 123d
000000d0: 06ea 81bb 124c 243c a99b d63b 75b5 b8bd
000000e0: f383 50bd f475 edbc 03e5 243d ce46 8abd
000000f0: 729a a83d 004f 433c 2839 0c3d 8ca7 36bd
00000100: bf59 2abd 6691 1abd 8414 e3bb 3093 9cbc
00000110: af2e 2abc fa55 adbd 2c78 f73b d5df 6bbd
00000120: 2caa 823d 510e aebc 010b cf3c cd8f 413c
00000130: 4390 a93b 10c5 823c 1a89 ae3c 5524 aebd
00000140: f423 863b e5d0 27bc 648e 2c3d 839c 753c
00000150: 1c8a b53c 396a c5bb b983 a13c 4e05 043c
00000160: dbe8 263c a2a1 71bc e93f 903c 9430 3fbd
00000170: fe65 3abc f1e0 aebd d632 48bd 83d9 f63b
00000180: 0003 fc38 889e fc3c 92a6 6d3c e3f3 bf3b
00000190: cd25 62bd e83f 993c 5746 403c 7cd9 e23c
000001a0: 9716 223c d2bf 71bd 2a0e e43c 7628 94bb
000001b0: fc1b d0bd afae 2fbb 97bd 7cbc 6f17 413a
000001c0: 126f 32bc 1c0f 69bd 576d 5bbd 2bb8 27bc
000001d0: 2020 04bd 7db0 c6bc eab0 283d 22f5 3bbc
000001e0: e870 a1bc ce2d c0bc bff4 69bd 88d9 a2bd
000001f0: da6e c43c 2c61 123d 13b9 7ebd 4be7 043d
00000200: 019b 5e39 e3b7 b2bb 60a0 25bd bff2 01bd
00000210: 9cad 94bc 0e17 69bc 0e5c 6ebc 8cfe 98bc
00000220: 03dc 9438 abbd cebb ebdd 9abc c00e 18bc
00000230: 23cb 48bd 1094 ef3a e78c 593d 89eb 0bbb
00000240: 47cc d3bc 31d0 1abb 776f 4eba 96cc 20bc
00000250: 8077 5abb 6eda fdbb b596 653c 20ff 8abc
00000260: 5f94 bfbc 5b9a 593c 7d33 ce3c 65fe 233d
00000270: a02e bcbc 376b 6b3b cc68 f1bc fa3d b8ba
00000280: 12d6 a83c 7311 a73c 2dbb 923b a251 01bb
00000290: 3440 e23b b00b 12bc 95ef 9d3c 4470 193b
000002a0: 19b9 36bd dce9 503c dafc 3a3d 4f12 98bc
000002b0: f821 c63c 1619 aabc 51a7 843c a1ab c93c
000002c0: c93d 183d 8a6f 53bd 04ce b9bc 9b39 49bd
000002d0: 7e47 04bc e62d 3538 46db 133c 7a36 1e3d
000002e0: 80de 0a3b 7d21 dd3c 0ca4 b7bc b411 c13c
000002f0: 087b 93bd 74f2 a4ba 18cc ebbc 3e1b 2d3c
00000300: 8e98 f03b aaa8 2c3c 5ac2 dd3b da17 283a
00000310: 0f9b 10bd a7b1 073d 7b78 3dbd 2235 113c
00000320: baa9 97bd 1be9 17bd 8a4c 57bc 1f44 37bd
00000330: 4df3 11bd 2d89 bbbc 3e8f 59bc 49f4 013d
00000340: 5fae 6bbb c795 afbc 85b6 2ebd b1ae 25bd
00000350: 5cdf 87bc 7a30 993b 53a6 b6bc 71d2 2cbc
00000360: ac61 20bd 44e2 b63b a1ae 083c 06ed 68bc
00000370: fd2b 6ebc 2311 f03c 6198 d23b 07d5 f2bc
00000380: 11e8 4cbc 2fa1 0bbd d4cb 19bc 7315 d0bc
00000390: 5090 233c 6a5b 04bc 14cd b2bb 3de1 a4bc
000003a0: eb8f 27bd b990 303c d45a 85bd cc9c 673c
000003b0: dd57 483d fa46 a0bb 6546 393c d478 e1bc
000003c0: 1d7b 0b3d 9b33 453c 39b2 9fba 09da a0bc
000003d0: 4a99 09bd 775b 253d 753c 83bd 3d4c e23c
000003e0: a0e2 36bc b8c6 abba 99dc d23c b1bf 213d
000003f0: 26b2 a8bc 2020 6abd 46e7 173d 3e46 55bc
-0.0010597559 0.013048381 0.038406555 0.061107896 0.008262315 0.017613612 0.002249449 0.026819319
-0.036997445 0.00403627 0.033020176 0.022048743 0.025524797 -0.018934984 -0.09016169 -0.040014066
0.027211543 -0.010827121 -0.01052742 -0.0189039 -0.0011690173 0.02160123 -0.008209179 0.016987348
0.01497582 -0.061980855 -0.07234063 -0.021621753 -0.0184438 0.012461262 -0.035197243 0.015364786
-0.016797923 -0.042873543 0.0062984214 -0.0063482383 -0.00644946 0.0029517305 -0.014859031 -0.020834245
0.028200096 -0.036779795 -0.08908142 -0.042589128 -0.04722256 -0.005344831 -0.017073367 -0.00067631504
-0.058291502 0.07217282 -0.005266476 0.035657823 -0.0039646653 0.010027902 0.006549318 -0.09018985
-0.050907087 -0.028986908 0.040257465 -0.06751786 0.08232583 0.011920691 0.034234196 -0.04459338
-0.041589495 -0.03773632 -0.006929936 -0.019113153 -0.010387107 -0.08463664 0.0075521674 -0.05758651
0.06380114 -0.021247061 0.025273802 0.01181407 0.005174668 0.015963107 0.02130561 -0.085030235
0.0040936414 -0.010242675 0.04212798 0.014990929 0.022160582 -0.0060246256 0.01971613 0.008057905
0.010187353 -0.014748009 0.0176086 -0.046677187 -0.011376856 -0.08538998 -0.048876606 0.0075332536
0.00012016855 0.030837312 0.0145050455 0.005857931 -0.05521183 0.01870723 0.01173552 0.027691595
0.009893081 -0.059020825 0.027838785 -0.004521425 -0.101615876 -0.0026807 -0.015426061 0.00073658576
-0.010890739 -0.056899175 -0.05357107 -0.01023678 -0.0322572 -0.024254078 0.041184343 -0.011472018
-0.019707158 -0.023459341 -0.057118174 -0.07951647 0.02397864 0.0357372 -0.06218822 0.03244714
0.00021229313 -0.00545405 -0.04043615 -0.03172564 -0.01814919 -0.014226688 -0.014548315 -0.018676065
7.09817e-05 -0.0063092313 -0.018904647 -0.00928086 -0.04902185 0.0018278379 0.05311289 -0.0021350107
-0.025854243 -0.0023622627 -0.0007874886 -0.009814402 -0.0033335388 -0.007746986 0.014012982 -0.016967356
-0.023386179 0.01328143 0.025171036 0.04003753 -0.022971451 0.003592206 -0.029468916 -0.0014056556
0.02060989 0.020394063 0.0044778795 -0.0019732495 0.0069046263 -0.008913919 0.01927928 0.0023412863
-0.044610117 0.012751069 0.045651294 -0.018563418 0.02418612 -0.020763915 0.016193064 0.024617972
0.037168298 -0.051620044 -0.022681244 -0.049127202 -0.008073686 4.319651e-05 0.009024447 0.03862617
0.002118975 0.026993508 -0.02241709 0.023568012 -0.07201201 -0.0012584464 -0.028783843 0.010565577
0.0073424047 0.0105382595 0.0067675533 0.00064122456 -0.035304125 0.033128407 -0.046257477 0.0088627655
-0.0740542 -0.03708754 -0.013140807 -0.0447427 -0.03563242 -0.022892559 -0.0132787805 0.03172711
-0.0035962088 -0.021433724 -0.042654533 -0.0404498 -0.016585998 0.0046749683 -0.022296106 -0.01054822
-0.039155647 0.005581172 0.008342416 -0.014216667 -0.014536855 0.029305046 0.0064268564 -0.029642595
-0.012506501 -0.034089264 -0.009386975 -0.025400853 0.009983137 -0.008078435 -0.005456576 -0.020126933
-0.040908735 0.010776692 -0.06511465 0.014136504 0.048911918 -0.0048912736 0.011308287 -0.027523436
0.034052957 0.0120362295 -0.0012183852 -0.019635217 -0.033593453 0.04037043 -0.06408016 0.027624244
-0.01116243 -0.0013105487 0.025739955 0.03948945 -0.02059276 -0.057159543 0.037085794 -0.013017235

bias f4 [3]
00000000: 1c56 1d3d 4bed 1fbd ecf0 c1ba
0.0384122 -0.03904466 -0.0014796532
