saved_trials/a2c-MiniWorld-MazeS2-v0-lr=0.005-num_steps=250/MiniWorld-Maze-v0.pt (torch_old, 812358 bytes, 23 tensors)

weight f4 [32, 12, 5, 5]
000000 56 22 86 3d 61 eb bb 3c 1b a8 9e 3d 50 aa 8d bd
       0.06549518 0.022939386 0.07746907 -0.0691725
000010 78 97 6b 3d eb b8 fe 3d df f9 ca bc 86 e9 c0 3d
       0.0575175 0.12437614 -0.024777351 0.09419541
000020 48 ee 01 3e 68 d2 f7 bd a4 1f cd 3d 2f ba 9c 3d
       0.12688553 -0.12100679 0.100158006 0.07652699
000030 05 a6 8d bc 03 f0 b1 3a ef 45 2b 3d 80 9b 5d 3d
       -0.017291078 0.0013575557 0.04181474 0.054103374
000040 ba c1 f4 bd bc 8c 03 be f3 5b c0 bd f6 c9 4d bc
       -0.11951013 -0.12846655 -0.09392538 -0.012560358
000050 cb 57 d9 3d a3 42 32 3e 0b dc 2a 3d 69 df 7a 3d
       0.10612448 0.17408232 0.041713756 0.061248217
000060 f9 e2 5d 3d cf bc ac 3d 22 af 3c 3d a4 24 74 3d
       0.054171536 0.0843445 0.046065457 0.059605256
000070 60 9a 97 3d b7 12 9c 3d 51 28 05 3e 3b 72 99 3d
       0.074024916 0.07620757 0.1300366 0.07492491
000080 1e 86 d7 bb db e4 d0 3d 9c 90 88 3d b8 42 9d 3c
       -0.0065772673 0.10199901 0.06668207 0.019196853
000090 f9 f7 63 3d 56 ec 90 3b d1 a7 82 3d 52 9a a0 bd
       0.055656407 0.0044227047 0.06379665 -0.07841934
0000a0 a4 89 f1 3c bf 26 3d 3d bc 9e 23 3e bf d6 95 3c
       0.029484577 0.04617953 0.15978521 0.018290875
0000b0 0f aa c6 3c ec 40 a4 3a b3 cc a2 bd 0a 0a 92 3d
       0.024251012 0.0012531555 -0.079491995 0.07130821
0000c0 d5 1d 14 3e eb 2e d3 bb 81 6d 65 3d 59 02 26 3e
       0.14464505 -0.006444802 0.056012634 0.16211833
0000d0 be 98 79 bc 54 3f 58 3b e9 25 0d 3d 73 b4 f3 3d
       -0.0152341705 0.003299673 0.034459982 0.11899652
0000e0 87 69 88 3d c7 35 1b 3e ba 28 ec bd 4f 67 6d 3d
       0.06660753 0.15157233 -0.115312055 0.05795985
0000f0 f6 cb 1b 3d 82 ec 50 3c e4 d0 90 3d 41 8a db 3d
       0.03803631 0.0127517 0.07071093 0.10719729
000100 12 4b 7b 3e 60 05 f7 3d bc f1 cc 3d 46 a7 06 3e
       0.24540356 0.12061572 0.10007045 0.13149747
000110 46 bd 4e 3c 6f b7 1f 3e a9 f8 0f 3e a0 a4 16 bd
       0.0126183685 0.15597318 0.140597 -0.036778092
000120 df fa 1d bc 4a 2e 06 3e 79 c7 c0 3d f3 57 6a 3d
       -0.009642332 0.13103595 0.094130464 0.05721278
000130 49 fb 22 bb 44 5b b1 bb 7f f1 54 3b d8 a5 30 3d
       -0.0024869016 -0.005412491 0.0032492576 0.04312691
000140 3a 19 52 b9 fb 87 9b bd 25 fb 96 bd 67 2e b5 3d
       -0.00020036558 -0.075942956 -0.07372121 0.08846741
000150 32 79 a7 3d 54 7e 7b 3d b5 c0 fe bd fb 66 a6 bc
       0.08177413 0.061399773 -0.124391 -0.020312777
000160 08 32 0d 3e a7 e5 0b 3e fe fa ff 3c f4 ac af 3c
       0.13788617 0.13661824 0.031247612 0.021444775
000170 26 74 7d bc 06 8f 8e 3d 86 0d 46 3e ba 9a ab bd
       -0.0154695865 0.06960873 0.19341096 -0.08379121
000180 46 ce 07 be f4 7b 9a bc 21 39 7a bd 74 cf 34 bc
       -0.13262281 -0.018857934 -0.06108964 -0.011035789
000190 eb 8b 63 3d 4a 0b 33 3d b0 df cf 3b bd 99 76 3d
       0.055553358 0.043711938 0.0063438043 0.06020521
0001a0 12 c3 50 3d b2 0b 52 3d f2 08 08 3e 2c 86 3d bd
       0.050967284 0.051280685 0.13284662 -0.046270534
0001b0 4e 3b 22 3e 4c 7f 5e 3e 48 10 10 3e 45 03 c5 3c
       0.15842935 0.21728247 0.14068711 0.02404941
0001c0 0d f7 8c 3d 8a c7 b5 3d 9b 3f 1d 3e e7 64 57 3d
       0.06883059 0.0887595 0.15356295 0.052586462
0001d0 b8 80 a8 3c a6 43 a8 3d 0a d5 b0 3d 77 47 82 3e
       0.02056919 0.08216028 0.08634384 0.25445148
0001e0 39 a8 c1 bc 93 bf bb 3d 90 86 13 3e 95 2e 89 3b
       -0.023639785 0.09167399 0.144068 0.004186461
0001f0 55 2b b6 3d ef 69 12 3e 2d e9 24 bd 56 c0 f8 3d
       0.08894984 0.14298223 -0.040261436 0.1214606
000200 db 39 e0 3c 7e ab 3c 3e 8b 82 26 3e 84 80 0f 3c
       0.027371338 0.18424794 0.16260736 0.008758668
000210 5a 02 43 3d 7c f7 96 bd 3a 1f 87 3d 5e c6 79 3d
       0.047609664 -0.07371423 0.06597753 0.060980193
000220 57 65 3d 3e ed 5c 63 bd 07 5d 80 3e f8 41 36 3d
       0.1849569 -0.055508543 0.25070974 0.044496506
000230 e4 6d 90 3d ea 20 91 3e 6b 0b 13 3e d0 29 c1 3d
       0.0705221 0.28345424 0.14359824 0.09431803
000240 98 45 68 3d f8 8c cc 3d 76 e9 99 3d 7c ae 54 3e
       0.056706995 0.09987825 0.07515232 0.20769686
000250 5f f9 92 3d 5e f3 4e 3e f6 f2 5a bd e4 97 34 be
       0.0717647 0.20210025 -0.05345436 -0.17636067
000260 84 8f d5 bd a6 2c 9a bd 00 a6 2b be 6a 93 88 bd
       -0.10427764 -0.07528047 -0.16762543 -0.06668742
000270 57 ff 28 be 04 65 23 bc 3c ac c1 bd 8d bf 84 3b
       -0.16503654 -0.0099728145 -0.09456679 0.004051155
000280 01 35 a1 bc 02 f2 4c 3d b3 3d a9 3c 48 3e c6 bd
       -0.019678595 0.050035484 0.020659303 -0.09679848
000290 12 ee 3c bd a2 41 0d 3d ab 81 c3 bd bc b9 8d bd
       -0.04612548 0.03448642 -0.095462166 -0.06920192
0002a0 f1 10 1a 3d 0d 81 a2 3c 75 bf 13 bb ee 31 38 bb
       0.037613813 0.019836927 -0.0022544537 -0.0028105932
0002b0 56 20 85 3d 41 cf f6 bd 5c f0 b2 3d 97 76 ef 3d
       0.06500308 -0.12051249 0.08737251 0.11692541
0002c0 ab a1 d1 3c f3 30 12 3d 19 20 2d 3e 3f 45 da 3d
       0.025589785 0.035691213 0.16906776 0.10657739
0002d0 d4 43 54 3d bf 00 dd 3c 94 12 82 bd 1e 05 ad 3c
       0.0518225 0.026977895 -0.063512 0.021120604
0002e0 54 95 89 bd 34 74 00 3d 06 27 51 3d 50 43 25 be
       -0.06717935 0.03136082 0.051062606 -0.16138959
0002f0 ab a1 19 3e 2c 7a 7a bc ac 26 a0 bb 76 8b 3a bc
       0.15003078 -0.015287917 -0.0048874225 -0.011385789
000300 6a 90 98 bc 03 80 61 bc e9 83 c9 3a f8 5b d8 3d
       -0.01862355 -0.0137634305 0.0015374395 0.10564417
000310 36 80 ef 3c 7a b9 a3 bd 13 03 e1 bd af d7 f6 bd
       0.02923594 -0.07994361 -0.109869145 -0.12052857
000320 83 f2 f5 3d 35 e2 93 3e 27 19 03 bd f7 5b 4f 3d
       0.12009146 0.2888352 -0.03200641 0.050624814
000330 ac ad 78 bd 78 6e bb bd aa 0b d5 3d 69 1c e9 bd
       -0.0607125 -0.091519296 0.10402615 -0.11382372
000340 bd 0b 0b 3d aa 41 dd bc 40 08 58 be 4c 17 a1 3d
       0.03394674 -0.02700885 -0.21096897 0.07865772
000350 23 6e 2c be 4a fc ec bd 71 6d 84 be 5b 1c 72 3d
       -0.16838889 -0.11571558 -0.25864747 0.059109073
000360 67 55 e5 3a 72 fc 84 3d 9d ff c4 bb 60 f4 34 bd
       0.0017496765 0.064934626 -0.006011917 -0.044178367
000370 24 30 04 bc 3e 60 00 be d5 f8 ee bd f9 b6 00 3e
       -0.008068118 -0.12536713 -0.11668555 0.12569799
000380 32 d0 86 39 33 2f 41 bc ea 6b fb 3a 48 7f b7 bc
       0.0002571359 -0.011791038 0.0019181941 -0.02239956
000390 94 25 2c 3d c4 97 95 3c 3c b1 6d bd 9e 5c 05 be
       0.042028025 0.018260844 -0.058030352 -0.13023612
0003a0 97 91 f7 bb 0f ac c4 bd ca b0 5c 3d 75 d5 a0 3d
       -0.0075551975 -0.0960313 0.053879537 0.07853214
0003b0 c3 4d 01 3e 6e 24 8d ba ee b8 e8 bd 2f e0 cb bc
       0.1262732 -0.0010768303 -0.113633975 -0.024887173
0003c0 dd 69 7b bd 42 87 60 bd 8c a6 e4 3d 99 b7 12 3d
       -0.061380256 -0.054816492 0.11164579 0.035819624
0003d0 68 a1 18 bb a4 51 c0 bc 87 b9 d2 3c 09 f8 37 3d
       -0.0023289565 -0.02347643 0.025723232 0.04491428
0003e0 78 57 04 3e b8 ae fe 3c 5a 24 05 be 55 89 c3 bb
       0.12923992 0.031089172 -0.13002148 -0.005967299
0003f0 a5 3f aa 3d 3d 99 97 bc 32 09 b7 bd ff ff 89 bb
       0.083129205 -0.018505687 -0.08937301 -0.0042114253

bias f4 [32]
000000 fa db f1 b7 a1 ed d5 b7 96 90 14 b6 8a 63 41 37
       -2.8831873e-05 -2.5502233e-05 -2.2137879e-06 1.1526872e-05
000010 6d 4e 88 b7 eb 3f a4 36 80 33 7c b7 0b 05 87 37
       -1.6248983e-05 4.895022e-06 -1.5032361e-05 1.6095602e-05
000020 c2 d9 15 36 40 9a e7 36 b7 b4 7e 37 7f 4c 87 b7
       2.2329482e-06 6.9022935e-06 1.5181656e-05 -1.6128875e-05
000030 66 d3 8b 37 61 a8 04 b6 e1 fd 9d 37 38 82 c4 b5
       1.6668531e-05 -1.9767542e-06 1.883408e-05 -1.4641037e-06
000040 13 a7 d2 37 9c 6c ce b6 6c d6 68 37 41 c0 a8 b6
       2.511175e-05 -6.151922e-06 1.3878202e-05 -5.0291715e-06
000050 b9 c6 b4 b6 38 ca 14 37 9e 50 3c b7 4b eb 3d 37
       -5.3875524e-06 8.86857e-06 -1.1224443e-05 1.1320061e-05
000060 76 e7 99 36 e4 d3 1d b6 e6 e8 92 b6 26 cb fe b5
       4.586701e-06 -2.351816e-06 -4.378252e-06 -1.8983599e-06
000070 69 92 89 b7 8d f0 b3 35 bf 45 1f b7 dc 8f 90 36
       -1.639985e-05 1.3406549e-06 -9.493378e-06 4.308282e-06

weight f4 [32]
000000 65 61 87 3f d2 80 8a 3f b5 cf 83 3f 04 df 7a 3f
       1.0576597 1.0820563 1.0297762 0.97996545
000010 46 f4 92 3f 79 4a 94 3f af 88 52 3f f6 af 5f 3f
       1.1480796 1.1585227 0.8223981 0.8737787
000020 aa b1 80 3f 3f 55 6b 3f a4 b8 74 3f 71 34 78 3f
       1.0054219 0.9192695 0.9559424 0.9695502
000030 42 31 97 3f 9b 27 82 3f 73 70 70 3f 82 fc 85 3f
       1.1811907 1.0168337 0.93921584 1.0467684
000040 89 7a 94 3f 16 f8 8f 3f c8 73 76 3f a1 03 90 3f
       1.1599895 1.1247585 0.9627042 1.1251107
000050 5d 1e 5e 3f 6b 07 7a 3f d6 46 76 3f a4 13 95 3f
       0.8676508 0.9766757 0.9620184 1.1646619
000060 e9 6e 61 3f b3 ec 96 3f 3b b0 7f 3f 00 43 7b 3f
       0.8805986 1.1790985 0.9987828 0.9814911
000070 89 01 84 3f 8f 36 8b 3f 2e da 67 3f b0 ce 63 3f
       1.0312968 1.0876025 0.9056729 0.88987255

bias f4 [32]
000000 2f 56 91 bd 40 98 38 3d d1 dc 9b bd e3 f1 23 3c
       -0.07096516 0.045067072 -0.07610477 0.010006401
000010 bc 8c d3 bd 9c 7c 08 bd 89 be 1c be 1d c1 d7 bd
       -0.10329577 -0.03332196 -0.15307058 -0.1053488
000020 24 63 8a bd 27 e6 2c be 01 d4 df bd bd f7 d6 bd
       -0.06757191 -0.16884671 -0.109291084 -0.10496471
000030 c1 f8 22 be 76 2c 30 be 28 c9 98 bd 2e 08 af 3d
       -0.15915205 -0.1720446 -0.074602425 0.08546482
000040 aa 60 48 3b dc a6 2c be 3e f4 fb bc 5b fe 00 bc
       0.0030575194 -0.16860527 -0.030756112 -0.007873143
000050 fe f0 c3 bc 25 21 82 bb cf 12 15 be 13 f5 b4 bd
       -0.023918625 -0.0039712363 -0.14557956 -0.08835807
000060 0c 16 b5 bd 71 ae c7 3c f0 05 87 bd e8 20 6f 3b
       -0.08842096 0.024375172 -0.06592929 0.003648812
000070 b3 b0 1b bc 80 3c 90 bc aa 5a 89 bd 55 6f b7 bd
       -0.009502578 -0.017606974 -0.06706746 -0.08956782

running_mean f4 [32]
000000 4f 56 16 40 a5 19 76 c0 cc 3a 5c 40 6e d7 c0 bf
       2.3490179 -3.8453152 3.4410887 -1.5065744
000010 68 ed 4c 40 26 0c 84 40 b1 7c 77 c0 32 3e f5 3f
       3.2019901 4.126483 -3.8669856 1.9159606
000020 15 29 24 40 30 dc b2 bf 20 19 08 40 90 79 14 40
       2.5650074 -1.3973446 2.1265335 2.3199196
000030 21 0a 2d 40 57 ed 59 3f 0a cc 6a 40 6a 1c 1f 40
       2.7037432 0.85127777 3.6687036 2.4861093
000040 ca 6a 14 40 30 e0 80 40 65 5d be bd fa 71 10 40
       2.319018 4.0273666 -0.09295157 2.2569566
000050 0b e5 36 3e 91 dd 8d 40 a5 07 fa 3f 00 41 4a 40
       0.1786081 4.4332967 1.9533583 3.1602173
000060 aa 0c 10 40 15 b1 6a 40 e7 d9 f7 3e 20 bf 95 c0
       2.250773 3.6670582 0.48408434 -4.6795807
000070 38 6a 77 40 04 92 61 40 5a 51 01 40 f1 c1 76 c0
       3.865858 3.524537 2.0205903 -3.8555872

running_var f4 [32]
000000 d7 93 aa 3e df d7 03 3f ac f1 11 3f 47 c1 28 3e
       0.33315918 0.5150127 0.57009387 0.1647998
000010 bc ad 01 3f dd 84 50 3f 62 c2 18 3f 0e 3c 1f 3e
       0.5065572 0.81452733 0.59671605 0.15550253
000020 52 37 89 3e b9 cb 1c 3e 92 7a 30 3e 1f 02 0b 3e
       0.2680002 0.15312089 0.17234257 0.13575028
000030 91 64 dc 3e 93 53 0d 3e 00 ae de 3e 54 92 88 3e
       0.43045476 0.13801412 0.43492126 0.2667414
000040 f1 e6 b8 3e 1e 8c 42 3f 6a 87 92 3d ea 79 ad 3e
       0.36113694 0.7599505 0.071547344 0.33882076
000050 47 ca 89 3d ad 78 fa 3e d5 38 8c 3e 93 49 15 3f
       0.067280345 0.48920193 0.2738711 0.5831539
000060 d9 97 14 3e 17 b6 22 3f db 4b c2 3d b9 be 5a 3f
       0.1451105 0.635591 0.094871245 0.8544727
000070 69 4d 09 3f 17 6d 11 3f c7 a6 95 3d ac 6f 23 3f
       0.53633744 0.5680708 0.07307201 0.6384227

weight f4 [32, 32, 5, 5]
000000 0c 44 49 3d 85 9c d9 3d 2b 2b 0c ba fd 07 b6 bd
       0.04913716 0.10625557 -0.00053470087 -0.088882424
000010 e6 92 a2 3c cc d3 c2 3c 75 df 65 3d 4d 5d a0 3c
       0.019845437 0.023782633 0.05612131 0.01957574
000020 da 1a 40 3b d4 d4 d3 3d 9c 63 2d 3c bd 10 9a 3d
       0.002931288 0.10343328 0.010582831 0.07522724
000030 a1 f2 f7 3c 61 f6 a6 3d 14 d6 03 3d e5 ec 2e 3d
       0.030267062 0.08152462 0.032186583 0.04270639
000040 bb 6f 15 3d b6 3b c1 3d 2a 2c 1f 3d cf 88 b4 bc
       0.036483508 0.09435217 0.038860478 -0.022037892
000050 55 c6 a1 3c af 1b 96 3d 64 b7 0e 3c fd f6 89 3d
       0.019747892 0.07329499 0.008710716 0.067365624
000060 1b cd c6 3b 70 ab 95 bd e6 e9 19 bc a9 9f 85 bd
       0.006066931 -0.0730809 -0.009394145 -0.065245934
000070 35 4e 6a bc 3f f6 d8 bc 74 7e 16 bd 51 55 19 bc
       -0.014300873 -0.026484607 -0.03674169 -0.00935872
000080 8a c2 6a bd 79 0f a5 3c 29 51 4c bd 97 aa dc bd
       -0.057314433 0.02014898 -0.049882088 -0.10774725
000090 fa 86 f6 bd c1 b7 17 bd 99 87 db bb 85 65 10 be
       -0.120374635 -0.037040476 -0.006699514 -0.14101227
0000a0 9b 47 02 bd 46 cc 37 bb 98 f3 13 bc e9 81 0b bc
       -0.03180657 -0.002804534 -0.009030245 -0.00851486
0000b0 fb eb 8c bd 6b 42 fa bc 4d b4 87 bc 58 23 a7 bd
       -0.06880947 -0.030549249 -0.016565466 -0.08161038
0000c0 75 1d c3 bc e5 de 1a bc e0 c8 d9 bd 1f c5 90 bd
       -0.023817757 -0.009452556 -0.10634017 -0.07068848
0000d0 a8 69 02 bd 66 58 f2 3c 72 76 9d bd f3 9c f5 bd
       -0.031839043 0.029583167 -0.07688607 -0.11992826
0000e0 22 14 dd b9 83 c6 5e 3d 01 c1 f2 bb 1f df c7 bc
       -0.00042167405 0.054388534 -0.0074082618 -0.024398385
0000f0 89 f6 0a be 10 d1 a6 bd 1a 55 ad bd 0e ab 50 3d
       -0.13570608 -0.08145344 -0.084634975 0.05094438
000100 fe f0 ec bd 5a ca 53 bd 4f 39 c6 bd 79 74 cd bd
       -0.11569403 -0.05170665 -0.096788995 -0.10031981
000110 93 5b 89 bd f6 09 b4 3b 1a a8 c3 bd da ac b7 3c
       -0.067069195 0.0054943515 -0.09553547 0.02242129
000120 90 d8 cb bd b8 bd b1 bd 39 f2 62 bd 55 fd 36 bd
       -0.099534154 -0.08678764 -0.055406783 -0.04467519
000130 ad 32 20 3d 51 1c 14 3e 1f 9b cb 3d 9d 5b 18 bc
       0.03911083 0.14463927 0.099416964 -0.009299186
000140 01 7b bb 3d 8c 0c 84 bc 0d 44 91 3c 2d 6a 4c 3d
       0.091543205 -0.016119264 0.017732644 0.049905945
000150 41 0a 3b bd 81 42 71 39 e6 d4 f8 3c ed 19 76 3c
       -0.045664076 0.00023008326 0.030374955 0.01502083
000160 5f 9e 02 3c 42 32 8e bc 01 8f 9d 3c 79 6c 10 3e
       0.007972329 -0.01735795 0.019233229 0.14103879
000170 3d c4 02 3e 5b 78 46 3d 41 5f 80 bc a8 ff 26 3d
       0.12770171 0.048454624 -0.01567042 0.040771157
000180 2a c5 0f 3e d0 ea 71 3c 2f 33 0c bd 5c 83 8f 3d
       0.14040056 0.014765456 -0.0342285 0.07007477
000190 d6 b4 bb 3d 9a c4 17 3e 6c d5 ef 3d d9 2d 3a 3e
       0.09165351 0.14821091 0.11710629 0.18181552
0001a0 23 bb d8 3d 24 f8 0f 3e 61 45 9e 3d cc aa 14 3e
       0.105825685 0.14059502 0.07728077 0.14518279
0001b0 06 4e bf 3d d7 aa d1 3d 19 93 71 3c 95 63 d0 3d
       0.09341054 0.10237663 0.0147445435 0.10175244
0001c0 ad 72 32 3e 40 dc 80 3d 81 98 fd 3d b9 dc 63 3d
       0.17426558 0.06292009 0.123826034 0.05563042
0001d0 3c 05 b2 3d 76 53 d1 3d ef 0e b8 3d 6a 30 57 3d
       0.08692405 0.10220997 0.08987223 0.052536406
0001e0 cb 40 01 3e 74 75 a4 3d e0 af 69 3d ee 5c ea bb
       0.12622373 0.08030215 0.057052493 -0.0071521914
0001f0 de f0 74 3c 77 59 3a 3d af 3e 76 3d 4d 23 9f 3d
       0.014950005 0.045495477 0.060118373 0.07770405
000200 02 23 06 3d 6b 25 92 3d 92 dc 1f 3c 62 1f a6 3c
       0.03274823 0.07136043 0.009757178 0.020278636
000210 a4 cd 3b 3c 88 b0 f2 3d e0 9e 04 3d de 36 41 3d
       0.011462603 0.11850077 0.032378078 0.047171466
000220 e8 99 cc 3c 0a 1b 7b 3c 6d 0a 2e 3e ad 4a 0a 3c
       0.024975732 0.015326271 0.16996165 0.008440656
000230 bf 7e ed bd 5b 75 e4 bd 1c 8d 5a 3c 5a 3e d1 3d
       -0.115964405 -0.11155196 0.013339307 0.10216971
000240 38 66 1a 3a 90 96 d8 bc 32 f0 5b bd 6a e0 9e bc
       0.00058898656 -0.026438981 -0.053695865 -0.019394118
000250 cb 4c 34 3d 65 c8 e7 bd c0 50 71 bc 78 2e a2 bd
       0.044018548 -0.11317519 -0.014728725 -0.079190195
000260 80 88 a2 bb 6b 4c 32 3c 67 b5 b8 bd 9c 25 ab bd
       -0.0049601197 0.010882477 -0.09018975 -0.08356783
000270 de be 19 bd 96 f2 a1 bc 7e b3 15 3d e1 d3 cc bd
       -0.03753554 -0.019768994 0.03654813 -0.1000135
000280 1c 0d d7 bc 2e 85 50 bb da 6d 06 3c 9a c9 d3 bd
       -0.026251368 -0.0031817663 0.008204902 -0.10341187
000290 89 39 8c bc e3 4c e0 3d 79 55 82 bd 50 36 d7 3d
       -0.017117279 0.10952165 -0.06363959 0.10508406
0002a0 9e 11 92 bd 3b fb e9 bc e5 e2 b5 3d c6 0e 25 bc
       -0.071322665 -0.028562179 0.08881167 -0.010074323
0002b0 83 02 fd bc 88 d0 93 3c e7 48 04 bd 4c b0 94 3d
       -0.030884987 0.018043771 -0.032296088 0.072601885
0002c0 34 e2 a4 3d ce 5d c8 3d eb 05 bc 3d 1a 0f cd 3d
       0.08050957 0.09783517 0.09180816 0.10012646
0002d0 27 89 01 3e 06 5a 38 3e 16 cf 85 3d ac 17 df 3c
       0.12649976 0.18003091 0.06533639 0.027232967
0002e0 6d ce f7 3d 84 e3 c6 3d 1a 0c 00 3e 1f d8 0b 3e
       0.120999195 0.09711364 0.12504616 0.13656662
0002f0 54 6b 19 3e 71 ea 13 3e 1a 98 c3 3c bf b2 b3 3d
       0.14982349 0.14444901 0.023876239 0.087743275
000300 2e 53 c5 3d 0e 23 eb 3d 81 af 46 3e 65 4b 99 3d
       0.09635006 0.114812955 0.19402887 0.074850835
000310 2d 77 03 3e f8 ce a1 3d 52 91 84 3d d9 21 af 3d
       0.1283843 0.07900804 0.0647303 0.08551378
000320 ff ee 9d 3d f1 4b 61 3d d3 e9 a3 3d 59 50 2f 3e
       0.077116005 0.055004064 0.08003583 0.17120494
000330 5d 60 7f 3d 2c aa 17 3e 2e 60 b1 3d 04 32 da 3c
       0.06234776 0.14811009 0.08660923 0.026635177
000340 0c b9 7b 3d 61 52 70 3e 8f 53 9d 3d f9 e2 c0 3d
       0.06145577 0.23468925 0.07681953 0.094182916
000350 44 bf 08 3e ef 28 18 3e 75 8c e6 3c fd 5d b2 3d
       0.13354212 0.14859365 0.028143147 0.08709333
000360 8e a1 cf 3d 7d 03 5b 3d d1 43 61 3d 36 32 45 3d
       0.10138236 0.053470124 0.054996315 0.048143588
000370 8d ad 70 3d 3f 40 c5 3d de 0e 63 3e df a2 8a 3d
       0.05875926 0.096313946 0.2217364 0.067693464
000380 98 c6 2c 3d 51 2f a8 3d c5 7a 1a bc 4a 63 c5 bd
       0.04218158 0.0821215 -0.009428685 -0.096380785
000390 47 54 db 3d 8c 6b f1 3c f0 1c 1a bc 4e 53 b3 bc
       0.10709434 0.029470228 -0.009406313 -0.021890309
0003a0 0d 8f d7 3d 08 b4 a9 3d ed 31 9f 3b 46 f5 9e bd
       0.10525332 0.08286291 0.0048582465 -0.07761626
0003b0 fa 33 24 bc 32 3c 9b 3d 93 d4 86 bd ae dd 11 be
       -0.010022158 0.07579841 -0.06583514 -0.1424472
0003c0 3f 4f b3 bc 5b db 88 3d a5 61 d6 bc 0a 8c 0d bc
       -0.021888373 0.06682464 -0.026169607 -0.008639345
0003d0 a1 d4 05 be 25 f6 38 3e 63 af b3 bb 6e a7 ee 3b
       -0.13069393 0.18062647 -0.005483554 0.007283143
0003e0 85 a6 82 bd 28 dc 02 3d 27 14 96 3d 07 ad fe 3d
       -0.06379417 0.03194824 0.073280625 0.12435346
0003f0 12 01 05 3e b7 76 e1 3d 00 fe 0b 3e ae ea 24 3e
       0.1298869 0.11008971 0.13671112 0.16105148

bias f4 [32]
000000 2c ee 2a 34 0c 84 f3 b4 4a 14 a6 35 33 f0 44 b5
       1.591913e-07 -4.5358354e-07 1.2373869e-06 -7.3365226e-07
000010 c8 66 63 35 7b af dc 34 a1 ca 2c 34 9e f6 be b4
       8.4713656e-07 4.1105872e-07 1.6092464e-07 -3.5569695e-07
000020 c9 9c f4 b4 60 0c 34 b4 e2 ab 18 b2 95 ab 7f 33
       -4.5562618e-07 -1.6768308e-07 -8.886646e-09 5.9527867e-08
000030 63 04 0e b3 ec 33 a3 b4 b1 0b 4d b5 12 26 3b 35
       -3.306594e-08 -3.0398894e-07 -7.6385464e-07 6.971833e-07
000040 ed cd f3 b4 45 e8 4f b5 11 bf 1f 35 1d 76 9c 34
       -4.5412108e-07 -7.7451506e-07 5.9510154e-07 2.9143203e-07
000050 be 6f ed 34 14 59 19 b5 7f 02 2f 34 fc eb 0f b5
       4.4225993e-07 -5.712657e-07 1.6299053e-07 -5.3615054e-07
000060 03 8b d1 33 43 56 8b 35 c8 45 9b 34 a8 33 80 34
       9.757607e-08 1.0381412e-06 2.8921772e-07 2.3879443e-07
000070 1f 41 a9 34 78 60 ba b4 9d 2e 50 b4 f4 f5 0c 35
       3.1526085e-07 -3.471539e-07 -1.9388467e-07 5.2511973e-07

weight f4 [32]
000000 9d f6 76 3f 76 1f 8d 3f 1e 0b 88 3f f8 33 9a 3f
       0.9647005 1.1025226 1.0628393 1.204711
000010 3a a3 6f 3f f2 44 90 3f e0 58 80 3f dc 08 98 3f
       0.9360844 1.127104 1.0027122 1.1877704
000020 3d 6a 5a 3f 36 79 99 3f ca 97 5f 3f 18 cf 41 3f
       0.85318357 1.1990116 0.87340987 0.75706625
000030 f1 4f 6c 3f 65 48 8e 3f 9f 30 87 3f 24 cb 58 3f
       0.9230948 1.1115843 1.0561713 0.8468497
000040 24 00 84 3f dd 84 95 3f 58 db 68 3f f4 32 70 3f
       1.0312543 1.1681172 0.9095969 0.9382775
000050 c1 d7 65 3f 23 61 84 3f e0 d8 58 3f 9c f2 79 3f
       0.8978234 1.0342144 0.84705925 0.9763582
000060 e6 c8 93 3f de a7 73 3f 26 3e 81 3f eb ba 6e 3f
       1.1545684 0.9517802 1.0097091 0.93253964
000070 c4 dc 6d 3f d0 68 6f 3f f1 09 94 3f 1f 32 91 3f
       0.92914987 0.93519306 1.1565534 1.1343421

bias f4 [32]
000000 62 20 14 bd 69 f9 14 bc d2 c7 fe bd 85 9d 7d bd
       -0.036163695 -0.009092667 -0.124404564 -0.0619178
000010 ce d0 95 bd 07 e6 a6 bd 34 fc 11 bd 36 42 dc bd
       -0.07315217 -0.08149343 -0.03564091 -0.10754816
000020 65 23 13 be 88 a7 17 be 3c f5 0a be d1 4d 09 be
       -0.1436897 -0.14810002 -0.13570112 -0.13408591
000030 0f 9e 25 bd 34 5c 35 3d cb 97 06 bb f8 fc 27 be
       -0.04043394 0.044277385 -0.0020537253 -0.16405094
000040 fc 94 eb bd 29 77 2f be 7c 58 f7 bd 11 7e 49 bd
       -0.11503026 -0.171353 -0.12077424 -0.049192492
000050 43 4e a2 bd 33 5a 42 bd e6 59 ed bd 81 b4 05 be
       -0.079250835 -0.047449302 -0.115894124 -0.13057138
000060 3c c1 75 bc f8 26 f5 bd 35 fb 4f bc a5 3d ea bc
       -0.014999684 -0.11970323 -0.01269417 -0.028593848
000070 86 3f 13 be 28 ed 36 bd 2e dd 9d bd aa 92 06 3d
       -0.14379701 -0.044659764 -0.07708202 0.032854713

running_mean f4 [32]
000000 b1 e0 b4 40 ad 54 7e 40 ae 7b 9c 40 63 03 f5 40
       5.652428 3.9739182 4.8900976 7.6566634
000010 df ed 88 40 7d f7 cb 3f fa 26 b9 3f 1a 84 ca 40
       4.279037 1.5934902 1.446502 6.3286257
000020 87 2c e5 3f a4 45 f3 40 a3 59 58 c0 c6 a2 4b bf
       1.7904214 7.602251 -3.380471 -0.7954525
000030 b6 61 b0 bf fe 49 b9 40 d2 4f e2 3f da a3 ad bf
       -1.3779819 5.7902822 1.7680609 -1.3565629
000040 8c da 9d 40 92 23 ea 40 1e db e9 be 5c 7c a6 c0
       4.932928 7.316842 -0.45674986 -5.2026806
000050 17 08 0b c0 b4 79 01 41 d0 b7 a7 40 a3 d1 37 40
       -2.1723688 8.092213 5.241188 2.8721702
000060 f9 c1 be 40 9e e6 51 40 c5 f5 0b 40 3b 26 6f c0
       5.9611783 3.2797008 2.1868756 -3.7367084
000070 f1 8a 55 40 03 e7 cd c0 39 fd d3 40 15 b1 e4 40
       3.3366053 -6.4344497 6.624661 7.1466165

running_var f4 [32]
000000 8a e1 fc 42 e9 5a 01 43 fa a3 3f 43 5d 4b d5 42
       126.440506 129.35512 191.64053 106.647194
000010 51 43 8a 42 47 90 bb 41 cd 7e 3b 42 17 2a 06 43
       69.13148 23.445448 46.87383 134.16441
000020 b4 03 8c 41 13 aa 02 43 cb f9 99 42 50 14 7b 41
       17.501808 130.66435 76.98788 15.692459
000030 df 41 8c 42 4b b4 3a 42 5e 97 41 42 7d 3d 11 42
       70.128654 46.676067 48.39782 36.310047
000040 d4 36 a9 42 9a 5e 38 43 73 f0 c3 41 a6 21 96 42
       84.607086 184.36954 24.492407 75.06572
000050 ac e1 91 42 06 34 8b 43 3a 12 a9 42 78 54 d5 42
       72.940765 278.40643 84.5356 106.66498
000060 cf d5 e9 42 fc 56 9b 42 05 31 e8 42 e2 8f 4b 42
       116.917595 77.66989 116.09574 50.89051
000070 72 7a c9 42 c2 3b 0c 43 d2 20 15 43 f0 d7 f1 42
       100.73915 140.23343 149.1282 120.92175

weight f4 [32, 32, 4, 4]
000000 27 90 bf 3d ad a5 32 bd 35 ab 25 3c 99 3e f2 3d
       0.09353667 -0.043615032 0.01011162 0.11828346
000010 6b 9d 7c 3d c5 0f 61 3d fb 53 0d 3d c9 36 7b bd
       0.061673563 0.05494668 0.03450392 -0.061331544
000020 12 fa 8c bc 06 68 be ba 5c e9 d0 3d bf 5e eb bc
       -0.017209087 -0.0014526851 0.1020076 -0.028731702
000030 1e d8 c2 bc 32 5c 96 bd 63 d3 5e 3c 73 fa 83 bd
       -0.023784693 -0.073418036 0.013600203 -0.06444254
000040 98 ac db bd d4 87 2b bd a6 b2 d7 3d 96 8a 85 bb
       -0.10726279 -0.041877583 0.10532121 -0.0040753586
000050 50 66 10 bd 4b de b0 3a b2 66 ee 3d a8 9b fc 3c
       -0.035253823 0.0013493983 0.11640681 0.030835941
000060 7d 2c cb bd a4 c1 40 bd a0 c6 96 bd 0b 20 3b 3d
       -0.09920595 -0.04705967 -0.073621035 0.045684855
000070 18 c8 5a bd 98 81 ce bd 52 88 71 3c 74 f8 03 3e
       -0.05341348 -0.10083312 0.014741974 0.12887746
000080 ba 24 0c bd 46 4a 10 3e e6 d2 23 3e bb 0f f7 3d
       -0.034214713 0.14090833 0.1599842 0.12063547
000090 94 f0 e0 bd 0b a5 e2 3b 1c 42 92 3d 3a 2f 45 3e
       -0.10983387 0.0069166473 0.071415156 0.19256297
0000a0 bd cc 99 3c 54 27 6b 3d be 2d 07 3d ee e0 06 3e
       0.018774385 0.057410553 0.033002608 0.13171741
0000b0 6e 58 28 be f6 d7 b8 bd b6 ad 07 3e ae 23 34 3e
       -0.16439983 -0.09025566 0.13249859 0.17591736
0000c0 1b 6c d4 3c c8 9d 0c bd f2 29 52 3e 3f e1 67 3e
       0.025930455 -0.03433016 0.20523813 0.22644518
0000d0 d5 7f e7 bd bd cf cc 3c 95 f2 8c 3e c6 5e 85 3d
       -0.11303679 0.025001401 0.27528825 0.06512217
0000e0 24 0c 53 3d 8f c4 46 3e 84 a7 b4 3d ed 95 42 3e
       0.05152525 0.19410919 0.088210136 0.19002505
0000f0 8d 65 24 bd 94 27 65 bd 6f f3 03 3e 58 bb e9 3d
       -0.04013591 -0.055945948 0.12885831 0.11412686
000100 04 f1 81 bd e6 2f 98 bb d3 0e 7f 3d 73 53 bf bc
       -0.06344798 -0.004644382 0.062269997 -0.023355221
000110 d0 d7 60 3c 37 20 4f bd 20 00 8b 3c 20 ad 51 3c
       0.013723329 -0.05056783 0.016967833 0.012797624
000120 d2 e3 cd b9 47 fe df 3c 02 8e 50 3c ed d8 13 3d
       -0.00039270386 0.027342929 0.01272917 0.03609555
000130 d7 01 44 bd 90 4d d3 bd 56 e9 9b 3d 8c 32 b1 bd
       -0.047853317 -0.10317528 0.07612865 -0.08652219
000140 c1 13 cc 3d ce 5e ce 3d ab 51 97 bb cd 5d 07 3e
       0.09964705 0.10076676 -0.00461789 0.13219376
000150 5e 82 51 3d 5d 13 4b 3c cb 88 ba bd 62 92 5e bc
       0.05114972 0.012394753 -0.091081224 -0.013584705
000160 ff 94 88 bd e8 ba 94 3d 52 8c cc bd ca e0 4e 3e
       -0.06669044 0.07262212 -0.099877015 0.20202938
000170 ea 4f 25 3d 6a 11 49 3d a5 38 ed 3d 89 f8 ae 3a
       0.040359415 0.049088873 0.1158307 0.0013349216
000180 91 89 18 3c 26 d2 83 3d 6d c4 12 3c 21 0a 07 3d
       0.009310142 0.06436567 0.008957964 0.032968644
000190 6c 07 d1 bc d4 34 50 bc fd 30 a0 bd bf da 87 bc
       -0.025516234 -0.012707908 -0.07821844 -0.016583798
0001a0 42 8a c8 bc 7b a4 0a 3d e7 ba 70 3d 24 3d 0f 3e
       -0.024479989 0.033848267 0.058771994 0.13988167
0001b0 78 a8 9d 3d 41 99 aa 3c 92 45 8b bd c2 4f ba bd
       0.076981485 0.02082503 -0.06800379 -0.09097244
0001c0 d2 67 b0 3d 32 f4 02 be 7d 20 31 3e b2 e6 73 3e
       0.08613552 -0.12788466 0.1729755 0.23818472
0001d0 97 7b 38 3c 2d fb ab bb 7c 11 9c 3d 7d 54 1a 3e
       0.011259935 -0.0052484483 0.076205224 0.15071292
0001e0 0a 9c b7 3d 75 89 e8 bc 9a 04 b3 3d 0b 34 35 3d
       0.08965309 -0.028385857 0.08741112 0.044239085
0001f0 8f bf 96 3c 29 73 b1 3c 10 34 48 3b 4d 9d 25 3d
       0.01840189 0.021661358 0.003054861 0.040433217
000200 23 33 4f be e7 30 6b be 42 87 cf bc 3e 99 1c be
       -0.20234351 -0.22967874 -0.02533305 -0.15292832
000210 d8 b4 c5 bb bd 11 3a be cb ca fd bc 03 31 bc bd
       -0.006033521 -0.18170829 -0.030980488 -0.09189036
000220 ef 5f e6 bc 2c 5e a2 bd 7c da a5 bd b1 f3 af bd
       -0.028121917 -0.07928118 -0.08098313 -0.08591402
000230 e7 57 3c bd 6d 51 90 bd fe 96 85 3c 24 79 8c 3d
       -0.045982268 -0.07046781 0.01630735 0.06859043
000240 93 14 4f bd d1 9d 72 bd fc 9f a0 3c 1a 4a 49 3e
       -0.05055673 -0.059232537 0.019607536 0.19657174
000250 2a b6 12 3d 01 cb 8d ba ee 98 e0 3d e2 e2 a3 3d
       0.035818256 -0.0010817946 0.10966669 0.08002259
000260 c2 9e 4b bd 56 11 ef bc 76 79 32 3d b9 b5 5e 3e
       -0.04971195 -0.029183071 0.043572865 0.21749009
000270 18 20 bc bd 43 1f 27 bd 83 b9 03 3e 51 a2 3c 3e
       -0.09185809 -0.040801298 0.12863736 0.18421294
000280 80 eb c1 bd 5d 92 2e bd 7b 44 93 bd a3 22 db 3c
       -0.09468746 -0.04262005 -0.07190796 0.026749915
000290 b7 ac b3 bc 22 5a 03 3d fd 7f 1b bd 6a 16 d5 bd
       -0.021932943 0.03206838 -0.037963856 -0.10404666
0002a0 33 39 5a 3c f4 b1 f6 3c ca 3f 26 3d 27 47 1b 3d
       0.013319301 0.030114152 0.040588178 0.037909653
0002b0 55 f2 5f bd da 99 3a bd ef 24 9a 3d c3 19 77 3c
       -0.054674465 -0.04555688 0.07526576 0.015081826
0002c0 b3 4a b9 bd 1f a5 45 be 02 9b b3 bd e0 fa 9f 3d
       -0.09047451 -0.1930127 -0.087698 0.078115225
0002d0 f3 3b 5d bb 81 9d 11 be ce 40 36 bc 57 cc 19 3d
       -0.0033757656 -0.14220239 -0.011123849 0.03754839
0002e0 29 c8 81 bd 1d 16 6a bd b3 7b 10 bd 0a 81 09 bd
       -0.06337006 -0.057149995 -0.03527422 -0.033570327
0002f0 ff d2 38 bd e2 dc ee bd 0e 94 61 bd 5d a2 38 bb
       -0.045123097 -0.11663224 -0.055072837 -0.0028172948
000300 c8 cd fc 3c a3 24 be bd c4 2c 74 bd e8 7d 8b bd
       0.030859843 -0.09284332 -0.059613004 -0.06811124
000310 bc 63 0e bc 01 0a df 3d de c0 d2 bd 60 d8 e1 bd
       -0.008690771 0.1089058 -0.10290693 -0.110275984
000320 ed 5d b0 bd 97 d3 f5 3d 36 ca 43 bd db 06 ae bd
       -0.08611665 0.12003248 -0.047800265 -0.08497401
000330 0f 0f 36 be 33 24 8e bc 25 9f 7f bd cd c2 a7 bd
       -0.17779182 -0.017351246 -0.06240763 -0.08191452
000340 24 0e c2 3d 55 f6 3b 3c 04 2d 26 bd 3c 15 b0 bc
       0.09475353 0.011472304 -0.040570274 -0.0214945
000350 55 8c e6 bd 6d 67 6f bb 4a 74 71 3d 38 ed f0 bc
       -0.11257235 -0.0036530152 0.058948793 -0.02940999
000360 db 94 59 bb 45 90 ff bd de 53 e3 ba 85 30 98 bc
       -0.0033200297 -0.12478689 -0.001734372 -0.018577823
000370 3b 35 86 bd 79 a6 92 3d 8f 87 69 3c 01 1d 04 bd
       -0.06553122 0.071606584 0.014253511 -0.032254223
000380 ab 36 2f 3d 33 06 8f 3d 27 6a 5d bd 3e a5 91 bc
       0.042776745 0.06983604 -0.054056313 -0.017778989
000390 d2 82 cb 3d 38 91 b9 bc 3d 75 ab bd b4 45 3d bc
       0.09937061 -0.022652254 -0.08371971 -0.011552263
0003a0 f9 60 92 bc ab f9 e1 bd 30 ea 83 bd 4d fc 41 bb
       -0.017868506 -0.110339485 -0.06441152 -0.0029599846
0003b0 f0 15 77 3d 57 74 30 3d df bd dd 3c f7 0b 99 bc
       0.060323656 0.0430797 0.027068077 -0.018682463
0003c0 3d f7 a3 3c eb da b5 3c 64 fe f9 3d e1 56 e4 3d
       0.020015353 0.022199115 0.12206724 0.11149383
0003d0 9a dc be bd fc 86 79 3d ce 4e 0d bc 57 00 76 3d
       -0.0931942 0.060919747 -0.0086247455 0.060058918
0003e0 c9 63 e9 3d 6d e9 05 3d 3b a7 b6 3d 34 e7 5c 3e
       0.11395986 0.032693315 0.089186154 0.21572572
0003f0 d4 5e d8 3d e4 ec 6f bc 2d 7b 08 3d 87 dc c0 3d
       0.10564962 -0.0146438815 0.033320595 0.09417062

bias f4 [32]
000000 aa 7a 8c b2 0f bc cc b4 51 bb 87 b4 a7 78 b5 b3
       -1.6353926e-08 -3.8134792e-07 -2.5282e-07 -8.450416e-08
000010 02 dc 9a 34 ae 3a 19 34 dc 16 65 b4 25 12 70 b5
       2.8844812e-07 1.4270583e-07 -2.1335603e-07 -8.943337e-07
000020 70 00 d3 b4 61 56 87 b4 44 88 dd 34 64 61 86 b4
       -3.930213e-07 -2.5208558e-07 4.1263604e-07 -2.5030306e-07
000030 62 d0 b8 32 a1 ff c9 b4 e6 bd 1f b5 4a ad 8d 34
       2.151518e-08 -3.7625162e-07 -5.9508454e-07 2.638938e-07
000040 8e 1e 61 34 8f ab 0b b4 cc 5e 79 32 66 48 9d b4
       2.0965874e-07 -1.3007796e-07 1.4515262e-08 -2.9296206e-07
000050 bf 8c b7 b3 36 31 32 b5 00 3a 6a 34 5d 15 85 b5
       -8.547203e-08 -6.638178e-07 2.1814049e-07 -9.91549e-07
000060 b2 5e ca 32 30 aa 79 b3 22 bc 1c b5 35 52 fc b4
       2.3558957e-08 -5.8129615e-08 -5.83883e-07 -4.699847e-07
000070 8a 6a 07 b5 a2 8d 5a b4 51 fd 82 b5 f1 c5 67 b4
       -5.0446454e-07 -2.0354358e-07 -9.75948e-07 -2.1585562e-07

weight f4 [32]
000000 a4 e5 45 3f 2e 89 6c 3f 4b 3d 50 3f 3b 82 5f 3f
       0.7730353 0.9239682 0.81343526 0.8730809
000010 5c c1 4d 3f 2e ee 54 3f 97 cd 66 3f a5 db 48 3f
       0.8037317 0.83175933 0.90157455 0.7846015
000020 48 fd 59 3f 8d cf 4a 3f 46 15 5c 3f fb e9 6c 3f
       0.851521 0.7922295 0.8596996 0.92544526
000030 28 0c 57 3f f2 07 4e 3f 48 9f 49 3f a7 6e 7c 3f
       0.84002924 0.80480874 0.7875867 0.9860634
000040 5e 86 5c 3f 9d e4 53 3f 0b c0 4d 3f aa cd 4f 3f
       0.8614253 0.8277071 0.8037116 0.81173193
000050 d0 b4 4c 3f 34 28 4d 3f 57 ce 52 3f b4 df 49 3f
       0.799634 0.8013947 0.823461 0.7885697
000060 85 91 4f 3f 3c 62 66 3f a2 e0 55 3f d5 4c 61 3f
       0.8108142 0.89993644 0.8354589 0.8800786
000070 fe 37 6b 3f 10 32 71 3f c3 01 53 3f 6b cd 51 3f
       0.9188231 0.94217014 0.82424563 0.8195407

bias f4 [32]
000000 3e 15 6b be 41 2f 46 bd a1 ba 65 be bf 1d 19 be
       -0.22957322 -0.04838491 -0.22434475 -0.14952753
000010 1a 66 71 be f9 94 37 be b1 1e ae bd b4 b7 5d be
       -0.23574105 -0.17927922 -0.08501948 -0.21652108
000020 ac 11 a6 bd b3 39 55 be 6f ec 90 bd 95 ac 12 bd
       -0.081088394 -0.20822792 -0.07076346 -0.03580912
000030 6e 39 28 be e8 9f 71 be 38 e3 69 be 44 4d 20 bd
       -0.16428158 -0.23596156 -0.22840583 -0.039136186
000040 d9 26 0a be c4 00 3b be d0 ec 56 be ad 61 43 be
       -0.13491382 -0.18262011 -0.20988774 -0.19080229
000050 4a cb 74 be 6c 38 74 be 69 f6 53 be 75 48 54 be
       -0.23905674 -0.23849648 -0.20699467 -0.20730765
000060 f6 74 50 be 95 76 dc bd 7e 20 e5 bd ff 9d ff bd
       -0.20357117 -0.10764805 -0.11187838 -0.12481307
000070 3b 1a e4 bd e8 e4 4d bd 21 9c 49 be b1 ad e6 bd
       -0.111378156 -0.05026713 -0.19688465 -0.11263598

running_mean f4 [32]
000000 b3 ea 23 40 17 e3 5d c0 4a 4a 7a c0 61 b9 45 40
       2.5612 -3.4669855 -3.9107842 3.0894396
000010 11 86 34 c0 c2 4c 2e c0 e2 e6 84 c0 7d 87 75 c0
       -2.8206828 -2.723435 -4.153184 -3.8363945
000020 04 a9 16 bf 22 fe 7d 3f df 50 c5 bf 55 9b 86 c0
       -0.5885165 0.992159 -1.5415305 -4.2064614
000030 5c 97 7b c0 bc 0b 1d c0 74 69 4e c0 89 41 5b 40
       -3.9311132 -2.4538412 -3.2251863 3.425875
000040 74 bc 83 40 49 95 4f c0 97 94 0a c0 0b ad a8 bf
       4.1167545 -3.2434866 -2.1653192 -1.3177809
000050 9d 8c 67 c0 79 86 42 c0 af cb 24 c0 58 8c 60 c0
       -3.6179574 -3.0394576 -2.5749319 -3.508566
000060 32 6a 67 c0 a1 14 2a 40 d0 ba 0c c0 a4 8a ce bf
       -3.6158566 2.657509 -2.1989021 -1.613606
000070 85 b4 2d c0 94 a2 0e 40 9f a7 70 c0 56 c4 17 c0
       -2.714143 2.228673 -3.7602308 -2.3713584

running_var f4 [32]
000000 45 f5 cf 42 76 47 bf 42 20 6a c7 42 03 33 d2 42
       103.97904 95.63957 99.707275 105.09963
000010 00 a5 bf 42 58 f8 64 42 bd 0c 69 42 b6 8e a2 42
       95.822266 57.242523 58.26244 81.27873
000020 6e 3a 0f 42 29 37 00 42 8c c9 0a 42 cb cd fa 42
       35.80706 32.053867 34.696823 125.40194
000030 3e 8d da 42 56 d7 89 42 9d 41 d2 42 10 16 35 42
       109.27586 68.92058 105.12815 45.271545
000040 87 77 07 43 0e 1c b4 42 7c 4b c7 42 dd 62 3e 42
       135.4669 90.054794 99.64743 47.596546
000050 e7 99 d3 42 6e 69 ae 42 1a 2f 96 42 dd 55 8a 42
       105.80059 87.20592 75.091995 69.1677
000060 56 37 ad 42 fc 73 2c 42 29 b5 78 42 d9 5b 57 42
       86.60808 43.113266 62.176914 53.839695
000070 f0 88 8e 42 ca 18 23 42 69 d7 c0 42 40 25 99 42
       71.267456 40.774208 96.42072 76.572754

weight f4 [128, 1120]
000000 95 14 13 3b ab db 96 ba 30 8f d5 3d 59 e5 9e 3d
       0.0022442688 -0.0011509558 0.104277015 0.07758588
000010 ba 82 a5 bd cf d9 e5 bd 9a 8c 1b 3d 87 de 83 bc
       -0.08081575 -0.11223184 0.037975885 -0.01609732
000020 34 b0 a1 bc a9 cc 26 bb b2 29 a4 bc 3a fd 71 3c
       -0.01973734 -0.0025451577 -0.020039413 0.014769847
000030 c6 9f ea 3c 48 e6 26 3d b1 74 88 bd c9 b1 6a bc
       0.028640639 0.040746957 -0.06662882 -0.014324614
000040 8e 36 ce bc 5e 4b 9d 3d b3 5e 91 3d e3 8e 32 bd
       -0.025172498 0.07680391 0.070981406 -0.0435933
000050 d2 6f 11 bd e5 de 8e bc b9 bf a0 3d 00 ea 06 bd
       -0.03550703 -0.017440269 0.07849068 -0.032938004
000060 cd 61 b0 3c 7f 5e 5c bd 28 1b 05 3d b7 48 9b 3d
       0.02153101 -0.053801056 0.0324966 0.07582229
000070 d1 7b 35 3c 07 d7 05 bd d1 60 79 3d d7 04 86 3c
       0.011076883 -0.03267577 0.060883347 0.01635973
000080 39 17 5c 3c 1f 02 e2 38 f8 15 a7 bd 51 84 aa bc
       0.013433271 0.00010776915 -0.08158487 -0.020815047
000090 b3 c7 c3 3c 4c 27 50 bd 7c 3b d9 bd 54 09 47 bd
       0.023898935 -0.050818726 -0.10607049 -0.04859288
0000a0 f5 85 38 3d c2 6b 5d bd 33 a0 25 be f8 b7 99 bd
       0.045049626 -0.054057844 -0.16174392 -0.075057924
0000b0 86 b3 51 bd 35 ed 4c bc 96 c5 69 bd d6 2f 00 bd
       -0.051196598 -0.012507726 -0.0570732 -0.03129562
0000c0 3f 33 a0 bd 62 42 ef bc d9 93 9c 3c ff 3c 9c bd
       -0.078222744 -0.029206458 0.019113468 -0.076288216
0000d0 25 5b 34 be 44 42 96 bd e9 49 95 3c f7 a9 c8 bc
       -0.17612894 -0.07336858 0.01822372 -0.024495108
0000e0 24 11 59 bc 53 2f e0 bd 59 ae 5b bd 6e d8 db 3c
       -0.013248716 -0.109465264 -0.053633068 0.0268366
0000f0 03 5a 97 bd 67 70 53 bd 49 b7 b6 bd 8c 54 91 bd
       -0.07390215 -0.051620867 -0.089216776 -0.07096204
000100 78 fa 16 bd 1b 8e c1 bd 0e 36 d0 bd ed 37 e8 bd
       -0.03685996 -0.094509326 -0.1016656 -0.11338792
000110 81 b5 3d bd b6 43 48 bd 8a ed a5 bc af 1e 53 bd
       -0.046315674 -0.0488927 -0.020254869 -0.051542934
000120 4b 15 de 3c d1 40 a6 3c 6f 00 9f 3d 46 37 9e 3c
       0.027109763 0.020294579 0.077637546 0.019313466
000130 e6 ba c6 bc f4 56 01 3c c6 4c 74 3c 1e ae fa bc
       -0.024259042 0.007894266 0.014910882 -0.030600604
000140 f2 2a 99 3d 67 61 24 bd 2a 87 42 ba fb 3d 6e bc
       0.07478894 -0.040131953 -0.0007420654 -0.0145411445
000150 ba f1 f7 bc 1f fa 0a 3d 28 c4 5c 3d 50 8e 48 3d
       -0.030266631 0.03392994 0.053898007 0.048963845
000160 6a 6f 27 bd 19 cd c0 bd 28 0e 00 bd 5d a4 28 3d
       -0.040877737 -0.09414119 -0.0312635 0.041172374
000170 ff 29 98 bc bc d4 0a 3d c9 a7 12 bb 8a a8 45 bd
       -0.018574713 0.033894286 -0.002237784 -0.048256435
000180 72 02 dc bc c7 eb 34 3d e4 08 61 3d e2 b4 a4 bc
       -0.026856635 0.044170167 0.05494012 -0.020105783
000190 33 c1 0d bd 7b a9 20 bc 97 46 e2 3c 56 40 8d bc
       -0.034608077 -0.009806032 0.02762155 -0.017242592
0001a0 ca 5f 86 bd b9 b9 f1 bc e2 4b 65 3d ba 90 7f 3d
       -0.06561239 -0.029507505 0.05598057 0.06239388
0001b0 5d 84 e9 3b 5a 7e 86 3b 27 24 2e 3d 59 23 7d bd
       0.0071263746 0.0041044177 0.042514946 -0.06180129
0001c0 0b 22 b3 3d 01 44 7d 3c 9f a9 7d bd ed d7 a1 bc
       0.087467276 0.015458108 -0.06192934 -0.019756282
0001d0 26 40 75 3c 54 8a 66 3b db a1 19 3d e3 7c f7 bd
       0.014968907 0.0035177665 0.037507873 -0.12084367
0001e0 6a d3 9f 3b ac 7d 5f bb 8f 5a e3 3c 00 23 8b bd
       0.0048774974 -0.0034102006 0.027753143 -0.06793785
0001f0 98 16 14 3c fb 31 b3 bb 90 b6 e2 bc 15 5b 27 3c
       0.00903859 -0.0054686046 -0.027674943 0.010214587
000200 80 02 a8 bc af 2e ab ba 24 3c 84 3b 4d b0 1c bd
       -0.020509005 -0.0013060177 0.0040354896 -0.03825407
000210 d7 a3 45 3d 3b 6f 9f bc d9 74 4a bb 77 26 b5 3c
       0.048251953 -0.019462219 -0.00308924 0.022113068
000220 18 a2 1f 3d fc 51 ad 3d 2a 6e df bb b1 41 2d 3c
       0.038972944 0.08462903 -0.0068185525 0.010574744
000230 e8 3e 19 bd 81 96 9f 3d 17 d5 8c bd 65 95 be bc
       -0.037413508 0.07792378 -0.06876581 -0.023264596
000240 09 8f e6 bc 1b 14 a1 bb f7 6b 6a bd 1b b7 73 3d
       -0.028144376 -0.004915727 -0.05723187 0.059500795
000250 bd 40 ff bc 3a ca bf 3c ba 97 c9 3d 80 bf 14 3d
       -0.0311588 0.023411859 0.09843393 0.03631544
000260 cd 14 13 3d 06 69 84 3d 43 73 d0 3c a5 6e 7f 3d
       0.03590851 0.06465344 0.025445586 0.06236138
000270 aa c8 c9 3b 61 50 b8 3d a2 ab 27 3d 2e bc 8f 3d
       0.006157954 0.08999706 0.040935166 0.07018314
000280 bb 2e 49 3c 14 9e 16 3d a5 f3 76 3d 0b 59 ca 3c
       0.012279208 0.03677185 0.06029095 0.024700662
000290 fa ac 95 3d da ab 0c 3e bd 5d f7 bc 7c c2 fd 3d
       0.07308383 0.13737431 -0.030196065 0.123906106
0002a0 8e 59 51 3a c8 f8 b7 3d d5 28 a0 bd 57 95 c9 3d
       0.0007986062 0.08982998 -0.07820288 0.098429374
0002b0 01 78 5c 3c ff ad 59 bd ac 3a 8b 3c d6 a9 68 3d
       0.013456346 -0.05314445 0.01699575 0.056802593
0002c0 9f 93 1d be 67 01 8e bd ff 3a 2f bd fc 98 03 bc
       -0.15388344 -0.06933861 -0.042780872 -0.00803208
0002d0 66 45 d1 3d 94 13 66 bd 3c 45 09 bc 01 be 97 bd
       0.10218315 -0.056171015 -0.008378323 -0.07409287
0002e0 7f 73 97 bd 2c 7e 23 3d e6 00 d0 bb 74 05 40 bd
       -0.07395076 0.03991525 -0.0063477634 -0.0468802
0002f0 d4 40 70 3c 3a 87 e7 3c 54 d8 ac bc 74 04 55 3c
       0.014663894 0.028262723 -0.021099247 0.01300155
000300 23 23 ff 3b ce d0 00 bd 53 c2 92 bd 95 fe b9 bc
       0.007786171 -0.03144913 -0.07165971 -0.022704402
000310 54 32 64 bd e7 f2 05 be 41 40 e3 3c c7 8c a9 bd
       -0.05571206 -0.13080941 0.0277406 -0.08278804
000320 39 93 81 bd cf dc 89 3c ba f4 09 3c 83 ab ae bc
       -0.063269086 0.016828923 0.008420164 -0.021322018
000330 b2 97 c2 bd 61 c0 e6 3b ab 5b 32 ba ba 4f ce 3c
       -0.0950159 0.0070419763 -0.0006803821 0.025184501
000340 b7 c6 81 bc 90 da d5 bd 4e 19 7d bd 19 56 a2 bd
       -0.015841825 -0.10442078 -0.06179171 -0.07926578
000350 33 1c b5 bd 64 18 02 be 5d 54 33 bd 0c 08 b7 bd
       -0.08843269 -0.12704617 -0.043781627 -0.08937082
000360 6e 32 10 be 1a 3d 0d be c5 91 1a bc 2b 2e a6 bd
       -0.14081737 -0.1379284 -0.009434168 -0.081142746
000370 b1 7e 98 3c c3 7d d0 bd 3a ea 51 bd 8f dc 03 bd
       0.018615099 -0.10180237 -0.051248766 -0.032192763
000380 04 71 d0 3b d3 05 43 3d 43 83 ba bd d5 d3 0b bd
       0.0063611288 0.047612976 -0.091070674 -0.034137566
000390 a2 5b b6 bc a7 e1 7e bc 81 06 d8 bd df 20 06 3c
       -0.02226049 -0.015556729 -0.105481155 0.008186548
0003a0 e2 49 f5 bd 1f d9 a8 bd 83 81 b4 bc 05 ac a1 bc
       -0.11976983 -0.082445376 -0.022034412 -0.019735346
0003b0 f1 de ba bd 77 41 86 bd 56 de 05 be 9b f7 bc 3b
       -0.09124554 -0.06555455 -0.13073096 0.0057668216
0003c0 6d 16 94 bc 28 59 06 3d ef f3 1a be 0b b1 47 bd
       -0.0180771 0.03279987 -0.15132116 -0.048752826
0003d0 8b fa f8 bc 68 1a cb ba 52 c7 7e bd f1 1c fd 3b
       -0.030392906 -0.001549554 -0.062201805 0.0077243974
0003e0 6c c0 89 bc 07 c2 69 3c 69 1a 0e bc d2 a4 77 bd
       -0.016815387 0.014267451 -0.008673289 -0.06045992
0003f0 8b ae 2f 3d ca 82 87 3c 9c 8b 82 bd 49 f3 73 bd
       0.042891067 0.016541857 -0.063742846 -0.059558187

bias f4 [128]
000000 02 e4 80 bd aa 47 e4 bb e0 d2 35 bd 74 ae 10 bd
       -0.06293489 -0.006966551 -0.04439056 -0.03532262
000010 09 9d 18 bd aa 69 eb bc 28 8f 24 bd c5 0a 2e bd
       -0.037259135 -0.028736908 -0.040175587 -0.04249074
000020 ca d1 45 bd be 3d 46 bd a0 c0 3f bd 85 82 32 bd
       -0.048295774 -0.048398726 -0.04681456 -0.043581504
000030 9a 17 04 bd cf e3 26 bd d3 4d 38 bd 24 22 e0 bc
       -0.03224907 -0.0407446 -0.044996094 -0.02736003
000040 e3 27 15 bd 7e 0b 1e bd a4 ed 49 bd b6 e7 2e bb
       -0.036414992 -0.03858518 -0.049298897 -0.0026688403
000050 0e 30 47 bd fa ba 3b bd 99 c1 53 bc 1a 05 0f bd
       -0.048629813 -0.04583261 -0.012924575 -0.034916975
000060 05 08 49 bd c5 97 46 bd 50 c1 2e bd 71 1f 34 bd
       -0.049079914 -0.048484582 -0.042664826 -0.043975297
000070 6d c6 21 bd b0 c7 39 bd 9b e4 44 bd 80 66 94 bc
       -0.039495874 -0.045356452 -0.048069578 -0.018115282
000080 59 dd 3c bd de 8b df bc a7 26 43 bd 86 c2 44 bd
       -0.04610953 -0.027288374 -0.047644284 -0.048037075
000090 db d3 f9 bc 69 9f 3d bd 64 0a 44 bd ff 3c 27 bd
       -0.030496528 -0.046294603 -0.04786147 -0.040829655
0000a0 46 c0 39 bd 62 82 96 bc 31 96 20 bd 8b 25 38 bd
       -0.045349382 -0.018372718 -0.039205734 -0.04495768
0000b0 aa a5 e6 bc 2e 00 3d bd 36 1c 31 bd 73 47 95 bc
       -0.028155167 -0.04614275 -0.043239795 -0.018222546
0000c0 74 ae 11 bd 97 fb 2a bd 50 40 27 bd de e7 3b bd
       -0.035566762 -0.04174384 -0.040832818 -0.045875423
0000d0 0d 21 44 bd 3f 50 4e bd 17 0e cb bc 82 0a ea bc
       -0.047883082 -0.050369497 -0.024786992 -0.028569464
0000e0 8d 26 c4 bc b8 d6 8f bc 6e 09 0e bd 8b c0 be bc
       -0.023944164 -0.01755844 -0.03467696 -0.023285171
0000f0 79 5d 1b bd 79 59 45 bd ea 7a 56 bd ac ec 1c bd
       -0.03793094 -0.04818103 -0.052363314 -0.038311645
000100 22 bf 16 bd 25 73 19 bd ff a2 6f bd 40 e9 c3 bc
       -0.036803372 -0.037463326 -0.058505055 -0.023914933
000110 03 ef 91 bd dc e2 a8 bc 42 99 1b bd 3d b7 41 3c
       -0.07125666 -0.020615987 -0.037987955 0.011823473
000120 a3 7e f6 bc b0 97 3f bd bd 5f 77 bd 75 fa 23 bd
       -0.030089682 -0.04677552 -0.060394038 -0.040033776
000130 85 2e 46 bd 9d a1 47 bd a8 72 28 bd b1 0d c5 bc
       -0.04838421 -0.04873811 -0.04112497 -0.02405438
000140 dc 36 49 bd b4 ba 31 bd d3 5f 3e bd b9 fe 26 bc
       -0.049124584 -0.043390945 -0.046478104 -0.010192567
000150 ce 00 62 bc 4e 3c 1d bd 73 d6 37 bd ce d6 79 bb
       -0.013794137 -0.03838759 -0.04488225 -0.0038122418
000160 3a de 3f bd 28 e1 2a bd 06 59 2c bd 2e 70 dd bc
       -0.04684279 -0.041718632 -0.042077087 -0.02703103
000170 4f 21 42 bd 87 96 ba bb 34 53 43 bd cd 08 31 bd
       -0.047395047 -0.005694214 -0.04768677 -0.043221284
000180 1e e6 75 bd 35 2d 47 bd 4d e5 3b bd 89 ff ef bb
       -0.06003391 -0.048627097 -0.045872975 -0.0073241633
000190 02 c7 97 bc 7e 65 46 bd 26 f5 51 bd c6 8e 49 bd
       -0.018527512 -0.048436634 -0.051259182 -0.049208425
0001a0 c4 7b 47 bd 94 04 45 bd 34 06 40 bd 53 2c 72 bd
       -0.048702016 -0.04810007 -0.046880916 -0.059124302
0001b0 70 f8 0c bd 20 46 35 bd 93 5f 33 bd d1 89 16 bd
       -0.034416616 -0.04425633 -0.04379232 -0.036752526
0001c0 04 f8 40 bd 04 65 0c bd ba 7f c0 bc 94 5c d3 bc
       -0.047111526 -0.034276024 -0.023498405 -0.02580098
0001d0 c2 c3 e9 bc 5c 68 b1 bc d7 9e da bc 00 5f ac bc
       -0.028535727 -0.021656208 -0.026687069 -0.021041393
0001e0 e5 c8 3f bd 09 2c 09 bc 01 db 38 bd e5 f1 3a bd
       -0.046822447 -0.008372315 -0.045130733 -0.045640845
0001f0 11 69 63 bd aa 01 c6 bc c2 3e f4 bc 68 34 38 bd
       -0.05552012 -0.024170715 -0.029815082 -0.044971853

weight f4 [1, 128]
000000 7f a1 11 bb 54 55 1a 3c 15 1a cc bc 58 9e a7 3c
       -0.0022221503 0.009419758 -0.02491478 0.020461246
000010 e9 82 a7 3c c3 46 30 be d7 60 be 3b b9 1d e5 3c
       0.020448165 -0.17214493 0.005809884 0.027968274
000020 51 cf 8a 3d 49 20 b6 3d 11 84 17 bc 40 95 dd bc
       0.06777824 0.08892877 -0.009247796 -0.027048707
000030 17 42 26 bd c6 83 c5 3c b6 6e 21 bc a5 75 32 bd
       -0.040590372 0.024110686 -0.009853056 -0.043569226
000040 a6 61 13 bd 45 36 ba bc b8 36 11 3e b3 64 96 bd
       -0.035981797 -0.022730956 0.1418103 -0.073434256
000050 68 a2 f8 3d 0e 6b 82 3c 60 9d 00 3b 67 7a 70 bb
       0.121403515 0.015920188 0.0019625053 -0.0036694051
000060 72 28 bc 3d 3e 50 33 3d 10 35 22 3c f7 2e 1f 3d
       0.09187402 0.043777697 0.009900346 0.03886315
000070 54 68 fa 3c 36 a7 2b 3c 98 83 1b 3d cc 8e f5 3c
       0.030567326 0.010476878 0.037967294 0.029975317
000080 01 95 bd 3c c3 6a 99 bb aa 23 14 3e da 51 17 3e
       0.02314234 -0.0046819164 0.1446673 0.14777318
000090 fd 22 bd bd 1d 45 24 3c 14 cd ee 3c 1e 84 ba bc
       -0.09235189 0.0100262435 0.029150523 -0.022768077
0000a0 60 b7 55 bc 1f b2 e7 bb 75 19 b1 bc dd de 01 3d
       -0.013044208 -0.0070707942 -0.021618584 0.03170668
0000b0 14 ea 8b 3b 17 8c f7 3c cc 67 ac bd 7d 87 6b bd
       0.0042698476 0.030218167 -0.08418235 -0.05750226
0000c0 98 3e ac bc b1 bb 97 bc a7 a5 ee 3c 15 e2 46 3c
       -0.02102594 -0.018522115 0.029131724 0.012138863
0000d0 9b 8b d9 3d 4e 15 03 be 59 6a 69 bd aa 6c 77 bc
       0.10622331 -0.12801096 -0.056986187 -0.015101591
0000e0 93 c4 1a bd 93 51 75 bd a3 5e 6e 3c ac 06 05 ba
       -0.037785124 -0.05989225 0.01454893 -0.00050745416
0000f0 6b eb 07 bd 6c 81 59 3d b4 70 97 3c 85 03 c9 3c
       -0.033183496 0.053101942 0.018486358 0.024537811
000100 71 e3 e9 bc 7a 0b 20 3c 25 06 b7 3c 20 88 ab bc
       -0.028550835 0.009768361 0.022341797 -0.020938933
000110 d2 27 e6 bb db 5e fc bc b5 4b bd bc 8e 53 9d bc
       -0.00702379 -0.03080695 -0.023107389 -0.019204881
000120 11 49 1e bd a8 4e 4e 3b 56 39 78 bb 25 16 7b 3c
       -0.0386439 0.0031479988 -0.0037875972 0.015325104
000130 18 de 7b 3d 13 08 7e 3d 39 91 66 3c 59 83 fe bc
       0.061491102 0.06201942 0.01407271 -0.03106849
000140 70 0d c4 3d d7 6a e6 bc ca 46 05 3c c0 e5 d5 bc
       0.095728755 -0.028127117 0.008134553 -0.02611053
000150 5d 2f da bc bf 74 ab bb 6f a6 3d bc 35 eb 25 bd
       -0.026633913 -0.005232423 -0.011575325 -0.040507514
000160 c6 47 94 bb 14 5f 4c bd 58 da 8c bd 35 54 3d bd
       -0.0045251576 -0.04989536 -0.06877583 -0.046222884
000170 63 7c cf 3b 1f 98 bc bc dd 0c ed 3d 0b 49 79 bc
       0.0063319667 -0.023021756 0.11574719 -0.015215169
000180 e4 25 01 bd 43 6d c8 3d a6 fb 94 3b 6a 55 72 bd
       -0.031530276 0.09786465 0.0045466004 -0.05916349
000190 48 09 04 bd 4f 41 21 3d 43 0c f5 bc 62 4e ee 3d
       -0.032235414 0.039368924 -0.029913073 0.11636044
0001a0 14 d6 74 3d c6 8f 4a 3d 34 08 7b 3d 72 e2 14 bc
       0.059774473 0.04945352 0.06128712 -0.009087192
0001b0 65 f2 bc bb 11 74 b0 bb ff 2e 89 3d 8d 98 1e 3d
       -0.0057662004 -0.00538493 0.06698417 0.038719703
0001c0 de ef 49 3d c6 46 2a bd f6 2e 3a bb 33 c4 16 bd
       0.04930102 -0.0415714 -0.0028409339 -0.036808204
0001d0 cf df 9f 3b 07 15 d4 bc 52 78 1e bd a5 d4 02 3d
       0.004878975 -0.025888933 -0.038688965 0.031941075
0001e0 4a 8c 90 ba fd 90 48 bd c1 9d 68 bc 1b b7 a9 3c
       -0.0011028138 -0.048966397 -0.014197768 0.020717194
0001f0 99 c3 bc 3c 0e 73 21 bd c2 d1 0f 3b 34 2b 8b bd
       0.023042487 -0.039416365 0.0021945094 -0.0679535
