saved_trials/ppo-MiniWorld-Maze-v0-lr=0.00005-num_steps=160/MiniWorld-Maze-v0.pt (torch_old, 812358 bytes, 23 tensors)

weight f4 [32, 12, 5, 5]
0	0x3d9c9dea	0.07647307
1	0x3c9dda16	0.01926903
2	0x3d9e8355	0.07739893
3	0xbdbabb14	-0.091177136
4	0x3d2ebf73	0.04266305
5	0x3e10425a	0.14087811
6	0xbd2bf719	-0.041983698
7	0x3dcc4c63	0.09975507
8	0x3e10a9f0	0.14127326
9	0xbe07bf21	-0.13256504
10	0x3df2937e	0.11844538
11	0x3cfd6104	0.03093005
12	0xbd0f93d9	-0.035053108
13	0x3c5994e5	0.013280128
14	0x3c6abe2b	0.014327566
15	0x3d4a0b6e	0.049327306
16	0xbe297ae1	-0.16550781
17	0xbe2b6899	-0.1673912
18	0xbdc39b0e	-0.09551059
19	0xbd00ac2f	-0.031414207
20	0x3dc2e203	0.095157646
21	0x3e187369	0.14887775
22	0x3c5cb5ac	0.013471048
23	0x3d62aa5b	0.055338245
24	0x3d169e8a	0.03677229
25	0x3d85cfe6	0.06533794
26	0x3ab2cde9	0.0013641688
27	0x3cf30c36	0.029668909
28	0x3bc1c83c	0.0059137624
29	0xbc841dee	-0.016127553
30	0x3de09744	0.10966352
31	0x3c84599c	0.01615601
32	0xbcf4154b	-0.02979531
33	0x3d7da30c	0.06192307
34	0xbc0f1b49	-0.008734533
35	0xbc190501	-0.009339572
36	0xbd13c43f	-0.036075827
37	0xbd405a4a	-0.046961106
38	0x3ca34e9f	0.01993495
39	0xbe2e99f7	-0.1705092
40	0xbcff7aad	-0.031186426
41	0xbd88a933	-0.06672897
42	0x3d92b9a4	0.071643144
43	0xbd02ce20	-0.031934857
44	0xbd66d39d	-0.056354154
45	0xbd5e4129	-0.05426136
46	0xbe2e091c	-0.16995662
47	0x3b8241c5	0.0039751255
48	0x3df4aa50	0.11946547
49	0xbd6f977b	-0.058494072
50	0x3ca3abc9	0.019979374
51	0x3dceb6e2	0.10093476
52	0xbd879ddc	-0.06621906
53	0xbdb3928a	-0.087681845
54	0xbdaeb19c	-0.0852997
55	0x3da7a588	0.081858695
56	0xbc1528a6	-0.00910393
57	0x3dd72cb1	0.10506571
58	0xbe3959f1	-0.18100716
59	0xbd49af5d	-0.049239505
60	0xbc09b9bc	-0.008406099
61	0xbdc0752f	-0.09397351
62	0x39abbd2a	0.000327566
63	0x3d157c5a	0.036495544
64	0x3dfde9fe	0.12398146
65	0x3d386a86	0.045023464
66	0xbcececfc	-0.028921597
67	0x3cbdda47	0.023175372
68	0xbd84f58e	-0.06492148
69	0x3d4eaafc	0.050456032
70	0x3d93b690	0.072125554
71	0xbe1679b1	-0.14694859
72	0xbdc0d99e	-0.09416507
73	0x3daddc04	0.0848923
74	0x3cac87d8	0.02106087
75	0x3cfd4574	0.030916907
76	0xbd4c6966	-0.049905203
77	0xbd455bee	-0.048183374
78	0xbca8cd62	-0.020605747
79	0xbc7c688d	-0.015405786
80	0xbd60d203	-0.054887783
81	0xbe11ebeb	-0.14250152
82	0xbde03d1d	-0.109491564
83	0x3d79a5c9	0.06094912
84	0x3cda8d92	0.026678834
85	0x3c1203b4	0.008912016
86	0xbe4663c4	-0.19373995
87	0xbd2edccd	-0.04269104
88	0x3df8a8ca	0.12141569
89	0x3ddbd14c	0.107332796
90	0x3cb5fc2c	0.022214971
91	0xbcc3f7d7	-0.02392189
92	0xbcd50004	-0.026000984
93	0x3d5e1ff2	0.054229684
94	0x3e37f909	0.17966093
95	0xbdbdfdcb	-0.09276923
96	0xbe34e536	-0.17665562
97	0xbd14f773	-0.0363688
98	0xbdc1c721	-0.09461809
99	0xbd150dd0	-0.036390126
100	0xbbf2fc5f	-0.007415339
101	0xbd1d391a	-0.038384534
102	0xbd818cd5	-0.0632569
103	0xba4d6069	-0.00078344956
104	0xbd4ccd73	-0.05000062
105	0xbd065181	-0.032792572
106	0x3d02e51f	0.03195679
107	0xbd50fa47	-0.051019933
108	0x3d9fa8aa	0.07795842
109	0x3dd3796f	0.10325896
110	0x3d48ee64	0.049055472
111	0xbda9cf9f	-0.08291554
112	0x3d474791	0.048652235
113	0x3c9d8b4c	0.019231461
114	0x3d5860d7	0.05282673
115	0xbc36a3d9	-0.011147463
116	0xbd8c53bc	-0.068519086
117	0x3cb48403	0.022035604
118	0x3c00a086	0.007850772
119	0x3e2954f1	0.16536309
120	0xbddd5fbb	-0.10809275
121	0xbadcc13a	-0.0016842254
122	0x3d9dad23	0.07699039
123	0xbdb9e198	-0.09076232
124	0xbb8dd474	-0.004328305
125	0x3d87e9a0	0.06636357
126	0xbe05230f	-0.13001655
127	0x3d6fec59	0.058575008
128	0xbd0e83ba	-0.034793593
129	0x3da28c9e	0.07936977
130	0x3d8681f9	0.06567759
131	0xbdbe7188	-0.09298998
132	0x3d6ccf48	0.057814866
133	0xbe1afe23	-0.15136008
134	0xbd405f56	-0.04696592
135	0xbd331129	-0.043717537
136	0x3d9c6281	0.07635976
137	0xbd3f7755	-0.046744663
138	0x3e31b54d	0.17354317
139	0xbd67c0e5	-0.056580443
140	0xbc1b08a1	-0.0094625065
141	0x3e4355f4	0.19075757
142	0x3dbf70d4	0.09347692
143	0x3c464619	0.0121016735
144	0xbd2ceae4	-0.042216197
145	0xbb44e24b	-0.0030042108
146	0xbcb73db4	-0.02236829
147	0x3e0bb663	0.13643794
148	0xbcc14a21	-0.023594918
149	0x3dd451f1	0.103671916
150	0x3d2c0a0f	0.04200178
151	0xbdf297fc	-0.11845395
152	0xbd142156	-0.036164604
153	0xbd2e920e	-0.042619757
154	0xbde96e96	-0.11398046
155	0x3cab4b47	0.020909918
156	0xbdc29649	-0.09501321
157	0x3d55f20e	0.052232794
158	0xbd499e76	-0.049223386
159	0x3da870fd	0.08224676
160	0x3d81128c	0.06302366
161	0x3df5a21e	0.11993812
162	0x3d8d9bc7	0.06914478
163	0xbd41a842	-0.047279604
164	0x3ce48194	0.027893819
165	0x3ddde254	0.10834184
166	0xbc9b5b37	-0.018964393
167	0xbd0bc856	-0.034126602
168	0x3dd3bf6b	0.103392445
169	0x3ddffe01	0.10937119
170	0x3dbaa274	0.09113017
171	0x3db7a9f6	0.08967964
172	0x3de8771a	0.11350842
173	0xbd7eb091	-0.062180106
174	0x3e0b9ff0	0.1363523
175	0x3d882110	0.06646931
176	0xbbfb1435	-0.007662321
177	0x3d4cd73a	0.050009944
178	0x3de80a56	0.113300964
179	0x3df8b5e2	0.121440664
180	0xbcba9376	-0.022775393
181	0x3d4a8f82	0.049453266
182	0xbcfffb05	-0.031247625
183	0x3d3d99ef	0.04628938
184	0xbbd5974e	-0.006518281
185	0xbd21f2a2	-0.039538033
186	0x3d9feaaa	0.078084305
187	0xbe13982c	-0.14413518
188	0x3e363e45	0.17797191
189	0x3d3034a9	0.04301897
190	0xbdbde2e3	-0.09271791
191	0x3c312c2d	0.010813755
192	0xbcfa3646	-0.030543458
193	0x3cd7d314	0.026345767
194	0x3d726076	0.059174024
195	0x3cec0d22	0.028814856
196	0x3d7bdb58	0.06148848
197	0xbd84bec5	-0.06481699
198	0xbd89ec10	-0.067344785
199	0xbdb94842	-0.09046985
200	0x3d34113c	0.04396175
201	0x3e59fe28	0.21288359
202	0xbd26ce0f	-0.040723857
203	0xbd18e696	-0.03732928
204	0xbd7f1b34	-0.062281802
205	0xbe413b98	-0.1887039
206	0x3ddca918	0.107744396
207	0xbdcb5723	-0.099287294
208	0x3d358288	0.044313937
209	0x3c4da96c	0.0125526
210	0xbe9be455	-0.3044764
211	0x3db85634	0.09000817
212	0xbe2c3b3f	-0.16819476
213	0xbdd372ac	-0.10324606
214	0xbe605c9e	-0.2191033
215	0xbd55aad9	-0.052164886
216	0x39088fb8	0.0001302351
217	0x3d183bdb	0.037166458
218	0x3c9701ad	0.018433416
219	0x3b8b9960	0.004260227
220	0xbddc1965	-0.10747031
221	0xbde79832	-0.11308326
222	0xbde5c9e8	-0.11220151
223	0x3e2250ee	0.15851185
224	0x3c930063	0.01794452
225	0x3cc22807	0.023700727
226	0x3c073a40	0.008253634
227	0xbd1f4d8c	-0.038892314
228	0x3d8994fd	0.067178704
229	0xbc42ec44	-0.01189715
230	0xbc8e79eb	-0.01739212
231	0xbe1e0406	-0.15431222
232	0xbc5415a9	-0.012944617
233	0xbdbff495	-0.09372822
234	0xbc62fe07	-0.01385451
235	0x3ded89d1	0.11598552
236	0x3daea1fe	0.08526991
237	0xbc4dfecc	-0.012572955
238	0xbe02b985	-0.12766083
239	0xbd879ab6	-0.06621306
240	0xba3744c2	-0.00069911417
241	0xbd6a68c4	-0.05722882
242	0x3e03d3b7	0.12873732
243	0x3d18669d	0.037207235
244	0xbb002dbf	-0.0019558517
245	0xbb9d6164	-0.0048028696
246	0x3c91e980	0.017811537
247	0x3d1f0039	0.03881857
248	0x3ddcc673	0.10780039
249	0x3d3ee136	0.046601497
250	0xbdf89a4f	-0.12138807
251	0xbcfc51be	-0.030800696
252	0x3d78ee6f	0.060774263
253	0xbb041324	-0.002015301
254	0xbdac5640	-0.084148884
255	0x3c313841	0.010816635

bias f4 [32]
0	0xb852f9b5	-5.030046e-05
1	0x3734e5f3	1.0782375e-05
2	0x3838ad39	4.4030345e-05
3	0xb37af803	-5.8433226e-08
4	0x381c5f1d	3.728188e-05
5	0x3216782a	8.758471e-09
6	0x37d5f47a	2.5505422e-05
7	0xb7911359	-1.7294356e-05
8	0xb7dc3ef2	-2.6255355e-05
9	0x38465681	4.728744e-05
10	0xb745ae08	-1.1782635e-05
11	0xb87ec4ab	-6.074148e-05
12	0x38a68252	7.939771e-05
13	0x38a17a37	7.6998425e-05
14	0xb7708eb8	-1.4338344e-05
15	0xb816d11b	-3.595753e-05
16	0xb8d898fd	-0.00010328179
17	0x378cb133	1.6771815e-05
18	0x3898038b	7.248585e-05
19	0x387574c5	5.8521302e-05
20	0x38654048	5.465772e-05
21	0x377ac9eb	1.4948174e-05
22	0xb826fd5d	-3.9813447e-05
23	0x38b5abb9	8.6627384e-05
24	0xb6e5a20f	-6.843598e-06
25	0x38e11611	0.00010732946
26	0x382e0028	4.148498e-05
27	0x373a79a1	1.1114783e-05
28	0xb70274f4	-7.775834e-06
29	0xb65711de	-3.2047897e-06
30	0x389dff3e	7.533886e-05
31	0xb8d52e12	-0.00010165213

weight f4 [32]
0	0x3f7e66a0	0.99375343
1	0x3f7bbc99	0.9833465
2	0x3f6fed74	0.937217
3	0x3f816149	1.0107814
4	0x3f7ca185	0.9868396
5	0x3f7c7cf8	0.9862819
6	0x3f6f2823	0.9342062
7	0x3f7e809d	0.99415
8	0x3f78f292	0.9724513
9	0x3f856e9c	1.042438
10	0x3f7a7866	0.97839963
11	0x3f7c2b15	0.9850324
12	0x3f7db9d8	0.991117
13	0x3f83fdfe	1.0311887
14	0x3f8ac430	1.0841122
15	0x3f8142fb	1.0098566
16	0x3f82fa26	1.0232589
17	0x3f776ca8	0.9665017
18	0x3f8a4520	1.0802345
19	0x3f83e953	1.030558
20	0x3f85846a	1.0431035
21	0x3f844704	1.0334172
22	0x3f81e64e	1.0148408
23	0x3f843ce2	1.033108
24	0x3f6fb4a0	0.93634987
25	0x3f852fd3	1.040522
26	0x3f7af21a	0.9802567
27	0x3f7b53d7	0.98174804
28	0x3f81101a	1.0083039
29	0x3f859f6d	1.0439278
30	0x3f7faf8c	0.9987724
31	0x3f7a7d85	0.9784778

bias f4 [32]
0	0x3d7ba385	0.06143524
1	0x3c2874fc	0.0102817975
2	0xbbd468ac	-0.0064822044
3	0x3d8ddbea	0.06926711
4	0x3d010883	0.031502258
5	0x3d35e3fc	0.044406876
6	0xbca038a9	-0.019558268
7	0xbcb15642	-0.021647576
8	0x3b96fa24	0.004607456
9	0x3d121741	0.035666708
10	0x3db38e89	0.08767421
11	0x3ce785eb	0.0282621
12	0x3d4dfdaa	0.05029074
13	0x3d80b946	0.06285338
14	0xbb61d07e	-0.0034456546
15	0xbbc4defe	-0.006008028
16	0x3c608126	0.013702666
17	0xbcee5c5c	-0.029096775
18	0x3deacdaa	0.114650086
19	0x3d3b7f65	0.04577579
20	0x3cb9c6b1	0.022677751
21	0x3d56bb9b	0.05242501
22	0xbcee00a9	-0.02905305
23	0x3d3f08d4	0.04663928
24	0x3b83ad76	0.004018481
25	0x3d5cde6c	0.053923056
26	0x3c8e6a84	0.017384775
27	0xbc8cd25a	-0.017190147
28	0x3d3638d5	0.044487793
29	0x3d940a27	0.07228499
30	0xbcb29d9d	-0.021803671
31	0x3d9d5bc6	0.0768352

running_mean f4 [32]
0	0x3dc444a5	0.095834054
1	0xbeb37c41	-0.35055736
2	0x3e4379fa	0.19089499
3	0x3d687f61	0.056762103
4	0x3e275869	0.1634232
5	0xbe90f6e7	-0.28313372
6	0xbe606626	-0.21913967
7	0x3d909a5c	0.07060692
8	0x3dc2b357	0.095068626
9	0xbe96ca3b	-0.29451165
10	0x3dc108d1	0.0942551
11	0x3e05d0d6	0.13067946
12	0xbe2207bf	-0.15823267
13	0x3e67f3b9	0.22651567
14	0xbbcc27e9	-0.0062303436
15	0x3e3621e9	0.17786373
16	0xbd999a00	-0.07500076
17	0xbd1aa832	-0.03775806
18	0xbe095271	-0.13410355
19	0x3ebbade4	0.36656106
20	0x3e67fc49	0.22654833
21	0x3ea7b69f	0.32756516
22	0xbe0e77fe	-0.13912961
23	0xbe6c19d9	-0.23056735
24	0x3e9afa49	0.30269077
25	0x3dbfe389	0.09369571
26	0x3e773774	0.24142247
27	0x3c2130cf	0.009838297
28	0x3e136048	0.14392197
29	0xbe87705e	-0.26452917
30	0x3c2218c8	0.009893604
31	0x3be58a05	0.0070049786

running_var f4 [32]
0	0x3bba3801	0.0056829457
1	0x3be04870	0.0068445727
2	0x3c209135	0.009800245
3	0x3c3c26a4	0.011483822
4	0x3bb700fe	0.005584835
5	0x3c035245	0.00801522
6	0x3bd5ee3e	0.006528645
7	0x3bae9fb8	0.0053290986
8	0x3c1c06d5	0.009523113
9	0x3c02ff11	0.007995383
10	0x3ba87f07	0.005142096
11	0x3be4b2b4	0.006979311
12	0x3b8fe457	0.004391234
13	0x3bb1f8be	0.0054312637
14	0x3bfcfaf5	0.007720346
15	0x3bc95e6c	0.006145289
16	0x3bae3269	0.005316068
17	0x3bf0c62b	0.007347842
18	0x3b99a4f8	0.0046888553
19	0x3c097f25	0.00839213
20	0x3c07619d	0.008263019
21	0x3c1e4028	0.009658851
22	0x3c1d372d	0.009595674
23	0x3be76661	0.007061765
24	0x3c22d769	0.009939053
25	0x3b967908	0.004592065
26	0x3c11cc2b	0.008898775
27	0x3c074337	0.008255771
28	0x3ba6ad94	0.00508661
29	0x3baf260a	0.005345111
30	0x3bb4a218	0.005512487
31	0x3bbc6b3d	0.0057500885

weight f4 [32, 32, 5, 5]
0	0x3d76188e	0.06008201
1	0x3d7571cc	0.05992298
2	0xbcf7d3bd	-0.030252332
3	0xbdbaded0	-0.09124529
4	0x3cdc1b28	0.026868418
5	0x3bba585b	0.0056868023
6	0xbd0e75b5	-0.034780223
7	0xbc86a270	-0.016434878
8	0xbd167f51	-0.036742512
9	0x3d4739e0	0.04863918
10	0x3d5b7035	0.053573806
11	0x3da0aad4	0.07845083
12	0x3ca0c5ea	0.019625623
13	0x3c8cd096	0.017189305
14	0x3d0ea605	0.034826297
15	0x3de95d0f	0.11394703
16	0x3d6fc5b7	0.058538165
17	0x3d9f111a	0.07766934
18	0xbc2b3b6f	-0.010451182
19	0xbd47227e	-0.04861688
20	0x3cc3c357	0.023896856
21	0x3cfb37b2	0.030666206
22	0xbbf1e6f5	-0.0073822686
23	0x3c2482b0	0.010040924
24	0xbdaadeff	-0.083433144
25	0xbd4f8fa5	-0.0506741
26	0x3d3b7851	0.04576904
27	0xbc9dca14	-0.019261397
28	0x3c0e1ec3	0.008674326
29	0x3c039f00	0.008033514
30	0xbba232ea	-0.004949917
31	0xbb9a3b33	-0.004706764
32	0xbc7d420f	-0.015457644
33	0x3cf81ed9	0.030288147
34	0x3cead563	0.028666204
35	0xbd977c87	-0.073967986
36	0xbdba5903	-0.09099009
37	0x3c80c195	0.015717307
38	0x3dad8906	0.08473401
39	0xbe024a19	-0.12723579
40	0x3d48a5f8	0.048986405
41	0x3d078f81	0.03309584
42	0x3d676854	0.05649598
43	0x3d779194	0.06044157
44	0xbd7e7817	-0.062126245
45	0x3d179ba7	0.037013676
46	0xbc2bba0e	-0.010481371
47	0xbd7c12d6	-0.0615414
48	0x3c4e522d	0.012592834
49	0x3d5457a4	0.051841393
50	0xbd1745b7	-0.03693172
51	0x3c0ac767	0.008470393
52	0xbd2043d8	-0.0391272
53	0x3daae26d	0.083439685
54	0xbceea422	-0.029130999
55	0xbd8d0a9e	-0.06886791
56	0x3d977d0f	0.073969
57	0x3de079ce	0.109607324
58	0x3c0745ab	0.008256356
59	0x3bd2cc62	0.0064330557
60	0xbd61ce61	-0.05512846
61	0x3ccde0f6	0.025131684
62	0xbc0b00ae	-0.008484049
63	0x3db8598a	0.09001453
64	0xbd53a937	-0.051675048
65	0xbcccd6c8	-0.02500476
66	0xbce3d21c	-0.027810149
67	0xbd291d0d	-0.04128747
68	0x3c935bd5	0.017988125
69	0x3d5826a8	0.05277124
70	0xbca17525	-0.01970918
71	0x3dc5e35a	0.096625045
72	0xbd02e187	-0.03195336
73	0x3be4e0c3	0.0069848015
74	0xbc9e1f19	-0.019301938
75	0xbdb0f113	-0.08639731
76	0xbb00594a	-0.001958447
77	0x3ddbc2a2	0.10730483
78	0xbc4589f3	-0.012056815
79	0xbd833a82	-0.06407644
80	0x3d41c535	0.047307212
81	0xbd855c64	-0.06511763
82	0xbb39c52e	-0.0028346288
83	0xbd2c223b	-0.042024832
84	0xbda54c5f	-0.08071207
85	0xbd479f00	-0.04873562
86	0xbce5d5b9	-0.028056012
87	0xbd8f180d	-0.06987009
88	0xbdaabafa	-0.08336444
89	0xbd918169	-0.07104761
90	0xbd0b1ed3	-0.033964943
91	0x3d99d9d5	0.07512251
92	0x3d836f5f	0.06417727
93	0x3c814380	0.015779257
94	0xbd81ad5a	-0.06331892
95	0xbc1946a3	-0.00935522
96	0x3d72778a	0.059196033
97	0xbd2a3eaf	-0.041563686
98	0xbcc629f5	-0.024189929
99	0x3d5a6c7a	0.053326108
100	0x3c5cfb7c	0.013487693
101	0x3ce2fb0a	0.027707595
102	0x3c99a856	0.018757027
103	0x3d033d20	0.032040715
104	0x3dc1af03	0.09457209
105	0x3d78413b	0.060609084
106	0xbcf0e0f6	-0.029404145
107	0x3d29460d	0.04132657
108	0x3d78bf44	0.06072928
109	0xbc8b71bd	-0.017022008
110	0xbdd3aa24	-0.10335186
111	0xbc2e8c71	-0.010653601
112	0x3dd1911a	0.10232754
113	0xbdb3f2ef	-0.0878657
114	0xbc7e749d	-0.015530732
115	0xbd93eff2	-0.072235
116	0xbd5730f5	-0.052536923
117	0x3ca1e50e	0.019762542
118	0xbd5ce34a	-0.053927697
119	0x3be36fdd	0.0069408254
120	0x3caa04e4	0.020754285
121	0xbd3c04c3	-0.04590298
122	0xbd986fb6	-0.07443182
123	0xbd9f6b2e	-0.07784115
124	0xbddd788c	-0.10814008
125	0x3cf61a7b	0.030041924
126	0x3c83522c	0.016030394
127	0x3d5835ce	0.052785687
128	0xbd8aa0e9	-0.067689724
129	0xbccef45d	-0.025263006
130	0xbca156dc	-0.019694738
131	0xbd14276c	-0.036170408
132	0xbd58a5cc	-0.05289249
133	0xbce92d07	-0.028463854
134	0xbd8e71de	-0.06955312
135	0x3d2518b6	0.04030677
136	0x3c837843	0.016048556
137	0xbc982dad	-0.018576467
138	0x3d390e6a	0.045179762
139	0xbd826d06	-0.06368451
140	0xbd203dc9	-0.039121423
141	0xbd7d43de	-0.0618323
142	0xbd089629	-0.03334633
143	0xbc96adf0	-0.018393487
144	0xbd92406b	-0.07141193
145	0x3cbcd867	0.023052407
146	0xbbb5a565	-0.005543398
147	0xbd334260	-0.043764472
148	0xbb071a10	-0.00206149
149	0xbe1bc09e	-0.15210196
150	0x3ca5d3d9	0.020242618
151	0xbcb9d891	-0.022686275
152	0x3daeb8b9	0.08531327
153	0x3d89752d	0.06711803
154	0xbceecd1e	-0.029150542
155	0xbd1a6eec	-0.03770344
156	0xbb7383f8	-0.0037157517
157	0x3d481a22	0.048853047
158	0xba63601e	-0.00086736854
159	0xbde2b8e9	-0.11070425
160	0x3b068a04	0.002052904
161	0xbcb829d3	-0.02248088
162	0xbc8d9346	-0.01728214
163	0xbd683d98	-0.056699365
164	0x3cf112af	0.029427854
165	0x3cfb0a49	0.030644553
166	0xbd8d7ad0	-0.0690819
167	0x3d4cadcd	0.049970437
168	0xbdb01ed1	-0.08599628
169	0x3d453d80	0.048154354
170	0x3d43c961	0.04779947
171	0x3c7d6690	0.015466347
172	0xbd3bbee5	-0.045836348
173	0xbd1b1f6b	-0.03787176
174	0xbd8b7d72	-0.06811036
175	0xbb35784e	-0.0027690115
176	0x3704c27f	7.913098e-06
177	0xbd2d2700	-0.04227352
178	0xbbdb6d0e	-0.00669635
179	0x3d874864	0.06605604
180	0x3b7d7d4f	0.0038679426
181	0x3d6d94ef	0.058003362
182	0xbd88635c	-0.06659576
183	0xbd68da2b	-0.056848686
184	0x3bb9d214	0.005670795
185	0xbd4d5474	-0.05012937
186	0xbc0a5d7e	-0.008445142
187	0xbcb73507	-0.022364153
188	0x3d25a70e	0.04044252
189	0x3dab89da	0.083759025
190	0xbe08684c	-0.13321036
191	0xbc5b4100	-0.013382196
192	0xbd8830a8	-0.066499054
193	0xbc89221f	-0.016739903
194	0x3da8bc72	0.08239068
195	0xbc4c3fbb	-0.012466366
196	0xbabb7fbf	-0.0014305039
197	0xbd80c118	-0.0628683
198	0xbd709d73	-0.058743905
199	0xbce96122	-0.0284887
200	0x3cec93dc	0.028879099
201	0xbc6226c0	-0.013803184
202	0x3d053f64	0.032531157
203	0x3d855a25	0.06511334
204	0xbd9c2a3e	-0.076252446
205	0x3dda5a86	0.10661797
206	0xbc9b784e	-0.018978264
207	0xbd8fac32	-0.070152655
208	0xbd4a3a0f	-0.049371775
209	0x3e0255e7	0.12728082
210	0xbc8e82fe	-0.017396446
211	0xbc83b9c5	-0.016079793
212	0x3d25afde	0.040450923
213	0x3d0e776b	0.034781855
214	0xbe197edf	-0.14989804
215	0x3c3d14da	0.011540616
216	0x3c917aa0	0.017758667
217	0xbd227ca9	-0.039669666
218	0xbd07719e	-0.03306734
219	0xbda0615a	-0.07831068
220	0xbd579391	-0.052630965
221	0x3b9ac934	0.0047236923
222	0x3e059a46	0.13047132
223	0xbcdbb626	-0.026820254
224	0xbd9c43cb	-0.07630118
225	0x3d4d1dd8	0.05007729
226	0xbd7f538b	-0.062335532
227	0xbe047938	-0.12936866
228	0x3d0bd443	0.034137975
229	0x3cc1e803	0.023670202
230	0xbcd5021b	-0.02600198
231	0xbd5802a6	-0.0527369
232	0x3d88cd2d	0.06679759
233	0x3ca89eeb	0.02058359
234	0x3d278357	0.04089674
235	0xbda930c0	-0.082612514
236	0xba9fba19	-0.0012186199
237	0x3d2170cb	0.03941421
238	0xbda8f0f9	-0.08249087
239	0xbe0ba214	-0.13636047
240	0xbd00e1f4	-0.031465486
241	0x3dad252d	0.08454356
242	0xbd013e69	-0.03155366
243	0xbbfb1a0b	-0.0076630167
244	0xbe0dc9bc	-0.13846487
245	0x3e286776	0.16445717
246	0xbd95cae8	-0.07314092
247	0x3cf682fd	0.030091757
248	0xbd56a656	-0.052404724
249	0xbb181f0d	-0.0023211867
250	0xbd116f08	-0.03550628
251	0xbc026419	-0.007958435
252	0x3c96c510	0.018404514
253	0xbc95ecaa	-0.018301327
254	0x3d2582a5	0.040407795
255	0x3d7e870c	0.06214051

bias f4 [32]
0	0xb695eef5	-4.4683643e-06
1	0xb5011de7	-4.809976e-07
2	0x363c9e9b	2.8106504e-06
3	0x35e700be	1.7211057e-06
4	0xb4acfe88	-3.2222692e-07
5	0xb5f4bedb	-1.8234963e-06
6	0x35cbe718	1.5191936e-06
7	0xb64419d2	-2.9221305e-06
8	0xb690897c	-4.3075397e-06
9	0x36240b08	2.4444325e-06
10	0x3683b2cc	3.924919e-06
11	0x352d1325	6.447538e-07
12	0xb5a383c9	-1.2182801e-06
13	0xb5d6cce9	-1.6003879e-06
14	0xb61f0bf2	-2.36998e-06
15	0xb5de33d4	-1.6555373e-06
16	0xb5ba1e80	-1.3866957e-06
17	0x35ebc870	1.7567199e-06
18	0x364ccc05	3.0517124e-06
19	0x36da1f48	6.500548e-06
20	0xb38afd57	-6.472208e-08
21	0x35a5798a	1.232883e-06
22	0x36997655	4.573531e-06
23	0x343f2967	1.7803323e-07
24	0x36f33931	7.2486223e-06
25	0x36b07097	5.258316e-06
26	0x367701c9	3.6806907e-06
27	0xb69f8a7c	-4.754691e-06
28	0x35eb661d	1.7538583e-06
29	0x360b8496	2.078979e-06
30	0x369507b0	4.441441e-06
31	0x3621ba46	2.4099295e-06

weight f4 [32]
0	0x3f79a893	0.9752285
1	0x3f80b3ad	1.0054833
2	0x3f837c08	1.0272226
3	0x3f820bbc	1.0159831
4	0x3f813c11	1.0096456
5	0x3f7acd0e	0.9796914
6	0x3f7c186c	0.98474765
7	0x3f857270	1.0425549
8	0x3f810087	1.0078286
9	0x3f7efa2e	0.99600494
10	0x3f8016e4	1.0006986
11	0x3f8227e2	1.0168421
12	0x3f810a0e	1.0081193
13	0x3f7c5f5b	0.98583
14	0x3f853e1a	1.0409577
15	0x3f818384	1.011826
16	0x3f825266	1.0181396
17	0x3f7df837	0.9920687
18	0x3f6dd47c	0.9290235
19	0x3f83263c	1.0246043
20	0x3f8581dd	1.0430256
21	0x3f8587d2	1.0432074
22	0x3f76d6d8	0.96421576
23	0x3f83fa81	1.0310823
24	0x3f85cec7	1.0453728
25	0x3f861d9a	1.0477784
26	0x3f7e90f5	0.99439937
27	0x3f818e87	1.0121621
28	0x3f751634	0.95737004
29	0x3f7ec4ce	0.9951905
30	0x3f77a430	0.96734905
31	0x3f7dbb39	0.99113804

bias f4 [32]
0	0x3cc39f46	0.023879658
1	0x3d0999f4	0.033594087
2	0x3c8a5955	0.0168883
3	0xbc6b5f16	-0.014365932
4	0x3ce9732e	0.028497305
5	0x3cbd2d14	0.023092784
6	0xbd338f78	-0.043837994
7	0x3c137d89	0.009002098
8	0x3c9be612	0.019030605
9	0x3cbaf50b	0.022821924
10	0xbc9fd4da	-0.019510675
11	0x3c9c3e40	0.019072652
12	0x3baef023	0.005338685
13	0x3d5aa304	0.05337812
14	0x3c549a37	0.012976221
15	0x3c632c29	0.013865509
16	0x3d0d9281	0.034563545
17	0xbb97ade3	-0.004628883
18	0xbd136b5a	-0.03599105
19	0x3c4e8f74	0.012607444
20	0xbcb533d4	-0.02211944
21	0x3bca059f	0.006165221
22	0xbc42d325	-0.011891161
23	0x3dbae249	0.09125192
24	0x3d1d254a	0.03836564
25	0x3d407249	0.04698399
26	0x3d4e5fc2	0.05038429
27	0x3b1d8193	0.002403353
28	0xbc1ff2ab	-0.009762446
29	0x3cb05571	0.021525117
30	0xbca8d536	-0.02060948
31	0xbd336b8c	-0.043803737

running_mean f4 [32]
0	0xbfb1e37d	-1.3897549
1	0xbe8069c7	-0.25080702
2	0x3f06eaef	0.5270223
3	0x3e01a5ca	0.126609
4	0xbf59dbd9	-0.85101086
5	0xbfc2b808	-1.5212412
6	0xbf259736	-0.64683855
7	0xbf72110b	-0.94557256
8	0xbeb52c83	-0.35385522
9	0xbec7f82b	-0.39056525
10	0xbf1e4a00	-0.61831665
11	0xbb54b699	-0.003245747
12	0xbf2a6184	-0.6655505
13	0x3d5c3c99	0.053768728
14	0xbec06c5d	-0.37582675
15	0xbfbaad6a	-1.4584172
16	0x3e649889	0.22323813
17	0xbdaeb53d	-0.08530662
18	0xbf9635da	-1.1735184
19	0xbedc095a	-0.42975885
20	0xbfcefefd	-1.6171566
21	0xbef03cad	-0.46921292
22	0xbf7b640c	-0.98199534
23	0xbf94a5bb	-1.1613077
24	0xbcae214a	-0.021256108
25	0x3e726599	0.23671569
26	0x3c64d5c6	0.013966983
27	0xbe9ba880	-0.30401993
28	0xbee26c0f	-0.44223067
29	0xbf551de9	-0.83248764
30	0xbefc31b1	-0.49256662
31	0xbeaaa2a1	-0.333272

running_var f4 [32]
0	0x3fc3221e	1.5244787
1	0x3fcd3f6c	1.603498
2	0x3f840217	1.0313138
3	0x3fb782ab	1.4336752
4	0x3fb25723	1.3932842
5	0x40044fa7	2.0673616
6	0x3fb1026f	1.3828868
7	0x4033e550	2.8108711
8	0x3fee3b92	1.861193
9	0x40027a58	2.0387173
10	0x3fea3a32	1.829901
11	0x3f84acbf	1.0365218
12	0x4000ad9f	2.010597
13	0x3ff51bee	1.9149148
14	0x3fca54a5	1.5807081
15	0x40054f80	2.0829773
16	0x3fd7976c	1.6843085
17	0x3fa58e6f	1.2934092
18	0x3fd18cd1	1.6371099
19	0x3fbfec5e	1.4994009
20	0x4016f445	2.358659
21	0x3f90829e	1.1289861
22	0x3ff2acec	1.8959022
23	0x3fb40299	1.4063293
24	0x3f9dc083	1.2324375
25	0x3fb94e28	1.4476976
26	0x3fb6d9a3	1.4285167
27	0x3f7b548a	0.9817587
28	0x3fcb72e9	1.5894443
29	0x3fcddcf4	1.6083055
30	0x3fc75023	1.5571331
31	0x3ffe2c57	1.9857281

weight f4 [32, 32, 4, 4]
0	0x3e0e3018	0.13885534
1	0xbd7a304e	-0.061081223
2	0xbd4bf45c	-0.049793586
3	0x3e043564	0.12910992
4	0x3d98495c	0.07435867
5	0x3cbdda4b	0.02317538
6	0x3bb72fcb	0.005590414
7	0xbdc4ecda	-0.09615488
8	0xbc1bd26d	-0.009510619
9	0xbcd670db	-0.02617686
10	0x3de7638c	0.11298284
11	0xbdc0bebb	-0.09411379
12	0xbc8a6aa4	-0.016896553
13	0xbd692ff1	-0.056930486
14	0xbc17b884	-0.009260301
15	0xbd05b08d	-0.032639075
16	0xbad68e10	-0.0016369242
17	0xbc442eae	-0.01197402
18	0xbb95cf72	-0.0045718485
19	0xbdc55d04	-0.09636882
20	0x3b35aca5	0.0027721312
21	0x3d0a3cd0	0.0337494
22	0x3d823037	0.063568525
23	0xbd56fd93	-0.05248792
24	0x3c7a3831	0.015272186
25	0xbcd98640	-0.026553273
26	0xbd704d6e	-0.058667593
27	0xbb337886	-0.002738507
28	0x3ca091b8	0.019600734
29	0xbd9eabe5	-0.0774763
30	0x3c33abb1	0.010966227
31	0x3d8a32fd	0.067480065
32	0xbcc58165	-0.024109552
33	0x3dd6ec4c	0.10494289
34	0x3d07f95a	0.033196785
35	0xbd4027ee	-0.04691308
36	0xbe04000a	-0.1289064
37	0xbc8a4340	-0.01687777
38	0x3a6f3b6f	0.0009125983
39	0x3d8e61fe	0.06952284
40	0x3d3e003e	0.04638695
41	0xbc1ed0e7	-0.009693361
42	0xbd7a180f	-0.0610581
43	0x3cb713d5	0.022348324
44	0xbe0aae5d	-0.13543077
45	0xbdf37661	-0.11887813
46	0xbb2e8b56	-0.0026633344
47	0x3d01c6d4	0.031683758
48	0x3d712fee	0.0588836
49	0xbe10640a	-0.14100662
50	0x3dbac994	0.09120479
51	0x3db15d4e	0.086603746
52	0xbd48c36a	-0.049014486
53	0xbd820c17	-0.06349962
54	0x3e09dd81	0.13463403
55	0xbc400f90	-0.01172246
56	0x3dfd33ea	0.123634174
57	0x3e359e42	0.17736152
58	0xbcf8151b	-0.030283501
59	0x3db071ba	0.086154416
60	0x3bfcc7a0	0.007714227
61	0xbd786ccb	-0.060650628
62	0x3c0374d3	0.0080234585
63	0x3cbe1324	0.023202486
64	0xbbbf6f9c	-0.0058421623
65	0x3d2e105d	0.042496074
66	0x3cb2498f	0.021763591
67	0xbde5bc23	-0.11217525
68	0x3d2f541a	0.042804815
69	0x3c60dead	0.013724965
70	0xbc988594	-0.018618383
71	0x3c958252	0.018250618
72	0x3d042f15	0.032271463
73	0x3db9fcb3	0.09081402
74	0xbd84b0d2	-0.06479038
75	0x3cfb42e1	0.030671539
76	0xbcdb4065	-0.026764104
77	0x3c7bc973	0.015367853
78	0x3cdd745a	0.02703302
79	0xbdf3af43	-0.11898663
80	0x3ccd9332	0.025094602
81	0x3d48d8ce	0.049034886
82	0xbce022fa	-0.027360428
83	0x3d4657c5	0.048423547
84	0xbbd0af53	-0.0063685565
85	0xbd3882c7	-0.045046594
86	0xbe4c5b37	-0.1995667
87	0xbcb65624	-0.022257872
88	0xbdb4bf93	-0.088256024
89	0x3d286df2	0.041120477
90	0xbe3a70cb	-0.1820709
91	0x3d8e0838	0.06935161
92	0x3d936aa3	0.07198074
93	0x3bd1f2d3	0.0064071207
94	0x3d5769f0	0.052591264
95	0xbc8ed1ad	-0.017433966
96	0x3cfe2e5d	0.031027967
97	0xbb9ad594	-0.0047251675
98	0x3d970e6e	0.07375799
99	0x3d8a5568	0.06754571
100	0x3d4ab4c1	0.049488787
101	0xbd03f453	-0.032215428
102	0xbd03f407	-0.032215144
103	0x3c301d22	0.010749133
104	0xbd7afdf4	-0.061277345
105	0x3d080506	0.033207916
106	0x3db0fbb6	0.0864176
107	0x3e1ec440	0.15504551
108	0x3d239066	0.03993263
109	0x3d799fae	0.060943298
110	0xbdb265e8	-0.08710843
111	0xbdb61df5	-0.088924326
112	0x3d487184	0.048936382
113	0xbe244389	-0.16041388
114	0x3d8f87ee	0.070083484
115	0x3e457a9d	0.19285055
116	0xbccf6d0e	-0.025320556
117	0x3c3013a7	0.010746873
118	0xbcb64a27	-0.022252155
119	0x3dede446	0.11615805
120	0x3dee9176	0.11648838
121	0xbd277142	-0.040879495
122	0x3d5c612a	0.0538036
123	0xbce58b3a	-0.02802049
124	0x3c5ccacd	0.013476086
125	0x3caf2477	0.021379692
126	0xbe03df85	-0.12878235
127	0xbda62672	-0.081128016
128	0xbe168821	-0.14700367
129	0xbd915fd5	-0.07098357
130	0x3e10be67	0.14135133
131	0x3d798609	0.06091884
132	0x3c7d1655	0.015447219
133	0xbd8325f8	-0.06403726
134	0x3dac936a	0.084265545
135	0x3d155dc4	0.036466375
136	0xbd095597	-0.03352889
137	0xbd4a0d9e	-0.049329393
138	0xbdde1082	-0.10842992
139	0x3d27cc30	0.040966213
140	0xbd38889e	-0.045052163
141	0xbd110729	-0.03540722
142	0x3d6db123	0.05803026
143	0x3d8d64b5	0.06903974
144	0xbd74e502	-0.05978871
145	0xbc3ad279	-0.01140272
146	0xbd208590	-0.039189875
147	0x3d4f40ea	0.050599016
148	0x3c662639	0.014047199
149	0x3c6129fd	0.013742921
150	0xbbcbfc6f	-0.006225161
151	0xbdcdd056	-0.100495026
152	0xbd4eedf2	-0.05051989
153	0x3ccb0398	0.024781987
154	0x3c77465d	0.0150924595
155	0x3d4e034b	0.05029611
156	0xbd1e1fe4	-0.038604632
157	0xbd64ebaf	-0.055888828
158	0x3d8ff053	0.0702826
159	0x3ca00fe6	0.019538831
160	0xbc277a1b	-0.010221983
161	0xbd7380e3	-0.059449088
162	0xbd3dd303	-0.046343815
163	0xbc8543ae	-0.016267624
164	0xbd32dab4	-0.043665603
165	0x3cdaa303	0.026689058
166	0xbd0ed744	-0.034873262
167	0xbdeabfff	-0.114624016
168	0xbc4bea64	-0.01244602
169	0x3d365512	0.044514723
170	0x3df13a23	0.11778667
171	0x3d9f7bb4	0.077872664
172	0xbdc0ffe7	-0.094238095
173	0xbc209997	-0.009802244
174	0x3dc320b2	0.095277205
175	0x3d5198ba	0.051171042
176	0xbc8bf060	-0.017082393
177	0xbdebdde5	-0.115169324
178	0xbe0988d6	-0.13431105
179	0xbb1ac14b	-0.0023613747
180	0x3e47c360	0.19508123
181	0xbdac0d20	-0.08400941
182	0xbcf41dd7	-0.029799385
183	0x3d34a707	0.044104602
184	0x3ddfd3f9	0.109291025
185	0x3d44e5c0	0.04807067
186	0xbd450ee7	-0.048109915
187	0x3cd44bee	0.025915112
188	0x3d28b15f	0.04118478
189	0xbd447e1e	-0.047971837
190	0xbc0e5bda	-0.008688891
191	0x3bb33fa6	0.005470234
192	0x3de4a785	0.11164764
193	0xbdab5793	-0.08366313
194	0xbd589348	-0.052874833
195	0xbd761216	-0.06007584
196	0x3d2eee9c	0.042708024
197	0x3d9696cb	0.0735298
198	0xbd66af19	-0.05631933
199	0xbccda325	-0.025102207
200	0xbbc603c3	-0.006042929
201	0x3df1fd31	0.118158706
202	0xbcc21d8c	-0.02369573
203	0xbd4ff590	-0.050771296
204	0xbe082b05	-0.1329766
205	0x3bd54289	0.0065081757
206	0xbda2e737	-0.07954257
207	0xbd8205c3	-0.06348755
208	0x3e0dc25d	0.13843675
209	0x3dc0fbc2	0.09423019
210	0xbd3d7605	-0.04625513
211	0xbd80a638	-0.06281704
212	0xbda352e4	-0.079747945
213	0x3c53b099	0.012920522
214	0x3c8427d9	0.016132282
215	0xbd169d87	-0.036771324
216	0xbcb4aace	-0.022054102
217	0xbddfeb6f	-0.10933577
218	0xbd534130	-0.05157584
219	0xbd23121a	-0.039812185
220	0xbd339939	-0.043847296
221	0x3df00ce9	0.117212124
222	0xbd58bfa4	-0.052917138
223	0xbc659a9b	-0.014013912
224	0x3d1d2d20	0.038373113
225	0x3e00265d	0.12514634
226	0xbda59c68	-0.08086473
227	0xbd38b570	-0.045094907
228	0x3d180f76	0.03712412
229	0x3c10dac2	0.008841218
230	0xbd9d81ec	-0.07690796
231	0xbc7d49d4	-0.0154594965
232	0x3d2b771a	0.04186163
233	0xbddb12e0	-0.106969595
234	0xbad1e1b5	-0.00160127
235	0x3cd8086e	0.026371207
236	0x3d24c718	0.040228933
237	0xba8c3284	-0.0010696207
238	0xb9a441e7	-0.0003132962
239	0xbc5940b5	-0.013260056
240	0x3bd08898	0.0063639395
241	0xbd25bbb8	-0.040462226
242	0x3d571045	0.05250575
243	0x3d52d72f	0.051474746
244	0xbe1aad98	-0.15105283
245	0x3d93162c	0.07181963
246	0xbbeb93bb	-0.0071892417
247	0x3d38d9e4	0.04512967
248	0x3d600fbb	0.0547025
249	0xbc4f91ee	-0.01266907
250	0xbbc199c7	-0.0059082243
251	0x3da33294	0.079686314
252	0x3d90543c	0.070473164
253	0xbdb2fff5	-0.08740226
254	0xbc6af063	-0.014339539
255	0xbc938ef2	-0.018012498

bias f4 [32]
0	0x35333eae	6.677391e-07
1	0xb6435b65	-2.9110463e-06
2	0x34bd8c90	3.5306266e-07
3	0xb58a63b0	-1.0310814e-06
4	0xb4d0d007	-3.889438e-07
5	0x35ad637c	1.2918458e-06
6	0x3565fdf4	8.56787e-07
7	0xb5911669	-1.0809864e-06
8	0x34829917	2.4325774e-07
9	0x369bfb20	4.6485948e-06
10	0xb453a771	-1.9711821e-07
11	0x35fdbc16	1.8904709e-06
12	0x34d095d4	3.8852033e-07
13	0x345f2126	2.0780553e-07
14	0x3534e189	6.738342e-07
15	0x36164f15	2.2397774e-06
16	0x3587724c	1.0091549e-06
17	0xb552e01d	-7.8557224e-07
18	0x34892ae7	2.5549454e-07
19	0xb581827d	-9.649226e-07
20	0xb3a1937b	-7.523973e-08
21	0xb51146a8	-5.411953e-07
22	0x34b82c6a	3.4304986e-07
23	0x357de28f	9.457953e-07
24	0xb58f2f1d	-1.0668042e-06
25	0x359db56d	1.1750213e-06
26	0xb52f410d	-6.528724e-07
27	0xb5fd8427	-1.888843e-06
28	0x35ad794f	1.292481e-06
29	0xb5d4b7e7	-1.5848753e-06
30	0x351fd808	5.954648e-07
31	0xb5587859	-8.06414e-07

weight f4 [32]
0	0x3f87d75c	1.0612597
1	0x3f8932e9	1.0718662
2	0x3f861908	1.0476389
3	0x3f8a8fa0	1.0825081
4	0x3f873069	1.0561649
5	0x3f8d6bbf	1.1048506
6	0x3f8996e0	1.0749168
7	0x3f8613f0	1.0474834
8	0x3f867b44	1.0506368
9	0x3f8de722	1.1086161
10	0x3f83c7ff	1.0295409
11	0x3f8c7790	1.0973988
12	0x3f916819	1.1359893
13	0x3f8ad8fa	1.0847466
14	0x3f8e9f4b	1.1142362
15	0x3f874d62	1.057049
16	0x3f8374ec	1.0270057
17	0x3f853374	1.0406327
18	0x3f878c47	1.0589684
19	0x3f8c4bd4	1.0960641
20	0x3f848d63	1.0355648
21	0x3f81bd82	1.0135958
22	0x3f887850	1.0661716
23	0x3f895d62	1.0731623
24	0x3f873c19	1.0565215
25	0x3f85540e	1.0416276
26	0x3f8ba0c0	1.0908432
27	0x3f8b1760	1.0866508
28	0x3f864d9b	1.0492433
29	0x3f8a9ce7	1.0829133
30	0x3f884acc	1.0647826
31	0x3f8258b5	1.0183321

bias f4 [32]
0	0x3d28be98	0.04119739
1	0x3d09ce5b	0.03364406
2	0xbd1bc0ef	-0.038025793
3	0x3d5e939a	0.054339983
4	0x3d72e73a	0.059302546
5	0x3c84f523	0.016230172
6	0x3cdd96d7	0.027049465
7	0x3c449da1	0.012000472
8	0xbd2cb844	-0.042167917
9	0x3dd2010d	0.10254107
10	0x3b0b4f88	0.002125712
11	0x3c894801	0.016757967
12	0x3d575a14	0.05257614
13	0x3d0f8fcb	0.03504924
14	0x3ced9f28	0.029006556
15	0xbba97eda	-0.0051725926
16	0x3d1b943c	0.037983164
17	0xbd3dbd74	-0.046323255
18	0x3d438906	0.047738098
19	0x3cc70dd2	0.024298582
20	0x3cff3b70	0.031156272
21	0xbc92bffa	-0.017913807
22	0x3cf36d41	0.029715182
23	0x3cac0c1b	0.021001866
24	0xbd39b0af	-0.045334514
25	0x3caee625	0.021349976
26	0x3d87f372	0.066382304
27	0x3da08b1b	0.07839032
28	0x3ca2d17d	0.019875282
29	0x3c778194	0.015106577
30	0x3d306a34	0.043070033
31	0x3bb99935	0.0056640157

running_mean f4 [32]
0	0xbe9a613f	-0.30152318
1	0xbea66a51	-0.32502988
2	0xbf201223	-0.62527674
3	0xbe6ab906	-0.22922143
4	0xbf3530d4	-0.7077763
5	0xbf6f8bf4	-0.93572927
6	0xbf7b964e	-0.9827622
7	0xbf219886	-0.6312336
8	0xbf8ca9fe	-1.0989377
9	0xbe32b7f5	-0.17452987
10	0xbf6511de	-0.8948039
11	0xbf0df7bc	-0.5545614
12	0xbf405268	-0.7512574
13	0x3e3205e0	0.17385054
14	0xbf7b9c90	-0.9828577
15	0xbf885743	-1.065163
16	0xbe3bb82e	-0.18331978
17	0xbf9f1691	-1.2428762
18	0x3db173b5	0.086646475
19	0xbf616a36	-0.8805269
20	0xbf2364eb	-0.63825864
21	0xbf75698f	-0.95864195
22	0xbf96ec30	-1.1790829
23	0xbfd7e813	-1.6867698
24	0xbf2f818d	-0.68557054
25	0x3dfc5e14	0.123226315
26	0xbe82bacb	-0.25533137
27	0xbeb733b8	-0.35781646
28	0xbf834126	-1.0254257
29	0xbf1a7f33	-0.6035034
30	0xbf2dfce0	-0.6796398
31	0xbe924dbe	-0.28574938

running_var f4 [32]
0	0x3f84f5c6	1.0387504
1	0x3f576618	0.8414016
2	0x3f4e7fc9	0.80663735
3	0x3f5f25de	0.87167156
4	0x3f435ef2	0.7631675
5	0x3f5c7c74	0.861274
6	0x3f8e1922	1.110142
7	0x3fb99927	1.4499863
8	0x3f272c93	0.6530239
9	0x3f43a7b3	0.76427764
10	0x3f3e1254	0.74246716
11	0x3f931eeb	1.149381
12	0x3f31d766	0.69469297
13	0x3f2db75c	0.6785791
14	0x3f875150	1.057169
15	0x3f8c772a	1.0973866
16	0x3f4f6b4c	0.810231
17	0x3f560da3	0.8361456
18	0x3f7743bc	0.9658773
19	0x3f4bd623	0.7962362
20	0x3fa63caf	1.2987269
21	0x3f54bf08	0.8310399
22	0x3f57bc55	0.84271747
23	0x3f949031	1.1606504
24	0x3f85df62	1.0458796
25	0x3f1fc432	0.62408745
26	0x3f76516c	0.9621799
27	0x3f383e1e	0.71969783
28	0x3fb754d9	1.4322768
29	0x3f18c52e	0.5967587
30	0x3f5d27f9	0.8638912
31	0x3f45ece7	0.7731461

weight f4 [128, 1120]
0	0x3b1439db	0.0022617492
1	0xbcdbfa00	-0.026852608
2	0x3d611a13	0.054956507
3	0x3dbcfe5c	0.09228203
4	0xbd041a01	-0.03225136
5	0xbdccc6f1	-0.099988826
6	0x3d65ba7d	0.056086052
7	0xbd6d7656	-0.057974182
8	0xbce46cbd	-0.027883882
9	0x3c03cd57	0.008044562
10	0xbbea12ff	-0.007143378
11	0x3c48a705	0.012246852
12	0xbb9d0f1d	-0.0047930614
13	0x3c236181	0.009971977
14	0xbda7d9db	-0.081958495
15	0x3b1c20b5	0.0023823206
16	0xbd85ffdf	-0.06542944
17	0xbbdc8cf7	-0.0067306715
18	0x3d6af93b	0.05736659
19	0xbccdfac3	-0.025143987
20	0x3c1639d4	0.009169061
21	0xbd6ad279	-0.05732963
22	0x3d56f8ea	0.052483477
23	0xbc0fa3c3	-0.008767071
24	0x3cf8580b	0.03031542
25	0xbcaee208	-0.021348014
26	0x3cc2d63f	0.023783801
27	0x3d425453	0.0474437
28	0x3c64b814	0.013959903
29	0xbd54a4dd	-0.05191504
30	0x3d214082	0.03936816
31	0xbce527f1	-0.027973147
32	0xbca20d75	-0.019781807
33	0xbbd6f3c4	-0.006559821
34	0xbd8f80c0	-0.07006979
35	0xbc3a6750	-0.011377171
36	0x3d611e2a	0.054960407
37	0x3d41a4a3	0.04727615
38	0x3c5aa3e3	0.013344738
39	0x3d0e8bbd	0.034801234
40	0x3d9d9d3f	0.07696008
41	0x3cceefb0	0.025260776
42	0xbdad950e	-0.084756956
43	0xbcece857	-0.028919382
44	0xbca871f1	-0.020562144
45	0xbc253ff1	-0.010086046
46	0xbd91908e	-0.0710765
47	0x3d276bf5	0.04087444
48	0xbcfbf941	-0.030758502
49	0xbbd7e850	-0.006588973
50	0x3d263cb6	0.040585242
51	0xbdaa70d4	-0.083223015
52	0xbdc22eba	-0.09481569
53	0x3c184ba0	0.009295374
54	0x3d55ab18	0.05216512
55	0xbc1eeb82	-0.009699704
56	0x3cfb4ea0	0.03067714
57	0x3b5326f4	0.0032219263
58	0xbbb76049	-0.005596195
59	0x3d685192	0.056718417
60	0xbdde7312	-0.10861792
61	0xbcb9497b	-0.022618046
62	0x3cfa7e33	0.030577755
63	0xbbbc16c9	-0.005740021
64	0xbdc4e308	-0.09613615
65	0xbd315e2d	-0.043302704
66	0xbd050958	-0.032479614
67	0xbd35ecf4	-0.04441543
68	0x3ca20ccd	0.019781495
69	0xbcbf8518	-0.023378894
70	0xbd26edc5	-0.0407541
71	0xbdd8ee87	-0.105923705
72	0x3d5701e4	0.052492037
73	0xbd2a0d11	-0.041516367
74	0x3d4402c2	0.047854193
75	0x3bab0ebc	0.0052202623
76	0xbd23c55e	-0.039983146
77	0x3cfbcaa0	0.030736268
78	0x3d070c4a	0.032970704
79	0xbd518fcf	-0.051162537
80	0x3d3fb1c2	0.046800382
81	0xbd6fa72c	-0.058509037
82	0xbc077ced	-0.008269531
83	0xbc3ff49b	-0.011716033
84	0xbd48b649	-0.049001966
85	0xbcdfbf34	-0.027312852
86	0x3d93892d	0.072038986
87	0x3d34aa37	0.044107642
88	0xbd5032ce	-0.0508297
89	0xbdf843fc	-0.12122342
90	0xbdb4f45a	-0.08835669
91	0x3d83c7e2	0.06434609
92	0xba337410	-0.0006845603
93	0x3cfa8807	0.030582441
94	0x3c0c8b23	0.008578095
95	0xbd694fdd	-0.05696093
96	0xbdbb4eef	-0.09145915
97	0x3d96b6e0	0.073590994
98	0x3d2b5c81	0.041836265
99	0xbd3009e0	-0.042978168
100	0xbd70ca0e	-0.058786444
101	0xbce3f760	-0.027827919
102	0x3d4e1419	0.050312135
103	0xbd458f3c	-0.048232302
104	0xbdecd9e9	-0.115650006
105	0xbdec7fed	-0.115478374
106	0x3d2f9dcf	0.042875107
107	0x3cff7bde	0.031186994
108	0x3c863922	0.016384665
109	0x3cd1ae38	0.02559577
110	0xbcceb78d	-0.025234008
111	0xbdb36543	-0.087595485
112	0x3c9e9670	0.019358844
113	0x3ca232e8	0.019799665
114	0xbd1fc80e	-0.039009146
115	0xbb180746	-0.0023197695
116	0x3c87b85e	0.016567405
117	0xbc6d2e2b	-0.014476339
118	0x3ccc8cfe	0.024969574
119	0xbe1617e2	-0.14657548
120	0xbd0b07e6	-0.03394308
121	0xbce63040	-0.02809918
122	0xba7d2ae5	-0.0009657576
123	0xbce74055	-0.028228918
124	0xbabcaf3d	-0.0014395487
125	0x3cae085c	0.02124422
126	0xbc60ea37	-0.013727716
127	0xbcf978a3	-0.030453032
128	0x3cf841b3	0.030304765
129	0x3cd95c0c	0.02653315
130	0xbc1674fb	-0.009183164
131	0xbdba18e9	-0.090867825
132	0x3d27e00d	0.040985156
133	0x3c31c7a4	0.010850821
134	0x3d3be356	0.0458711
135	0x3ce84569	0.02835341
136	0xbbfcd156	-0.0077153845
137	0x3d89dbb7	0.067313604
138	0xbcb99e6c	-0.02265855
139	0x3d16d39a	0.036822893
140	0xbda456ca	-0.08024366
141	0x3d890e7f	0.06692218
142	0xbdb7cc9e	-0.089745745
143	0xbd732b85	-0.059367675
144	0xbd86ef5b	-0.06588622
145	0x3d012292	0.03152711
146	0xbdcce305	-0.10004238
147	0x3d6025a9	0.054723416
148	0xbcedd017	-0.029029889
149	0x3c90f9b2	0.017697189
150	0x3d2c680d	0.042091418
151	0xbcaf59e4	-0.021405168
152	0x3d367959	0.04454932
153	0x3ca012ad	0.019540155
154	0xbc6f522d	-0.014606995
155	0xbd285343	-0.04109503
156	0xbbc383b9	-0.0059666303
157	0x3d6612eb	0.056170385
158	0x3c4d1ec5	0.012519543
159	0x3b2e01c0	0.0026551336
160	0xbcd87e83	-0.026427513
161	0x3c959874	0.018261172
162	0x3cf8afce	0.030357268
163	0x3ceb8005	0.028747568
164	0x3d12b6f3	0.035819005
165	0x3e0a34ca	0.134967
166	0xbd7b5218	-0.061357588
167	0x3ddf7629	0.10911209
168	0xbc6cc700	-0.014451742
169	0x3da42f9e	0.08016895
170	0xbdcfeb7a	-0.101523355
171	0x3da03578	0.07822698
172	0xbc8c2709	-0.017108457
173	0xbdf12cd9	-0.11776132
174	0x3c89bb94	0.016813077
175	0x3c3cadc2	0.0115160365
176	0xbd9dea30	-0.07710683
177	0xbd4fc460	-0.050724387
178	0x3a51a1b1	0.0007996811
179	0x3d203e24	0.039121762
180	0x3d83e370	0.06439865
181	0xbdd8dddd	-0.10589192
182	0x3d47302b	0.04862992
183	0xbce980e0	-0.028503835
184	0xbe095312	-0.13410595
185	0x3c3b8b6b	0.011446814
186	0x3cda7cdf	0.026670871
187	0xbc6198ad	-0.013769311
188	0x3dae958b	0.08524617
189	0xbb080708	-0.0020756144
190	0xbbc94f33	-0.0061434745
191	0x3c9e1f7c	0.019302122
192	0x3d6e2d78	0.05814883
193	0x3c156972	0.009119378
194	0xbd8fdc55	-0.07024447
195	0xbcb2e95c	-0.02183979
196	0xbced6385	-0.028978119
197	0xbde337d3	-0.11094632
198	0x3d164880	0.036690235
199	0xbdaa984b	-0.08329829
200	0xbd93717d	-0.071993805
201	0x3d9ff6b1	0.078107245
202	0x3d62aa85	0.0553384
203	0x3cb18c69	0.021673398
204	0xbd2b1f29	-0.041777764
205	0x3d9beb48	0.07613236
206	0x3d6cbd9c	0.057798013
207	0x3c93f5c7	0.018061532
208	0xbb592f03	-0.0033139593
209	0xbdb737ff	-0.08946227
210	0xbd21c6a3	-0.039496075
211	0x3c9b3412	0.018945727
212	0xbc2100f4	-0.009826887
213	0xbd99031c	-0.07471296
214	0x3cc41e68	0.02394028
215	0xbd7983bd	-0.06091665
216	0xbe03d3f9	-0.1287383
217	0xbd451832	-0.048118778
218	0x3c507d8c	0.012725245
219	0xbddb72f5	-0.10715286
220	0x3d15fe69	0.036619578
221	0xbd8bc4e7	-0.068246655
222	0x3d8f01c8	0.069827616
223	0x3c4801bb	0.012207444
224	0x3d90021c	0.07031652
225	0xbbadac25	-0.0053000622
226	0xbdc4d604	-0.09611133
227	0x3da594e1	0.08085037
228	0xbd01c8ca	-0.031685628
229	0x3cb32d96	0.021872323
230	0xbcc57509	-0.024103658
231	0x3d88fba7	0.06688624
232	0x3c139a6e	0.009008987
233	0xbc9f3d99	-0.019438552
234	0x3c2f5fea	0.01070402
235	0x3d8af103	0.067842506
236	0x3ba9b7db	0.005179388
237	0x3d31fe92	0.043455668
238	0xbdb7903a	-0.08963056
239	0x3d461fb5	0.048370082
240	0x3bcc3672	0.0062320763
241	0x3e14c571	0.14528443
242	0xbd531d5a	-0.051541664
243	0x3d2f4475	0.042789895
244	0x3c1ecbf2	0.009692179
245	0x3d98e95a	0.07466383
246	0xbdab5275	-0.08365337
247	0x3d215e27	0.03939643
248	0xbcba267a	-0.022723425
249	0xbcde1fb6	-0.02711473
250	0xbc0bfbdc	-0.008543935
251	0xbd98c5fc	-0.074596375
252	0x3cef9768	0.029247
253	0x3aef65be	0.0018264574
254	0xbd4d2bf2	-0.050090738
255	0xbcd1d3a3	-0.025613612

bias f4 [128]
0	0xbb639122	-0.0034723957
1	0x3ba1c832	0.004937195
2	0xbca26f5f	-0.019828497
3	0x3c960dff	0.01831722
4	0x3bdadead	0.006679377
5	0xbc726f0c	-0.014796983
6	0x3d307e49	0.043089185
7	0x3d3ad517	0.045613375
8	0xbc9399f2	-0.018017743
9	0xbc5fe094	-0.013664383
10	0xbc0151df	-0.007893055
11	0xbca2b2d1	-0.019860657
12	0x3d0d59b1	0.034509365
13	0xbbc72adf	-0.0060781087
14	0x3ba20ad2	0.0049451375
15	0x3d3e883a	0.046516635
16	0x3c58d4cd	0.013234329
17	0x3c800b69	0.01563044
18	0xbc93fcff	-0.018064974
19	0xbc571771	-0.013128147
20	0xbc8536be	-0.016261455
21	0x3d0cd951	0.034386937
22	0x3ca0f3e8	0.019647554
23	0xbcad7e8c	-0.021178506
24	0xbcb238df	-0.021755634
25	0x3c05be3b	0.00816303
26	0x3c685b7e	0.01418197
27	0x3b2882d4	0.0025712745
28	0xba97bdbc	-0.0011576931
29	0xbc5afc6e	-0.013365848
30	0x3c0ec2fe	0.008713482
31	0xbb771052	-0.0037698937
32	0x3a071374	0.000515274
33	0xba8431c5	-0.0010085633
34	0xbc7e8605	-0.015534882
35	0xbc47d0e5	-0.0121958
36	0xbc75bb86	-0.014998322
37	0x3c1c394d	0.009535146
38	0xbc9d303b	-0.019188037
39	0x3ca6f20c	0.020379089
40	0x3d35df32	0.04440231
41	0xba8c0b4d	-0.001068452
42	0x3c9b92ea	0.018990953
43	0x3c451a18	0.012030147
44	0xbb8fb8b5	-0.0043860325
45	0xbb49005a	-0.0030670376
46	0xbc9064ec	-0.017626248
47	0xbc803b54	-0.01565329
48	0xbc0dabf1	-0.008646951
49	0x3d31badd	0.043391097
50	0x3cdb87f6	0.02679823
51	0xbca4bb6f	-0.020108907
52	0xbc735d05	-0.014853721
53	0xbc73872a	-0.014863769
54	0x3ce6ef88	0.02819039
55	0xbc03ec2b	-0.008051912
56	0x3d471e24	0.04861273
57	0x3d2d8f3d	0.04237293
58	0xbc838ab3	-0.016057348
59	0xbc2feb10	-0.010737196
60	0x3bb1a0b0	0.005420767
61	0x3b0ede0f	0.0021799838
62	0xbc618aea	-0.01376603
63	0xbbe9d73f	-0.007136255
64	0x3c8d3d90	0.01724127
65	0xbc0edfe2	-0.00872037
66	0x3c115e2a	0.008872548
67	0xbb1240e7	-0.0022316517
68	0xbc1133fe	-0.008862494
69	0x3af24a32	0.0018485247
70	0x3b1d0498	0.0023959037
71	0x3c20e1b1	0.009819434
72	0xbc4c41f3	-0.012466895
73	0x3cdc6d36	0.026907545
74	0x3c133bdc	0.00898644
75	0xbbb1817c	-0.005417047
76	0xbc932ca1	-0.017965617
77	0x3c6e23de	0.014534919
78	0x3ce716bf	0.028209088
79	0x3d408a9c	0.04700719
80	0xbc92d43c	-0.017923467
81	0xbc71d6d9	-0.014760696
82	0x3cabd7a0	0.020976841
83	0x3cf7cb91	0.030248435
84	0xbbb79ebe	-0.0056036403
85	0xbc7d8f62	-0.01547608
86	0xbbe1f016	-0.0068950756
87	0xbc993ee7	-0.018706752
88	0xbc882efe	-0.01662397
89	0xbc687c9c	-0.014189865
90	0x3c2e64ed	0.01064418
91	0xbb56c24d	-0.003276962
92	0x3b92b63a	0.0044772895
93	0x3d109bbf	0.03530478
94	0xbc83824e	-0.016053345
95	0x3c828199	0.015930938
96	0xbc77e553	-0.015130359
97	0xbc88b3c6	-0.016687285
98	0xbcaec6df	-0.021335064
99	0xbc60c3db	-0.013718571
100	0x3d462e26	0.048383854
101	0x3a28a78a	0.00064336567
102	0xbc8aedc9	-0.016959088
103	0xbcaac7ca	-0.02084722
104	0xbca3a8fa	-0.019978035
105	0xbc8ae8bf	-0.016956685
106	0xbb7bfced	-0.0038450316
107	0xbc874839	-0.01651393
108	0x3ce8eb31	0.02843246
109	0x3cb9fdab	0.022703966
110	0xbc7c09af	-0.015383168
111	0xbbc185e1	-0.005905852
112	0xbc01adc4	-0.007914964
113	0xbc865014	-0.016395606
114	0x3d5b38a7	0.053520825
115	0xbb627327	-0.00345535
116	0x3c6d633f	0.014488994
117	0x3cdec483	0.027193313
118	0x3c4e7272	0.012600528
119	0xbc99ee96	-0.018790524
120	0xbc8b721b	-0.017022183
121	0x3c67346f	0.014111622
122	0x3c289739	0.010289961
123	0x3c79e064	0.015251253
124	0xbc9e5d35	-0.019331554
125	0x3d35daae	0.044398002
126	0x3a82af16	0.0009970393
127	0xbc699f35	-0.014259149

weight f4 [1, 128]
0	0xb68fd564	-4.286574e-06
1	0x36b856fe	5.4937545e-06
2	0x3b2b09f3	0.002609846
3	0xb77b9acb	-1.4996806e-05
4	0x36afce58	5.239428e-06
5	0xbe5614bb	-0.20906346
6	0xb4674ddc	-2.1541877e-07
7	0x378dc4ca	1.6900147e-05
8	0x3dc22422	0.09479548
9	0x3dd92bf0	0.106040835
10	0x37af77ed	2.091747e-05
11	0x3a756934	0.0009361685
12	0xb674fcb1	-3.650592e-06
13	0xb840b574	-4.594536e-05
14	0xb6a6171c	-4.949876e-06
15	0xb58eafae	-1.0630954e-06
16	0xb4c8fd8d	-3.7437385e-07
17	0xb726b10f	-9.935596e-06
18	0x3e33b504	0.1754952
19	0xbd853f9e	-0.06506275
20	0x3e1f9f32	0.15588072
21	0x35e02d44	1.6702475e-06
22	0xb7d81b4e	-2.5761921e-05
23	0xbd66466b	-0.0562195
24	0x3dd932fc	0.106054276
25	0x373554ce	1.0808186e-05
26	0x36b2b065	5.3253484e-06
27	0xb690fa69	-4.320686e-06
28	0x36a33a2f	4.864552e-06
29	0x3d134f04	0.035964027
30	0xb75db3c8	-1.3214485e-05
31	0x3b9213dc	0.004457934
32	0x37f1907b	2.8796718e-05
33	0x33cebdd7	9.627154e-08
34	0x3e37069a	0.17873612
35	0x3e2cbec3	0.16869645
36	0xbe01f9bc	-0.12692922
37	0x3787ef07	1.620456e-05
38	0x3cd06720	0.025439799
39	0x37136862	8.786186e-06
40	0x368b71f6	4.1557896e-06
41	0x38b7a1ff	8.756294e-05
42	0xb68918c3	-4.085801e-06
43	0xb6d819c0	-6.4402993e-06
44	0x3a1bbcd6	0.00059409195
45	0x375dcfbd	1.3220994e-05
46	0xbdfb36e7	-0.12266331
47	0xbdd5032d	-0.10400996
48	0x36a9201e	5.0403314e-06
49	0xb654d7a1	-3.1715974e-06
50	0x36c536ba	5.8774285e-06
51	0x395327ff	0.00020137428
52	0x3e0b4810	0.13601708
53	0xbe0db32f	-0.13837884
54	0xb5896246	-1.0235897e-06
55	0x3a818381	0.000988111
56	0xb7639e7e	-1.3567156e-05
57	0xb7514d35	-1.2475347e-05
58	0x3a86d568	0.0010286989
59	0x3b5236e7	0.0032076181
60	0xb6e7004c	-6.884371e-06
61	0x367ad8a1	3.7378998e-06
62	0xb7729561	-1.4459104e-05
63	0xb8a30b48	-7.774547e-05
64	0xb6607eba	-3.3452366e-06
65	0x39bfbaec	0.00036569627
66	0xb74541cf	-1.1757437e-05
67	0x3898b1ca	7.2810406e-05
68	0x3a4e13fe	0.00078612554
69	0xb76367cf	-1.3554424e-05
70	0xb6bb7878	-5.5870587e-06
71	0x36ea7f45	6.9885596e-06
72	0x370a2f96	8.23652e-06
73	0xb7228b7c	-9.688429e-06
74	0x3b1a7ca9	0.0023572838
75	0xb810b7ec	-3.4503566e-05
76	0x3daa6821	0.08320642
77	0x36a418ef	4.8904835e-06
78	0x379f9a78	1.9026207e-05
79	0x345d642a	2.0618668e-07
80	0x3dff5330	0.12467039
81	0x378599c7	1.5926444e-05
82	0xb7c0350d	-2.2912887e-05
83	0x3737ee9d	1.09632065e-05
84	0x381efb2b	3.7904054e-05
85	0xbdc71508	-0.09720808
86	0x3617824f	2.2576603e-06
87	0xbe513715	-0.20431168
88	0x3b6e84aa	0.0036394992
89	0xbdbe328c	-0.09286985
90	0x3a511058	0.00079751527
91	0xb72f45c7	-1.0447059e-05
92	0x37680c3e	1.3831128e-05
93	0x36611428	3.3539345e-06
94	0x3e1a92dc	0.15095085
95	0xb604fb36	-1.9815757e-06
96	0xbdfb4abb	-0.12270113
97	0x3dfe7051	0.124237664
98	0x38e28a3c	0.00010802268
99	0xbe0a91a4	-0.1353212
100	0xb77f7511	-1.5226441e-05
101	0xb72d8b03	-1.034397e-05
102	0xbde4c35c	-0.11170074
103	0x3e1199f3	0.14218883
104	0x3da40cc6	0.08010249
105	0x3d95b892	0.073105946
106	0xb7647cf7	-1.3618955e-05
107	0xbdcb2610	-0.09919369
108	0x3b5775e0	0.0032876655
109	0xb771319b	-1.4376269e-05
110	0x3dc08af1	0.09401501
111	0x39ddc350	0.00042297924
112	0x36ae14ad	5.188011e-06
113	0xb75f2d45	-1.3302376e-05
114	0x3796b243	1.7964403e-05
115	0xb7d2e918	-2.5142494e-05
116	0x36c9eef6	6.0180855e-06
117	0x3699e20b	4.58607e-06
118	0xb7073c41	-8.060656e-06
119	0x3a02ba86	0.00049869006
120	0xb9a5ba59	-0.00031610092
121	0xb55f85e7	-8.326883e-07
122	0x3a170d33	0.00057621597
123	0x37813542	1.5402798e-05
124	0xba0a6cad	-0.0005280476
125	0xb674436d	-3.639808e-06
126	0x378f107f	1.705461e-05
127	0xbdf2fb55	-0.11864344
