saved_trials/ppo-MiniWorld-MazeS3Fast-v0-lr=0.00005-num_steps=160/MiniWorld-MazeS3Fast-v0.pt (torch_old, 812358 bytes, 23 tensors)

weight f4 [32, 12, 5, 5]
00000000: c783 f13d 9419 ad3b 980a 8c3d 0258 e2bd
00000010: 0336 433d a975 163e d5cd 2ebd 51d3 843d
00000020: bc02 a53d 30cc 17be 4fc8 c93d 315c 8d3d
00000030: 4c6e 88bd 459a 0dbd 5ebc f03b 5fe8 eb3c
00000040: aac3 03be 1cf2 3cbe ced6 d7bd b353 febc
00000050: 61ca b33d 92f1 303e 6ccd a03c e7d2 a73d
00000060: cc00 6b3d 8097 853d e70b 1abc 150c 10bc
00000070: f4c2 d4bc 671b 603c 0170 b73d 09b2 aa3c
00000080: 3f6c adbd 50e2 b3bb 67b5 12bb 3ea4 07bd
00000090: a28f 0f3c 0b76 b7bd 2374 ebbc 5d2a 1ebe
000000a0: 0d63 1abd fc28 0b3c 8e23 5f3d b94a 6fbd
000000b0: a103 eebc f448 e2bc 325f 9cbd 597c 4b3c
000000c0: 5d6f f13d 75fc aabc f3c5 9a3c facf be3d
000000d0: 11e9 d1bd 4182 efbd 9dcd 4fbd 4bef 653d
000000e0: aa95 4bba c055 643d 8bbd 73be 5437 0ebd
000000f0: 482b 05bd 566b 44bd 7045 2abd 3603 c6bb
00000100: 110d 1b3e 0854 153d 80fb 3f3d 3246 033c
00000110: 185f b8bd 7864 9c3d 2eeb c73d 28c6 58bd
00000120: e52f b6bd 89cf 973d 1bba 4b3d f399 083d
00000130: 9ac3 a5bc fe84 0cbd 9e7a 1bbd cf84 343d
00000140: f2bf 88bd 735f dabd 2a8f d4bd 4577 203d
00000150: 8995 b23d 29ed 89bb a21a 1fbe 38bf 73bc
00000160: e399 ef3d 77e9 fb3d ad80 f1bc fdc2 06bd
00000170: 06b5 3cbc c4ea 4f3d 5439 153e 99cb 16be
00000180: 43df 35be d228 26bd 0b7b a7bd 69dc 6bbd
00000190: baf3 093d 616b be3c 8fea acbd 7a36 93bd
000001a0: 46c6 3ebd 7eae bdbb 6fa9 c43d 2c24 95bd
000001b0: b1cc cb3c 5038 f03d 224c c53d 3a34 6cbb
000001c0: 7d0c 813d 9e9f 9dbb 5cea 5a3d 8364 8c3b
000001d0: d415 0ebd 4045 163d 5db0 20bc 306e 1b3e
000001e0: 75df 94bd 5f83 7c3d 7668 a63d e5cc bfbd
000001f0: d2e1 c2bb ce30 023e 304b 73bd f1fe 163d
00000200: 46d6 ddbd 04cf 813d 64bf e33d ee6f 9bbc
00000210: ce7c 133d 5d22 55be f1a6 5ebd c1cc b23c
00000220: 6245 283e e3a7 09bd d95f 173e 62f8 8cbd
00000230: e081 dd3c 6583 6e3e 0e23 d93d 3062 22bc
00000240: 022c 84bd 3928 4a3d 85f6 423d 9058 093e
00000250: 81a5 06bd a02e c23d c821 bcbc eaa7 08be
00000260: c916 3fbd 84e9 d3bc eda6 94bd bb20 62bd
00000270: 0c23 c6bd bbc5 403d c319 efbc 04ce fa3d
00000280: 7654 22bc 59bd 023e a41f a33d 3b2a a6bc
00000290: c964 7c3d 6b56 0f3d 2079 38bd be40 5abb
000002a0: 2d3d ca3d bd9f 863d 5f92 ac3c a5a2 ee3c
000002b0: d7d9 143e 4f04 9abd e741 ba3d ed86 a43d
000002c0: 84a9 0c3d ff35 8d3d 32f9 f33d 18c3 193e
000002d0: a83b bcbc af4d 933d 69e9 1dbd 585d 8d3c
000002e0: a940 c0bc 3647 47bd e384 d03d 1be6 05be
000002f0: e155 1d3e a0cf 1f3c f138 b5bd 329e 5f3c
00000300: 3425 393c 13c4 15bc 51c2 77bc 82c9 0a3d
00000310: ad60 343d 5e74 03bd c528 eabd 408a 1abe
00000320: 087e 9c3d 8381 863e f616 8bbc 86e4 ebbc
00000330: 1eff 07bd e709 2ebe 0b0b 0b3e 0953 d5bd
00000340: 8e58 763c 22e3 04bc fb7b 99be 27d8 ef3d
00000350: 4478 19be 7c72 03be 885f 84be 561a 09bd
00000360: fd66 1b3c 2e56 b03d b9b9 69bc 42f5 98bd
00000370: abcc b2bd bb8a f6bd da5c a2bd a9f9 e33d
00000380: b2f9 3abd e38d e1bc 10ca 1d3d 9c16 14bd
00000390: 42d9 c03c 1756 133d 92b6 82bd 0c33 c5bd
000003a0: 5976 adbc 7398 05be b6b9 8f3d 209f 693d
000003b0: 8c5e 023e 345d f0bb a3d8 31be 1e0b 11bd
000003c0: 4636 99bd 7f86 80bd feb0 e33d f5ab c2bc
000003d0: e5a2 8abd 9452 08bd fb4b cd3c 8b3b f33c
000003e0: 3245 e43d 896b f8bc 54b3 02be 24e9 563d
000003f0: c171 de3d 9153 e0bc d069 b7bd d4aa fbba
0.11792713 0.00528259 0.06837958 -0.110519424 0.04765893 0.14693321 -0.042676765 0.06485618
0.08057162 -0.14823985 0.09852659 0.0690235 -0.066616625 -0.03457095 0.007346674 0.028797327
-0.12867609 -0.18451732 -0.105390176 -0.03104577 0.08778835 0.17279652 0.019629203 0.08194523
0.057373807 0.06523037 -0.009402252 -0.008791943 -0.025971867 0.013678408 0.0895691 0.020836847
-0.08467912 -0.005489625 -0.0022385956 -0.033115618 0.008762272 -0.08958062 -0.028741902 -0.15445848
-0.03769212 0.008493658 0.054477267 -0.05842087 -0.029054465 -0.027622677 -0.076353446 0.0124197835
0.11788819 -0.020872334 0.018893218 0.09317012 -0.10249532 -0.11694766 -0.050733197 0.05613641
-0.0007766137 0.05574584 -0.23802774 -0.034720734 -0.03251198 -0.047953926 -0.041570127 -0.0060428632
0.15141703 0.03645709 0.04687071 0.008012341 -0.09002513 0.076363504 0.09761654 -0.05292335
-0.08895854 0.07412631 0.04973803 0.033349942 -0.020234872 -0.03430652 -0.037958734 0.04407197
-0.06677236 -0.10662737 -0.10378869 0.039176244 0.08719928 -0.00420918 -0.15537503 -0.014877133
0.116992734 0.12300389 -0.029480303 -0.0329008 -0.011517769 0.050761 0.1457265 -0.14726104
-0.17760949 -0.040566273 -0.081777655 -0.057583246 0.0336797 0.023244562 -0.08443176 -0.07188125
-0.046575807 -0.0057886234 0.096026294 -0.0728229 0.024877878 0.11729491 0.09633662 -0.0036041872
0.0630121 -0.0048102876 0.05344616 0.004284443 -0.034688786 0.036687136 -0.009807673 0.15178752
-0.072691835 0.061648723 0.08125393 -0.093652524 -0.00594733 0.1271393 -0.059397876 0.036864225
-0.10831885 0.06338313 0.11120489 -0.01897427 0.036007695 -0.2081389 -0.054358426 0.02182615
0.16432717 -0.033607375 0.14782657 -0.06883313 0.027039468 0.2329231 0.10602389 -0.009911105
-0.06453706 0.049354766 0.04759838 0.1341269 -0.03287268 0.09481549 -0.022965327 -0.13345304
-0.04665259 -0.025868185 -0.07258401 -0.055206995 -0.096746534 0.04706357 -0.029187089 0.122463256
-0.009907832 0.12767543 0.07965019 -0.020283809 0.061619554 0.034994524 -0.04503739 -0.003330275
0.098749496 0.065734364 0.021065889 0.02913029 0.14536224 -0.07520353 0.09094601 0.080335476
0.03434135 0.068950646 0.119127646 0.15015829 -0.022977665 0.07192551 -0.038552675 0.017256424
-0.023468332 -0.048651896 0.10181596 -0.1307606 0.15364791 0.0097540915 -0.08848751 0.013648557
0.011300374 -0.009140986 -0.015122012 0.03388358 0.04403751 -0.0320934 -0.114335574 -0.150918
0.07641226 0.26270685 -0.016978722 -0.028795492 -0.033202283 -0.16995965 0.13578431 -0.10416228
0.0150357615 -0.008110793 -0.29977402 0.1171115 -0.14987284 -0.12836641 -0.25854135 -0.03347238
0.009485004 0.086101875 -0.014265471 -0.07468654 -0.087304436 -0.120381795 -0.07927866 0.11131603
-0.045648284 -0.027533477 0.03852278 -0.036154374 0.023541097 0.035970774 -0.06382479 -0.09628877
-0.021174597 -0.13046436 0.070178434 0.05703652 0.1273138 -0.0073353294 -0.17367797 -0.035410993
-0.07481055 -0.06275653 0.11117743 -0.023763636 -0.06769351 -0.033281878 0.025060644 0.029691478
0.111460105 -0.030324714 -0.12763721 0.052468434 0.108615406 -0.027383598 -0.08955729 -0.0019200691

bias f4 [32]
00000000: c685 9038 2e6c 2ab8 3546 2235 99fc c537
00000010: c448 d937 9774 52b7 c5e9 c838 5fa6 34b9
00000020: d2d1 ccb8 95b2 5138 38d7 64b6 f769 9b38
00000030: a9f9 1338 8fed fbb7 c847 c5b8 6f79 dab8
00000040: 30ec abb7 9eed 1439 af13 f338 fe1f dbb8
00000050: 268d fab7 c276 2d39 8c15 66b8 e374 0d38
00000060: de4b ff37 4ef1 3938 cd58 44b8 fdca b2b8
00000070: 404d 8d37 c9be 6138 85a9 7d38 8797 63b7
6.891372e-05 -4.063191e-05 6.045187e-07 2.3601855e-05 2.59023e-05 -1.2544121e-05 9.580286e-05 -0.00017228116
-9.76656e-05 4.99958e-05 -3.4099921e-06 7.4107134e-05 3.5280045e-05 -3.0032154e-05 -9.407062e-05 -0.00010417669
-2.0494772e-05 0.00014202899 0.00011590809 -0.00010448693 -2.986805e-05 0.00016542806 -5.485634e-05 3.372588e-05
3.0433697e-05 4.433217e-05 -4.6812744e-05 -8.525511e-05 1.6844482e-05 5.3821863e-05 6.0477778e-05 -1.3565535e-05

weight f4 [32]
00000000: 81ea 783f c691 7c3f 7c4a 7d3f f8a7 633f
00000010: 53b5 803f 9aed 6d3f 7352 733f df18 8e3f
00000020: 711f 793f 9ae0 753f 5da2 7f3f 70d2 8c3f
00000030: db0d 603f 2738 8b3f 4019 7f3f 6129 903f
00000040: 1040 863f 2cdf 853f dd78 693f fdb1 783f
00000050: 320d 723f e873 863f 87da 6b3f bba8 6f3f
00000060: 7232 8e3f 4d6a 693f b2fe 8b3f 5308 803f
00000070: 515e 803f 0527 873f 392f 7f3f 3501 883f
0.97232825 0.9865993 0.9894178 0.88928175 1.0055336 0.92940676 0.9504768 1.110134
0.973136 0.9604584 0.9985712 1.100172 0.8752114 1.0876511 0.99647903 1.1262628
1.04883 1.0458732 0.9120005 0.9714659 0.94551384 1.0504122 0.9213032 0.9361684
1.1109145 0.9117783 1.0937102 1.000254 1.0028783 1.0558783 0.9968143 1.0625368

bias f4 [32]
00000000: 142e 893d eeb0 473d 0836 e43c 08dd 9a3d
00000010: 68c2 023e df75 933c 8fdc 07bd 1449 c13d
00000020: 2d26 863d 522c 2f3d 25ec 2c3d 692d a43d
00000030: 47a5 043d 0109 3a3d fdd7 413b 3bca d83d
00000040: 2078 d4bb ca3a 593d 3e35 663d 30cc 3a3d
00000050: fe1a 013d eac4 af3d ddc9 173c b473 a63d
00000060: b279 303e 8d7e 4d3c 99f3 ac3d f5ee 023e
00000070: ce95 87bc d5aa e93d 4aa2 133e 09aa a23d
0.06698242 0.048752718 0.027857795 0.075616896 0.12769473 0.018000541 -0.033169325 0.09437767
0.0655025 0.042766877 0.042217392 0.08016474 0.032384183 0.045418743 0.0029578202 0.105854474
-0.0064840466 0.05303458 0.05620312 0.045604885 0.031519882 0.0858248 0.009264437 0.08127537
0.17233923 0.012542379 0.084449 0.12786467 -0.016550925 0.11409537 0.14417377 0.07942588

running_mean f4 [32]
00000000: 1c67 c3bc 7348 703d 28e3 123d a180 d9ba
00000010: 7e72 1bbe 2383 bf3d 28a0 993d e5e4 9cbc
00000020: c2fd 7d3d b7a9 0abe 47af ddbd 1d26 703c
00000030: c818 a0be 5b4c ab3d 098c 123e 4ae5 13be
00000040: f6eb d03d f629 fabd 0df1 7cbd e4a3 1a3e
00000050: d95c 2fbe a7f3 b7bd f5c6 203e f718 06be
00000060: e67e e53c 8410 80be d354 29bd ea10 34bc
00000070: df8e 03bc 1882 d13d da99 4fbd 5899 2a3d
-0.023852877 0.058662843 0.035861164 -0.001659412 -0.15180394 0.09351184 0.075012505 -0.019152114
0.06200958 -0.13541304 -0.10824447 0.014657524 -0.31268907 0.08364173 0.14311232 -0.14442936
0.10201256 -0.12215035 -0.06175332 0.15101582 -0.17125262 -0.0898202 0.15700896 -0.13095461
0.028014611 -0.250126 -0.04134066 -0.010990361 -0.008029669 0.102298915 -0.050683834 0.041650146

running_var f4 [32]
00000000: c6b4 093c 0a5a 033c 09fc 2d3c 8334 883c
00000010: 387b 383c cb96 2e3c 6c04 fb3b e169 033c
00000020: 22ef 243c 3ccb 353c 21d4 3c3c da8a 0f3c
00000030: 3ae3 343c cf0f f23b 4841 4c3c bfe3 013c
00000040: 14a9 063c 3723 463c 064d 1b3c 350b 203c
00000050: cf00 213c 48d9 313c 25fb 413c 5664 553c
00000060: 2522 393c b887 4e3c 8963 173c 3d76 213c
00000070: 34f0 473c ac0b 0a3c a6e3 083c 1b63 263c
0.008404916 0.008017072 0.010619172 0.016626602 0.011259846 0.010656069 0.0076604392 0.008020849
0.010066779 0.011095818 0.011525185 0.008761132 0.011040503 0.0073871384 0.012466736 0.007927834
0.008219022 0.012093357 0.009478813 0.009768297 0.009826853 0.010855027 0.011839663 0.01302441
0.011299645 0.0126056 0.00924004 0.00985485 0.012203265 0.008425634 0.008355057 0.0101554645

weight f4 [32, 32, 5, 5]
00000000: 482a 8ebd 8226 5d3d b3ec c4bd 5866 eabd
00000010: 673e 96bd f3ca 7dbc c394 d03b f7d5 0bbd
00000020: 8407 843a 7a13 5b3d 8991 35ba 21b7 8a3d
00000030: a0d1 a3bc 0535 83bc 0647 a2bc b1c1 89bd
00000040: 25e3 163c 8090 373d c67e 7dbd 39ce e2bd
00000050: a301 ddbc 1681 c63d 04cb 33bd f7ad 8f3d
00000060: 39d0 00bd 0c95 d3bc fae1 563d 6827 ebbc
00000070: 1c9b d43c 1745 c53a 5ad4 b0bc 99fa 123c
00000080: a33c 45bd daf5 8a3d 19b8 99bd bedc 2cbd
00000090: 0b14 79bd ae76 133c 5f62 b5bb 17d3 00be
000000a0: 65aa a63d e500 313d 5b13 fd3c 8ca7 233d
000000b0: f515 29bc 4357 8d3d e2e9 07bc 404a 42bd
000000c0: adf1 97bd f173 e63c 8703 b8bb 75c0 6abd
000000d0: 0f96 b73c 54a2 643d a098 adbb c7bd c6bd
000000e0: b752 80bc d3a4 573d 465a 82ba 2740 32bc
000000f0: 8e63 7cbd a035 1bbd d947 69bc 0f77 db3d
00000100: 1951 d4bd bf69 883d 5a67 98bb 124f 06bd
00000110: a1bb 663d cba3 bc3c 7ccc dc3c 571d 893d
00000120: 8fd7 4cbd 2b2e 073d e8aa cebc f71a a6bd
00000130: 4ddd 2fbc 2439 573d 6d53 143d 273e e4bc
00000140: 15f3 603d 7565 a5bd 328c 9cbd a4e3 603b
00000150: 5592 8dbd 09c6 143d bc1b a0bb 2076 9bbd
00000160: d108 283d 924d bdbd 6a3f 193d 81d2 5f3d
00000170: a44d 4d3d f91e 043d 5fe6 02bd 2957 213d
00000180: 4b44 fa3d 2b10 cfbb 1ac4 bbbc bed7 023e
00000190: b3ce 0d3d 108d 8e3d 30de abbc 5186 a63b
000001a0: 1a89 66bb f74e 903d 76be 833d bd35 50bc
000001b0: e941 0a3c 4044 dbbd baa9 43bc c78c f0bc
000001c0: 1206 363d 1a14 82bd 0046 49bd a593 693d
000001d0: 139b 5b3d 567e 013d 3f52 ccbc 78db ee3c
000001e0: f2bc 053e 07ab e53c 135b 99bd 8979 31be
000001f0: 9ceb 8dbc 8fcd a63d bdcc 4c3d bc40 843b
00000200: baa2 68bd 05e0 823c 8eae 803c 9819 bbbc
00000210: 4691 953c 5b0f 793d 57b2 0b3c b8d2 7b3d
00000220: fc27 d2bb f277 a73d 96c9 073e 745f 5dbd
00000230: 239e 0bbd ec57 a8bd c2ff 353c 8871 8a3d
00000240: 51b6 d3bd 6829 aa3d 1dad 9fbb ec11 c5bc
00000250: ea2f 1ebc 40ca f5bd 5e90 323d bc79 3ebd
00000260: ff2f 763d 8f53 8c3d 6f22 9abd 99f0 7bbd
00000270: 92bc 063d 4f4d 5c3d a31b cf3c ca9a 0dbe
00000280: e193 803c 5f63 abbc e770 94bd 2c1a 0cbd
00000290: 233e 9abc db01 813d d64a 67bc a9ab 483d
000002a0: ca91 16bd ef1c 393d 3ad4 2f3d 9e41 833d
000002b0: 40bf 383b 5694 89bd 5b1c fcbd 36fb 39bc
000002c0: 9769 193d d95f 32bd 68dc 803d d6ed a13d
000002d0: c6c3 983d 0166 873d 1b8a d8bc 1258 09be
000002e0: 9b39 2c3d d72a d9bd 730b 96bc c2d2 063d
000002f0: 8141 07bd 0f9c 993d 6665 7fbd 04f7 0b3c
00000300: 7cb7 51bd 5d78 78bd 7bb0 ae3d 4a3e e4bb
00000310: 8e23 c5bd 9501 14be c6db 40bd 1272 1fbc
00000320: ad1a 873c 3fe5 983d 6755 7b3c 3178 9b3d
00000330: 2790 8ebc 0321 533d 4428 cfba 6a22 6dbd
00000340: 8db6 36bd 9016 b03d d360 1f3c 3422 983d
00000350: fb37 933d 3de2 203d efb5 6fbc ecc6 5cbc
00000360: 92e6 c73c 3d72 babd be8e d1bd 7286 b6bc
00000370: 2d4c 82bc 3d42 9e3c 0395 b13d a636 ebbc
00000380: 001d aebd f973 123e ce62 853b 13ea 96bd
00000390: 95ed bc3d 23a7 b43b 47e6 75bc 42d5 4ebd
000003a0: 9787 873d 91c4 683d 5c53 903c 9e26 90bd
000003b0: e104 c0bd c6e2 033d 39bb abbd 2c05 1ebe
000003c0: c52b 30bd 2783 9dbc 94ce 12bd b7b1 823d
000003d0: 311b 1abe 7f4a 3e3e f6ab c8bc 8827 31bc
000003e0: a1f2 4ebd ed6b 0c3b 3885 9d3c dffb af3d
000003f0: d055 433d b8e0 383d 193c 573d 234e fa3d
-0.06941658 0.053991802 -0.09615459 -0.11445302 -0.07336121 -0.015490281 0.00636539 -0.0341396
0.0010073041 0.05348537 -0.00069262885 0.0677321 -0.019997418 -0.016016493 -0.019809257 -0.06726397
0.009209429 0.04481554 -0.06188848 -0.1107449 -0.02697832 0.0969259 -0.043894783 0.07015603
-0.031448577 -0.025827907 0.0524616 -0.028705314 0.025952868 0.0015050498 -0.021585632 0.00897088
-0.04815353 0.06785174 -0.07505817 -0.042202704 -0.06081013 0.009000463 -0.0055354084 -0.12580524
0.08137969 0.043213744 0.030893018 0.039954707 -0.010320176 0.069014095 -0.008295508 -0.04743409
-0.07419143 0.028131457 -0.005615655 -0.057312448 0.02241042 0.05581887 -0.0052977353 -0.09704166
-0.015664442 0.052647423 -0.0009945116 -0.010879553 -0.06161838 -0.037892938 -0.014238321 0.10716068
-0.10367031 0.066607945 -0.0046509923 -0.03279025 0.05633128 0.023027321 0.026952974 0.06695049
-0.05001026 0.033003014 -0.025227979 -0.08110612 -0.010733915 0.052544728 0.036212374 -0.027861668
0.05491932 -0.08075992 -0.07643928 0.0034315372 -0.06912676 0.036321674 -0.0048861187 -0.0759089
0.041024033 -0.09243311 0.037413992 0.05464411 0.050122872 0.0322561 -0.03195798 0.039389763
0.12220057 -0.006319066 -0.022920657 0.12777612 0.03462095 0.06960499 -0.02097997 0.0050819297
-0.0035176934 0.07046311 0.06432812 -0.012708125 0.008438566 -0.10706377 -0.011942321 -0.029364003
0.044439383 -0.0635149 -0.049139023 0.05702557 0.053614687 0.031614624 -0.024941562 0.029157385
0.13060358 0.028035654 -0.07488074 -0.17331518 -0.017324261 0.08144676 0.04999994 0.0040360373
-0.056795813 0.015975961 0.015708234 -0.022839352 0.018257748 0.06080566 0.008526406 0.061480254
-0.006413458 0.08177175 0.13260493 -0.05404611 -0.034086358 -0.08219895 0.011108341 0.067599356
-0.103375085 0.08308679 -0.0048729316 -0.024056397 -0.009654978 -0.12001467 0.04359471 -0.046502814
0.060104366 0.06851875 -0.07526099 -0.06150875 0.03289468 0.053784665 0.025281733 -0.13828579
0.015695514 -0.020921407 -0.07248097 -0.034204647 -0.018828457 0.06299182 -0.014116963 0.048991833
-0.03676013 0.04519361 0.042927004 0.06409 0.0028190166 -0.06717746 -0.12310096 -0.011351397
0.037454214 -0.04354844 0.06292039 0.07906692 0.07459216 0.066112526 -0.026433041 -0.13412502
0.042047124 -0.10603874 -0.018316006 0.032915838 -0.033021454 0.07500469 -0.06235256 0.00854278
-0.051200375 -0.060661662 0.08529755 -0.0069654332 -0.09625922 -0.14453728 -0.047084592 -0.009731786
0.016492212 0.074656 0.015340186 0.07591284 -0.017402722 0.051545154 -0.0015804847 -0.057894148
-0.044607688 0.085980535 0.009727675 0.07428399 0.07188412 0.039278258 -0.014630779 -0.013475161
0.024401937 -0.091038205 -0.10232304 -0.022280905 -0.015905464 0.019318694 0.08671 -0.028712582
-0.08501625 0.14302053 0.0040706163 -0.07368865 0.09225003 0.0055130883 -0.015008516 -0.050496347
0.066176586 0.056828085 0.017617874 -0.07038616 -0.093759306 0.03219869 -0.08385319 -0.1543166
-0.043010492 -0.019227577 -0.03584154 0.06381553 -0.15049435 0.18583106 -0.02449606 -0.010812648
-0.050524358 0.0021426633 0.019228563 0.085929625 0.04768926 0.045136184 0.052547548 0.12221935

bias f4 [32]
00000000: 2a4c 0137 c2b2 57b6 8ecc 1636 0395 3736
00000010: ed05 1cb6 69e9 edb6 a453 2035 362f 0fb5
00000020: d619 c5b4 f787 5c35 835c 43b6 31bd 42b6
00000030: 230d 1233 d4ed 90b5 b261 c835 b94b 4933
00000040: c8a1 1436 44c4 dbb6 cd49 7f36 0593 ba35
00000050: c566 82b6 5fc5 fdb5 4e94 3935 9c12 b036
00000060: 7131 30b6 bcb4 63b6 b44a 00b6 5ddb f435
00000070: 9d90 b0b4 006e 0037 2ce4 c036 3919 aa36
7.7067325e-06 -3.2141547e-06 2.2470808e-06 2.7355861e-06 -2.324926e-06 -7.090323e-06 5.972636e-07 -5.334035e-07
-3.6712908e-07 8.215424e-07 -2.9111113e-06 -2.9018377e-06 3.400522e-08 -1.0798053e-06 1.4929594e-06 4.686783e-08
2.2147888e-06 -6.549557e-06 3.8040919e-06 1.3900868e-06 -3.886266e-06 -1.8907411e-06 6.913368e-07 5.247375e-06
-2.6254822e-06 -3.3930837e-06 -1.911697e-06 1.824326e-06 -3.2887775e-07 7.655006e-06 5.7486086e-06 5.069331e-06

weight f4 [32]
00000000: 111a 853f 4b4e 783f 3572 883f b10b 703f
00000010: e53f 843f c2f5 853f 2e9e 803f d974 7e3f
00000020: 1649 723f f1fb 743f 2c7a 893f 38cd 823f
00000030: 9eac 823f 3f4f 7a3f 475b 783f 867e 873f
00000040: 59d9 813f 1c30 803f 960b 773f 9cfa 773f
00000050: 0112 783f 4eb2 883f b4d0 7a3f 3885 803f
00000060: e15f 813f b681 843f c6ea 873f 79d7 723f
00000070: b021 833f 8e61 833f a835 7d3f 7b2b 873f
1.039858 0.96994466 1.0659853 0.9376784 1.0331999 1.0465624 1.0048273 0.99397045
0.9464277 0.9569693 1.0740409 1.0218878 1.0208929 0.9777717 0.9701428 1.0585487
1.0144454 1.0014682 0.96502054 0.96866775 0.9690247 1.0679414 0.97974706 1.0040655
1.0107385 1.0352085 1.0618522 0.94860035 1.0244656 1.0264146 0.9891 1.0560144

bias f4 [32]
00000000: b86e 933a 2d5d a33c f15e 103d eda3 cdbc
00000010: e03f b33d dab0 fcbb b27d bb3c d55b 7bbd
00000020: bdd2 79bd 2666 febb 92db 1d3d 4475 093b
00000030: 097f cd3c 8f58 dbbc 85d2 263d 5294 babc
00000040: 1801 d03d 73d5 193d 4bd2 2d3c b9e5 1cbd
00000050: c1b9 7abc 5caf 643d 08e5 04bd 9b76 c63c
00000060: e2e2 213c 9ccc da3c 806b 22bb 9ebb 0cbd
00000070: 7da9 403d 522c cb3d 4f57 4f3d a7cc e03c
0.0011248207 0.01994189 0.035246793 -0.02510258 0.087524176 -0.007711512 0.022887085 -0.061366875
-0.06099199 -0.007763642 0.038539477 0.0020974437 0.02508499 -0.026775626 0.04072811 -0.022775803
0.101564586 0.037557077 0.01060922 -0.038305018 -0.015303076 0.0558313 -0.032444984 0.024226477
0.009880753 0.026708893 -0.0024783313 -0.034358613 0.047036637 0.09920563 0.050620373 0.027441336

running_mean f4 [32]
00000000: 5623 11bf db06 963f b242 5cbe 361e 1fbf
00000010: 7534 9d3e a5e0 c6be f101 bdbe ca9a 3e3f
00000020: 2df7 3bbf 5506 11bf 1831 99bf 502b b9be
00000030: 1308 57bf 031a 8d3d a719 833d b522 85be
00000040: a47d 8c3e 5d2a 8ebd f1ae 2bbf 0b87 00bf
00000050: 6476 82be aa80 e93b d96c 97bf 5917 383e
00000060: fe4d 143f 88c5 0dbd 9871 973d 8fc0 d9be
00000070: e766 b3be 9ae9 e3bd 9235 143e 823b 5dbf
-0.56694543 1.1720842 -0.21509817 -0.62155473 0.30704084 -0.38843265 -0.36915544 0.7445494
-0.73424035 -0.56650287 -1.1968107 -0.36165857 -0.83996695 0.06889727 0.06401377 -0.26003042
0.27439606 -0.06941674 -0.67063814 -0.5020606 -0.2548095 0.0071259337 -1.1830093 0.17977656
0.57931507 -0.03461221 0.07394713 -0.42529723 -0.35039446 -0.1112854 0.1447356 -0.86418927

running_var f4 [32]
00000000: 8904 a23f d19f ee3f 12c4 963f aa39 b33f
00000010: fef0 b93f 6f2f d03f ba17 e73f 401a 8f3f
00000020: fe27 b23f 9aaa c43f 0e70 fd3f 650f 973f
00000030: 9ca8 bd3f de6b b93f 82a1 923f b90c af3f
00000040: baa0 9f3f 0060 9f3f b0cf a63f 7a86 a43f
00000050: 12f1 ab3f 535e 753f b76f d23f a05e 953f
00000060: 8362 b53f 57fa a63f c102 913f dbc3 8f3f
00000070: f588 ac3f fccf b83f 27e7 b03f 2d50 a73f
1.2657634 1.8642522 1.1778586 1.4001973 1.452667 1.6264476 1.8054116 1.1179886
1.3918455 1.5364563 1.9799821 1.1801573 1.481708 1.4486043 1.1455538 1.3675758
1.2470925 1.2451172 1.3032131 1.2853539 1.3432944 0.9584705 1.6440343 1.1669502
1.4170688 1.3045148 1.1328965 1.1231645 1.3479296 1.4438472 1.3820542 1.3071343

weight f4 [32, 32, 4, 4]
00000000: e83c 0a3e 4614 fabd 3a2a 7dbd 9257 2f3e
00000010: 1f21 fa3d 05f4 d73d 4851 9ebd a86b e6bd
00000020: 50f2 22bb c0dc af3b b736 0f3d 7c16 c1bd
00000030: 2c36 a4bc 4f86 73bd 7c5a 37bd 6826 423d
00000040: 088e 253b 4492 453b 2565 113d 474b 09be
00000050: f2d3 63bc ec96 813c 183a 853d f033 adbd
00000060: 4a97 053d 7d53 c83c 510b f9bd e66c a43c
00000070: 9e61 9b3d aadf c73c 3e18 1a3c 26bf 983d
00000080: 85a6 013b f39c 523e 6b79 9e3d 7441 ebbc
00000090: 5205 3ebd 0ba2 ec3c 9917 4abd f302 cc3c
000000a0: 0f9c 0c3d 8872 e43c fc61 c2bd 1c5a 753d
000000b0: 1966 2bbe 52de fdbd 33ae d13c de08 d83d
000000c0: 8ba2 653d 7626 78bd b024 0e3e f064 b43c
000000d0: 29e9 92bd 62c8 bcbd 13ee 7e3d 265a 03be
000000e0: 5549 c93d d081 0f3d 9666 70bd be44 d53d
000000f0: 69eb 0e3d 394c f6bd 9eeb 5f3d c2e6 993b
00000100: e1d3 36bd 1188 3abd 2226 e63c f6aa 61bc
00000110: 4963 713d 93c8 adbc aa88 a2bb bdb6 bebd
00000120: e0d5 ef3b 009a ad3d 813a 85bd 4d27 08bb
00000130: 6cf8 44bd e29d da3c 9ac3 913c d36b debd
00000140: 0548 213d 6c7c 4d3d 55ab 88bd 1a0f a63d
00000150: 3463 d03a 602f 3c3d 5329 27be 29c7 85bd
00000160: d5e0 0dbe 74f0 d43d 6f42 6dbd 91bd b13d
00000170: 689c 0e3c 96ce d13c 8aa6 e23d 15bf 56bd
00000180: 0101 e93b a368 373d 325f b73d 6a13 533d
00000190: b1ed 58bd 7ea9 10bd 87b0 efbc 979f 8dbc
000001a0: 3144 48bd 3260 a13d 24f1 093d b115 443e
000001b0: 3249 443d 1420 fe3c 2d93 3abd 2ee6 c7bd
000001c0: 71c3 003d 44f0 16be 00e3 673d 9d89 073e
000001d0: a198 203d 7513 243d c04a fd3c b499 e6bc
000001e0: 3e44 183d 0bed 0dbe 4b02 963d 7162 89bd
000001f0: 61f3 143d 912e 5c3c e03e b3bd b358 86bd
00000200: f34b 55be 9a83 f5bd 8cdf 733d 11d0 7fbd
00000210: 75c1 153d 3e38 d7bd 76ea 8d3c 17f8 b3bd
00000220: 886b c73b 857c c33c e557 82bd d007 4dbc
00000230: 26c1 8ebc 67da 633b d20a 263c 9ee5 063e
00000240: fb5d 86bd e9bf 4abd 4aea 21bd 2f35 f13a
00000250: e370 78bc 7b52 abbd caf3 d73d 21fa 81bd
00000260: 4889 193d 6270 8cbc e5ca 603d c718 d63d
00000270: eb3c a1bc 4155 b6bc c848 8d3d e995 5c3d
00000280: 91b8 94bd 499f 8ebd ff54 ad3d 4218 293d
00000290: 1b17 91bb 7045 ae3d 8e60 433c 9050 a0bd
000002a0: 0080 ca3b e3af b33d 0b85 2c3e 4af9 9b3d
000002b0: 1367 adbd c2d8 cb3c 67a9 de3d 29f7 083e
000002c0: 1549 bcbd 5262 f33a f3fe acbd 4afb 5a3d
000002d0: 2444 dc3d b7c7 2f3c 5c55 9ebc 2a77 e13c
000002e0: 2795 303d d8bc 0e3d 8f74 02bd 6e9b 763c
000002f0: 4ba2 f83c d85a 0e3c d1b1 cdbd d250 dabc
00000300: 3f38 f43d 1987 223c 9c55 e33c 6d24 a3bd
00000310: c830 873d ccf6 973d 4288 16be 71ed f8bd
00000320: b574 db3d d5de 103e 8070 aa3b e591 7abd
00000330: bc12 b2bd 306f 3c3d 6698 553d 50f5 97bd
00000340: 0070 f53d 2476 eabc de26 01be d54a 63bc
00000350: f873 6dbd 0ca1 05bd cee2 603c d6e8 22bc
00000360: eb18 93bc 8b70 18be 4d3e b83c 11d6 b93a
00000370: 44ec eabc b801 743d d826 9cbc e970 80bd
00000380: 809b 673c f502 223c 55ee b6bd 2694 92bb
00000390: 6d99 5e3d 570c efb9 58d6 abbd 4caf 003c
000003a0: 164c b1bc b633 223c 3ecb c0bd f7f4 00bd
000003b0: 20b7 663d 69ca 993d 6340 b13d 8d8a 71bd
000003c0: 49d1 7bbc cdda 43bd 8379 d03d b980 c63d
000003d0: b24c 88be 7307 08be 9cc5 01bd 7803 a43d
000003e0: e2fa 2c3e d9c1 93bd 6e73 813c e79e 0b3e
000003f0: 2c29 913d f63f f0bc 7a2e 34ba 41b4 7e3d
0.13499796 -0.12210898 -0.06180785 0.17123249 0.122133486 0.1054459 -0.07730347 -0.112510026
-0.0024863668 0.0053668916 0.03496429 -0.09428117 -0.020045362 -0.05945426 -0.044764027 0.04739991
0.002526166 0.0030146996 0.03549685 -0.13407622 -0.013905512 0.015819035 0.06505221 -0.08457172
0.032614984 0.024453873 -0.121603616 0.020071458 0.075869784 0.024398644 0.009405194 0.07458334
0.0019783091 0.20567684 0.077380024 -0.028717734 -0.046391793 0.028885862 -0.04933891 0.02490375
0.034328517 0.027886644 -0.09491345 0.059900388 -0.16738166 -0.1239592 0.02559576 0.10548566
0.056063216 -0.060583554 0.13881183 0.022020787 -0.07173378 -0.092179075 0.062238764 -0.12827358
0.0982844 0.03503591 -0.058691584 0.10413502 0.034892473 -0.12026257 0.05466806 0.004696698
-0.044635657 -0.04553992 0.028094355 -0.01377367 0.058932576 -0.021213805 -0.0049601393 -0.09312198
0.007319197 0.08476639 -0.06505299 -0.0020775378 -0.048088476 0.026686613 0.017793465 -0.108604096
0.039375324 0.050167486 -0.06673304 0.08108349 0.0015898705 0.045943618 -0.16324358 -0.065321274
-0.13855298 0.10397425 -0.057924684 0.08678735 0.008704282 0.025611203 0.11066921 -0.052428324
0.0071107154 0.044777524 0.08953704 0.051532187 -0.052961055 -0.03531789 -0.02925898 -0.017288012
-0.048893157 0.07879676 0.033677235 0.191489 0.047921367 0.031021155 -0.045550514 -0.097607
0.031436387 -0.14740092 0.05661297 0.13236089 0.03920806 0.04005762 0.030919433 -0.028149463
0.037174456 -0.13859956 0.07324656 -0.06708229 0.036364917 0.013438837 -0.08752227 -0.06559887
-0.20829754 -0.11987992 0.059539363 -0.062454287 0.036561448 -0.10508774 0.017323714 -0.08787554
0.006085817 0.023863086 -0.06364421 -0.01251407 -0.017426085 0.003476763 0.010134416 0.1317353
-0.06560894 -0.049499426 -0.039530076 0.0018402691 -0.015163633 -0.08365341 0.10544546 -0.063465364
0.037484437 -0.017143432 0.054880995 0.10453945 -0.019682368 -0.02225745 0.068986475 0.053853903
-0.07261766 -0.06963975 0.08463477 0.0412829 -0.004427803 0.08509338 0.011924876 -0.07827866
0.0061798096 0.08773782 0.16847627 0.076159075 -0.084669255 0.024883632 0.10872155 0.13375534
-0.09193627 0.001856873 -0.08447065 0.053462304 0.10755184 0.010728768 -0.019327812 0.027522642
0.043110993 0.034848064 -0.03184944 0.015051706 0.030350825 0.008688651 -0.100436814 -0.026649866
0.119247906 0.009919905 0.027750783 -0.07965932 0.06601101 0.0742012 -0.14700416 -0.12154663
0.107156195 0.14147504 0.0052013993 -0.061174292 -0.086949795 0.046004474 0.05214729 -0.074198365
0.11984253 -0.028620787 -0.12612483 -0.013872822 -0.057971925 -0.03262429 0.013725949 -0.009943208
-0.017956218 -0.14886682 0.022490645 0.0014178177 -0.028677113 0.05957195 -0.01906149 -0.06271536
0.014136195 0.0098884 -0.08932177 -0.004473227 0.054345537 -0.00045594826 -0.08390492 0.007854294
-0.021642726 0.009900024 -0.09413765 -0.031483617 0.056326985 0.0750931 0.08654859 -0.058970023
-0.015369722 -0.047816087 0.101794265 0.09692521 -0.26621014 -0.13284092 -0.031682596 0.08008474
0.16892579 -0.07214708 0.015802111 0.13634835 0.07087931 -0.029327374 -0.00068733806 0.062183622

bias f4 [32]
00000000: 4ff3 a4b4 6614 c435 fe0e 85b4 7923 3cb5
00000010: d3ef 29b6 0205 a034 7ef6 3535 8633 dbb3
00000020: 77ad a6b5 9d40 0db4 9a21 93b5 d938 e934
00000030: 8afc 1936 465d 7835 2b39 69b6 77f0 d335
00000040: a376 8c34 7dac 20b5 5647 afb5 6812 85b5
00000050: b04a 8f35 c505 7bb4 571e 8b36 2eb9 bbb5
00000060: bbe3 b6b3 591e 88b5 720d f934 14ef 57b5
00000070: 197d e435 8b40 d6b5 6de9 2032 4180 e2b4
-3.072441e-07 1.4609075e-06 -2.478409e-07 -7.0087077e-07 -2.5322558e-06 2.9805966e-07 6.778645e-07 -1.0207354e-07
-1.2418449e-06 -1.3155154e-07 -1.0962133e-06 4.3440994e-07 2.2945774e-06 9.252293e-07 -3.4752982e-06 1.579071e-06
2.6163352e-07 -5.985565e-07 -1.3059278e-06 -9.914629e-07 1.0676067e-06 -2.3378296e-07 4.146055e-06 -1.398648e-06
-8.5164594e-08 -1.0141622e-06 4.6389647e-07 -8.0441646e-07 1.7023732e-06 -1.5963027e-06 9.366301e-09 -4.2189097e-07

weight f4 [32]
00000000: cf69 8f3f 669b 8b3f cb54 8e3f 7594 863f
00000010: fa6d 8f3f 5e98 853f 8516 863f 85a7 913f
00000020: 2579 8d3f 4726 7d3f 2466 8c3f 7890 833f
00000030: c632 863f 5719 863f a3bc 8b3f b696 853f
00000040: e9c9 863f f56c 903f 97cb 7e3f 52d1 843f
00000050: 33c9 883f 657b 7d3f 9fa9 843f 4158 6b3f
00000060: 41c7 873f d6bd 833f ffeb 973f ede3 893f
00000070: edd3 8d3f 2bc8 833f 8f79 713f 4557 893f
1.1204165 1.0906799 1.1119627 1.0514055 1.1205437 1.0437124 1.0475622 1.1379248
1.1052595 0.9888653 1.0968671 1.0278463 1.0484245 1.0476483 1.0916942 1.0436618
1.0530368 1.1283251 0.99529403 1.037638 1.0686401 0.9901641 1.0364264 0.9193154
1.0607682 1.0292308 1.1868895 1.0772682 1.10803 1.0295461 0.9432611 1.0729758

bias f4 [32]
00000000: d8e1 be3d 615d aa3d 60b9 a83d 6a9f 263d
00000010: b9f5 433d 2ebc 393b b5ac 213c ebec c03d
00000020: 9fb6 ac3d d2c2 cbbc a37e 8f3d d044 37bd
00000030: 7a7c 823d e0c3 e13c fc4e 703d 7f12 ebbc
00000040: 69fd 4f3d fd8e 3f3e 1667 8cbd 666c ad3d
00000050: 7194 143e b814 413c 6b5d 9ebc 2fa0 e9bd
00000060: 8d66 21bd ad95 ce3d 3a88 423e 111d 833d
00000070: 6bfe 8a3d eb13 4bbd e53a 50bd 0bf2 c23b
0.0932042 0.08318592 0.082384825 0.040679373 0.04784176 0.0028340924 0.009867837 0.094201885
0.0843327 -0.024873171 0.07006576 -0.04474336 0.06371398 0.02755922 0.058669075 -0.028695343
0.05077878 0.1870689 -0.068555996 0.08467941 0.14509751 0.011784725 -0.019331655 -0.11407506
-0.03940444 0.10087142 0.18997279 0.06402028 0.067868076 -0.049579542 -0.050837416 0.005949264

running_mean f4 [32]
00000000: c7ca e83d 3f30 0ebe 56be 5fbb c1ef 01bf
00000010: 3a86 3e3d 977d adbd 2262 2fbf 33fe 2d3e
00000020: 11b1 ac3d 0713 3dbd ad11 d13c aaf3 2bbe
00000030: 3cc4 abbd eae3 a2be 1dcc 643f e0f6 cb3e
00000040: 1116 7f3f 6dff ad3d 3810 85bf 23bc 4fbe
00000050: 97d1 7dbd 1e46 883f cdb6 96bd 90c4 72bf
00000060: f4e4 f9be 1817 923f 54e4 223f d35b b0be
00000070: 383b 293d 4970 51bf fe7b 71bf aca2 27be
0.11366802 -0.13885592 -0.0034140549 -0.5075646 0.046514727 -0.0847122 -0.68509114 0.169915
0.0843221 -0.046160724 0.025521124 -0.16792169 -0.08387038 -0.3181451 0.8937395 0.39836788
0.99643046 0.08495984 -1.0395575 -0.20286612 -0.06196746 1.0646398 -0.07359085 -0.9483118
-0.4880749 1.1413298 0.6362965 -0.34445056 0.04131624 -0.8181196 -0.9432982 -0.16370648

running_var f4 [32]
00000000: 5202 723f e19a 7a3f b6bc 5e3f 5d7f 8a3f
00000010: 8f26 843f c7a2 6a3f 19c1 9b3f c5aa 7a3f
00000020: 659f 7c3f f8cd 983f 9164 8a3f 3f4a 913f
00000030: e222 9c3f 2216 903f a109 7e3f 10e2 793f
00000040: 6c8f 603f 8bef 9d3f 45a2 873f c752 5a3f
00000050: d88f 7f3f e9fe 8b3f 624e 7e3f 48c5 933f
00000060: c9e2 6e3f 6ec4 833f 05ec 5e3f 3637 833f
00000070: 8567 893f 429b 8b3f 3122 7e3f b826 803f
0.9453479 0.97892576 0.870067 1.0820118 1.0324267 0.9165463 1.2168304 0.97916824
0.98680717 1.1937857 1.081194 1.1350783 1.2198145 1.1256754 0.9923344 0.9761057
0.87718844 1.2338728 1.0596396 0.8528256 0.99828863 1.0937167 0.9933835 1.154458
0.93314797 1.029432 0.8707889 1.0251224 1.0734717 1.0906756 0.9927092 1.0011816

weight f4 [128, 1120]
00000000: 1c9a 923c 8029 993b bad4 5b3d 8620 d03d
00000010: 6a4e 23bd da81 29be 9f63 443d 2deb 99bd
00000020: 626b d1bc ab5b 9d3c 0cd3 8f3d 9154 063d
00000030: 5e4a 0a3c 9014 10bd a9d2 ecbd 2dcb 223d
00000040: 6018 6bbd eafe 943d ca60 6a3d ab8c e5bb
00000050: b9d1 653d 049c 4dbc 731c 2a3c 5e70 51bd
00000060: 76f4 6c3d 158d 4fbd 7f7a 0fbd 987c 553d
00000070: 9b4a 9d3d 1184 58bd 3296 a53d 769b caba
00000080: 2892 a7bc 252e ff3c b107 a9bd 446b 3a3d
00000090: 7c74 9cbc 26a7 9d3c f172 9dbc 2573 d8bc
000000a0: 401f 0c3d 0329 98bd 524e a2bd 53bc 083c
000000b0: c851 0dbc 5f5d 253d e160 76bc e2bb 5d3d
000000c0: 4024 87bc bac2 633b 0b17 0d3c e2ae fcbd
000000d0: f525 c6bd 3272 c33a c1f5 553d 07f9 03bc
000000e0: c112 6a3d 9105 10bd 335f 4dbd b338 db3d
000000f0: cf38 a93c 313f 9d3c 4adf 9abc 7a86 06ba
00000100: 285e 96bc 8ae5 c13b ff97 83bd 60ee 78bd
00000110: 6641 193b 5700 353d 5efc 53bd 291e 38bd
00000120: c91f 39bd 8961 09bc 5b85 253d 8d3f 31bd
00000130: 9ece 90bc 2493 aabc 6b01 483d fda0 c3bd
00000140: 51d3 893d c61c 07bd a820 21bd 3251 bbbb
00000150: 4ae4 b5bc d765 83bc bab2 3c3d 36bc 693d
00000160: d0cb 82bd a7c1 debd df4a 4ebd 9c08 a33c
00000170: 8205 10bd 6690 223d f2f3 b13b a56a acbd
00000180: 514c 553c 061d 4a3c 45f1 c83c 7233 42bd
00000190: eb7f afbc 663a 52bc bb35 c13c 4144 6dbd
000001a0: 69a9 e6bd c22b 95bd cdd3 343d 8019 7e3d
000001b0: 3abf 933d 4dd0 1f3d ca2f 3f3b 96ec c6bd
000001c0: 1c6e 673d edf8 623d f38e babc a7af 95bd
000001d0: f986 00bc cad6 0bbd 47a1 8b3d 41e4 c8bd
000001e0: b58e 2f3d b173 98bc 22d0 3b3d 3e4b edbb
000001f0: 68c4 84bc 939e e03c 57c0 0ebd 4115 d03b
00000200: 1eed 1abc ab74 ba3c 2bea 553c 9deb 5abd
00000210: d60f 8d3c 1266 7c3d 4926 d7bc ae00 c5bd
00000220: 906f a73c 64a8 803d 17a3 f83c 56bd 433d
00000230: 911e f4bd 7f71 853d b1f7 bbbd a8c2 39bc
00000240: d55b 42bd bbcc b7bd bdb7 c2bd e2ab 36bc
00000250: 289b 80bd 5fd6 9dbc eae3 da3d 59eb d13a
00000260: effa 9c3b 0ebd a43d 5b93 623c dbb3 b23c
00000270: bad6 bdbc 61cd 343d 6273 dcba 9711 03bc
00000280: 3d47 55bd 836f 5f3c 8547 c43c f385 853b
00000290: 3f17 f43c 7731 bb3d b9b1 9cbc d530 cc3d
000002a0: 0b06 2bbd 768d a03d fbc8 03be 185e e73d
000002b0: 74c1 db39 95b2 95bd 5828 e0bc e4c4 cb3d
000002c0: eafc 0bbe f627 83bd 2507 cebc 9c55 1dbd
000002d0: b191 ca3d 1608 abbc 26da acbc 6842 48bd
000002e0: 6640 c3bd 0018 20bc b8c1 86ba 38a1 3abd
000002f0: dcfb 2e3d 8ae5 dd3d 25cb 9ebc 6afa 8e3d
00000300: 6421 1e3d e3a8 993d 630f 32bd d150 14bc
00000310: b262 11ba bad4 92bd 7fc1 f53c a5e8 0bbe
00000320: 02b0 8ebd 3b0a a73d bb7d de3d 65bd 993d
00000330: 4055 dabd a2d3 4c3d 56fd 7c3d 6b40 b03d
00000340: afab 073d a81b 8cbd 0377 08bd 4911 9f3c
00000350: 9a9f 75bd 4164 edbd 5fcf 1cbd ca64 cebc
00000360: bf03 3ebd f2c1 9abd a654 4fbc e2d4 babd
00000370: d6af fa38 53a1 86bd 0080 903c a64f 143c
00000380: 62fa d13d fa1f f33c 3744 7ebd 5446 b63c
00000390: ef32 0f3c 2de3 893d 4cd3 febc dcdd b63d
000003a0: d82d 97bc 6cdd c0bd 0704 973d 9c03 f43c
000003b0: 6da0 99bd ecb0 1a3d 1ca9 42bd 6bba af3d
000003c0: a08c 1c3d f46a e13d 70ac 4abd ee51 843c
000003d0: fa37 e1bc 23f2 863c f760 c7bd 148f d33c
000003e0: 6817 48bd 371d 1dbc 2f44 273d 0aa6 9dbd
000003f0: f2a8 553b 7ebf 2ebb b472 eabd 39bc 91bd
0.01789575 0.0046741366 0.05366967 0.10162453 -0.039869703 -0.1655344 0.04794657 -0.07515559
-0.0255639 0.01920875 0.07022676 0.032795493 0.008440582 -0.03517586 -0.11563618 0.039744545
-0.057396293 0.072751835 0.05722121 -0.0070052943 0.05610821 -0.012549404 0.010382759 -0.051132552
0.057850324 -0.050671656 -0.03502893 0.052120775 0.076802455 -0.052860323 0.08085288 -0.0015457708
-0.020455435 0.031149933 -0.0825342 0.045512453 -0.019098513 0.019244742 -0.019219847 -0.026422093
0.03420949 -0.07429697 -0.07925095 0.008345681 -0.008625455 0.04037225 -0.015037746 0.054134257
-0.016496778 0.0034753517 0.008611451 -0.12338044 -0.096752085 0.0014911352 0.052236322 -0.008054978
0.05714679 -0.03516156 -0.050139617 0.10704174 0.020656971 0.019195171 -0.0189053 -0.0005131733
-0.018355444 0.0059172558 -0.06425475 -0.060774207 0.0023384928 0.044189777 -0.051754348 -0.044950638
-0.04519633 -0.008385071 0.04041038 -0.043273497 -0.017676648 -0.020822115 0.048829477 -0.095521905
0.067297585 -0.032986425 -0.039337784 -0.0057164663 -0.022203583 -0.016039772 0.046068884 0.057064258
-0.063865304 -0.1087678 -0.05036437 0.019901566 -0.035161503 0.03968849 0.005430692 -0.08418778
0.0130186835 0.012336021 0.024529109 -0.047412343 -0.0214233 -0.012831306 0.023585191 -0.05792642
-0.11262781 -0.07283737 0.0441473 0.062036037 0.07214208 0.03901701 0.0029172772 -0.09713094
0.056501493 0.055413175 -0.022773242 -0.07308894 -0.00784468 -0.034140386 0.068178706 -0.09809161
0.042860705 -0.018609853 0.045852788 -0.0072416356 -0.016206935 0.027419364 -0.0348514 0.00635019
-0.009455947 0.02276071 0.013056318 -0.053447355 0.017219465 0.06162078 -0.026263373 -0.0961927
0.02043894 0.06282118 0.030351205 0.047787987 -0.119198926 0.06515788 -0.09178103 -0.011337914
-0.04745086 -0.08974596 -0.095077015 -0.0111493785 -0.06279594 -0.01926726 0.106880024 0.0016015574
0.004790656 0.08043872 0.013829078 0.021814277 -0.023173679 0.044141177 -0.0016819055 -0.007999799
-0.05206989 0.013637426 0.023959884 0.004074806 0.02979624 0.09140294 -0.019127714 0.099702515
-0.04175381 0.078394815 -0.12869637 0.11297244 0.0004191507 -0.073094524 -0.027362987 0.09949663
-0.13670698 -0.06404106 -0.025149891 -0.03841172 0.0989107 -0.02087788 -0.021100115 -0.048891455
-0.095337674 -0.009771347 -0.0010281121 -0.045563906 0.04272066 0.10834797 -0.019383976 0.069813564
0.038606063 0.07502916 -0.043471705 -0.009052471 -0.0005546018 -0.071694806 0.029999493 -0.13662966
-0.069671646 0.08156248 0.10863825 0.07506827 -0.106607914 0.050006516 0.061765037 0.08606037
0.033122715 -0.068412125 -0.033316623 0.019417422 -0.05996666 -0.115913875 -0.038283702 -0.025194544
-0.04639029 -0.075565234 -0.012654459 -0.091226354 0.00011953681 -0.06573739 0.01763916 0.009052193
0.10252835 0.029678334 -0.062076773 0.022250332 0.008740171 0.067327835 -0.031106614 0.08929035
-0.018454477 -0.09417233 0.07373815 0.029786877 -0.07501302 0.037766382 -0.047524557 0.08580478
0.038220048 0.11006728 -0.049480855 0.016152348 -0.027492512 0.016472882 -0.097352915 0.02582506
-0.048850447 -0.009589485 0.04083651 -0.07697685 0.003260192 -0.0026664431 -0.11447659 -0.07115979

bias f4 [128]
00000000: fff0 c0bb df66 f2bc 5a44 0b3c 7b53 773c
00000010: 152a a63c 1e0e 8dbc 4651 463c 9ea3 8a3d
00000020: a11c 29bc 5dd2 2dbc 9444 dabb a1f2 853d
00000030: 5038 38ba 9021 e5bc ec87 513c 9d76 0c3d
00000040: 70a5 14bb fa36 703d fd85 a2bc ff73 f33c
00000050: a360 2cbc 94e7 7d3c 70ea b7bc e7a6 c73c
00000060: 6e3a 1abc 917c a53b 380d e23d 14d3 c53c
00000070: fc8a 903c e694 1dbb 5719 92bc ab61 c23b
00000080: cb82 f53b 80ea c93c ede1 2dbc 391d f9ba
00000090: df64 3dbc c698 cd3c 300d df3b b34b d53c
000000a0: 659f 3e3c 59a7 c23b d084 a23b bbac 323d
000000b0: 78bc 87bc 49e6 14bc 5d24 6b3c 597b 9dbc
000000c0: 9e27 3abb e030 993d 8941 28bc 471e fcba
000000d0: e3fd 13bc a71a a9bc c6e6 09bc 5c89 ea3b
000000e0: bc26 163d 5fd0 3bbc 5830 0b3d 1202 2fbc
000000f0: aedc de3d ffa1 68bc 9576 04bc 0613 8e3c
00000100: 8d9c e93c b46c 80bc f70d 533c 84fa 0a3d
00000110: ab82 56bc 00b6 52bc cb2c e63d d7cc 63ba
00000120: 5789 6b3b 9890 adbc c8b3 68bc 5c7c 20bc
00000130: 8e3e e93b 55d2 403b 502e dcbb f057 243c
00000140: fe64 27bc 6658 233e e1fc f23b 7f46 0b3d
00000150: dc57 cb3c 769b 4b3c 11eb a13d df2e aebc
00000160: ca14 123c b890 db3c e00f e5bc 19a0 163c
00000170: 9c26 f2bd 5e64 cbbb 43be 79bc 3e29 013d
00000180: 1243 dabc e6dc 93bb df1b 243d 5232 55bc
00000190: 72ff 363c c68b 183d 1e41 29b9 e4eb 6ebb
000001a0: 8b67 2739 25a4 6cbc cf7e e3bb 7e39 79bc
000001b0: cc13 7dbc 0f3e 363d e6bd d03c cb29 d33c
000001c0: 007c 4cbc b0e6 ae3b ef6c 623c bb0b c53d
000001d0: 3351 023e 3b1f 17bc 28fe 2d3b 3daa 56bc
000001e0: 1ece dc3a 536d 8d3b f439 5d3c 3a4a d5bb
000001f0: 25e3 b2bc 2b77 0b3c 612b 173b 31a3 85bc
-0.005888104 -0.029590068 0.008500183 0.015095587 0.020283738 -0.017218646 0.012104338 0.06769489
-0.010321767 -0.010609237 -0.006661007 0.065404184 -0.0007027434 -0.027970105 0.012788754 0.034292806
-0.0022681616 0.05864618 -0.019839281 0.029718397 -0.010521087 0.015497107 -0.022450656 0.024371577
-0.009413345 0.00505025 0.110376775 0.024148501 0.017644398 -0.002404505 -0.017834349 0.005932053
0.0074923984 0.024647951 -0.010612947 -0.0019005901 -0.011559694 0.025097262 0.006806992 0.026037073
0.011634682 0.0059403596 0.00495968 0.04362176 -0.016569361 -0.009088107 0.014351931 -0.019223856
-0.0028404961 0.07480025 -0.010269531 -0.0019235098 -0.009032699 -0.020642592 -0.008416837 0.007157488
0.036658034 -0.011463254 0.03398165 -0.010681646 0.10881935 -0.014198779 -0.008084913 0.017343055
0.028517032 -0.015676834 0.012881747 0.033930317 -0.013092677 -0.012860775 0.11239012 -0.00086898863
0.0035940015 -0.021187112 -0.014203019 -0.009795275 0.007118053 0.0029422243 -0.006719388 0.010030732
-0.0102169495 0.1595169 0.0074153994 0.034002777 0.024822168 0.0124272015 0.079061635 -0.021262584
0.008916089 0.026802406 -0.027961671 0.009193444 -0.118237704 -0.006207033 -0.015243116 0.031533472
-0.02664331 -0.004512417 0.040065642 -0.013012486 0.011169301 0.037242673 -0.00016141354 -0.003645652
0.00015964934 -0.014443432 -0.006942607 -0.015211461 -0.0154466145 0.044492777 0.025481176 0.025776764
-0.012480736 0.0053375587 0.013819917 0.09621378 0.12726288 -0.0092237545 0.0026549194 -0.013102111
0.0016846096 0.004316011 0.013502587 -0.0065090926 -0.021836827 0.008512299 0.0023066627 -0.016313167

weight f4 [1, 128]
00000000: d80c 0338 4a77 f2bd b415 35bb 5e53 d1ba
00000010: 4bd3 343b 02af 52be 8084 a7bb d82f b03a
00000020: 0f5b fc3d 7933 173e 9c79 be3b 8a01 2b3d
00000030: faaf 6b3a 15ee 9dbd b0db ce3b e311 e53a
00000040: b842 0e3b 82c7 46bc f293 373e 9d82 2fbb
00000050: b28c 303e 040d 333c 485f cbbd 08ea 48bb
00000060: 3e98 db3d 026e 8eba 3ce2 ddba faa5 5c3b
00000070: 2cbe e8b9 a5ed 003c 9a2b 0a3c fc6e 3dbb
00000080: 0a11 e73d 0e7a c839 ce7f 313e a3ed 4e3e
00000090: 6b3c 84bb c3ff 693b 344c 34bb 3210 b3b9
000000a0: 7043 89bb 6900 a6bc 4482 0f3c 6dc1 453e
000000b0: 30e1 20bc 999d ae3d 99c2 403b ebd9 8336
000000c0: 3b4b ffbb d47c 94bc 4cb4 863d 2576 d5bb
000000d0: ddf0 213e 554d e8bd 518f 2cbd 0b0b 07bb
000000e0: 5383 6a3b a660 b0bd b1f9 29ba 92b7 16bc
000000f0: 97bb 0b3b 8a77 cd3d d2d3 c8bb a342 043c
00000100: 1371 3c3b 1720 c0bb b8e2 863b f84a 18bb
00000110: b9b5 2a3c 6bc7 1cbd 68e2 513a b9b3 263c
00000120: ab00 743b 1fcf 243d 0607 433d cb15 98bb
00000130: f33d 263e 15d1 203e d389 26bb b05d 41bb
00000140: cb6d 253e e872 e33c 83e0 bbb9 024f 233c
00000150: 1bc9 5639 b823 c43a e38d 483d 4078 39be
00000160: bafa 0b3b 603f 50bb 12f0 aebd 20a7 173c
00000170: 062a 213d 156f c83a 231e f53d 9863 5f3c
00000180: 573e dcbd d5b5 083e 43d3 e6ba b1d8 2abe
00000190: 9210 30ba c237 ea3d c986 483a 77c9 0a3e
000001a0: b8d6 8c3c d58e ad3d e6c3 e83d 8d72 f0bd
000001b0: 9f04 19bc 954a f93b 0fa7 c4ba ae7e 053a
000001c0: fc7f a73d a1e8 b9bc a9c0 d6ba 8933 f43b
000001d0: 9d4a 2d3a 07bb 583b e041 1dbb 99a9 82bd
000001e0: dac9 693a 5d8d 7bbb 660f 7dba 13d9 a33d
000001f0: b2ca f0bb 8cc5 8a39 1795 d6b9 2e1d e7bd
3.1244796e-05 -0.11839159 -0.0027631344 -0.001597028 0.002759176 -0.20574573 -0.005112231 0.0013441993
0.123220555 0.14765729 0.005812837 0.041749515 0.0008990761 -0.07711426 0.00631281 0.0017476644
0.0021707248 -0.012132527 0.1792753 -0.0026780732 0.17241171 0.010928396 -0.09930283 -0.0030657072
0.10722397 -0.0010866525 -0.0016928385 0.0033668266 -0.00044392177 0.007869159 0.008433247 -0.0028905263
0.11282547 0.0003823791 0.1733391 0.20207839 -0.0040355227 0.0035705424 -0.002751124 -0.00034153607
-0.0041889474 -0.020263867 0.008759085 0.19312067 -0.009819314 0.08526153 0.0029412864 3.929473e-06
-0.0077909506 -0.018125929 0.06577358 -0.006514328 0.15814538 -0.11342875 -0.042128865 -0.0020605947
0.0035783842 -0.08612184 -0.00064840453 -0.00919904 0.002132153 0.10032566 -0.0061287666 0.008072528
0.002875392 -0.0058632004 0.0041163824 -0.0023238044 0.010419303 -0.038276117 0.00080064544 0.010174685
0.0037231843 0.04023659 0.04761412 -0.00464127 0.16234569 0.15704758 -0.002541174 -0.0029505305
0.16155164 0.027764753 -0.00035834694 0.009967567 0.00020483548 0.0014964258 0.04896344 -0.18112278
0.0021359161 -0.0031776056 -0.085418835 0.009256154 0.039346717 0.0015291894 0.11968639 0.013634585
-0.10754078 0.13350613 -0.0017610568 -0.16684224 -0.00067163364 0.11436416 0.0007649479 0.13553415
0.01719223 0.08474509 0.1136549 -0.11740599 -0.009339481 0.007607768 -0.0015003401 0.0005092424
0.08178708 -0.022693934 -0.0016384321 0.0074524325 0.00066105445 0.0033070461 -0.0023995563 -0.063800044
0.0008918323 -0.003838382 -0.00096534786 0.08000388 -0.007348382 0.00026468595 -0.0004092834 -0.112848625

weight f4 [3, 128]
00000000: 9be0 12be c297 513d bda5 26be afdb 54be
00000010: 1ccb af3e 8619 7a3a 0dfa 843e 5bc4 0a3e
00000020: 59c5 03bd e9ee 8e3b 36a0 66be 45e7 8c3d
00000030: f526 34be 99e7 bcbd 24c2 45be 6621 833e
00000040: df41 82be f502 3c3e 06ec 9dbb 0356 963e
00000050: abd2 d7bb 7a01 8c3e 0016 78bc f938 593e
00000060: aecc 59bc cb00 6bbe c478 733d 76a9 8e3e
00000070: af7b febd 209d 43be 03d6 5bbe 8cda 5fbe
00000080: d020 5dbd 2d88 513e 3112 c9bc 441d 36bc
00000090: f0df 813d 4a7b 9e3e 7ac9 4ebe f786 963e
000000a0: 1b0d ebbd f8d0 1e3e 2add 3cbe 1803 13bc
000000b0: 6aee c3bd 65a6 38bd 5532 793e 35de 5cbe
000000c0: 3b85 79be 1380 e33d eebd 0cbd 89ba 57be
000000d0: 8e57 9dbc 002e 063c 7da0 403e f7ac 52be
000000e0: c2a8 973d b3cd 023d 30b9 6b3e 9aa4 36be
000000f0: cfaf 533d e009 10bc fb10 86be 7d05 713e
00000100: 34e0 763e d7a0 16be ebdf 753e 2b0a 833e
00000110: 12d0 67be a3e1 f2bd de0b b839 ce00 7bbe
00000120: 7176 21be 8982 52bb c475 00be dfbd 883d
00000130: aecc 81bd 7bba 0cbd f667 4cbe 622a 9dbe
00000140: 5ddc 77b9 40df 553d 99dd 5cbe 022f 7d3e
00000150: 93f2 7c3e 69a5 533e fc83 233e f53d 0fba
00000160: 94b4 30be 7111 613e 290a 3cbc 0d43 56be
00000170: 3dcb 21be 58f0 66be f95a 2abb 1987 553e
00000180: 2f8a a3bb 6063 68bd b261 423e 4e8a 28bc
00000190: e190 e8bd f31c 7a3b 6df3 3f3e b941 8abd
000001a0: 518c 1bbe 2aed c4bc 456b 12bd ca1f 733b
000001b0: b06c 2dbe 97a2 0abe f6ef 6cbe 952b 653e
000001c0: d459 cebb 68b5 cdbd 2221 37be a2e9 433c
000001d0: e5c7 f13c b59f 44be 4ad3 99be d086 1dbb
000001e0: f62a 81be a6dd e93d 21e0 38be 0df5 24bd
000001f0: 2ff5 f6bd 23b7 2dbe 6f67 53be f008 953b
00000200: 1198 ca3c 63cb d5ba 27a9 6dbe b8b4 e9bd
00000210: 2ed1 16bd 4bd1 593b 074c 11bd 6010 28be
00000220: 6682 a2bb 8330 f2b8 9f56 c8bc f4f1 91bc
00000230: 871e ffbd c158 f0bc c053 97bd 4af9 b2bd
00000240: e693 a43d 5059 a53d ff0a 8eba c04f bdbd
00000250: 133a 5bbc 63bf 0ebd f9c7 933c 09b5 d8bd
00000260: 1d33 2bbb 25bf 9abc 1391 a9be 6658 cabc
00000270: f372 7cbe 5bac 16be 3855 433d bdcb 66bc
00000280: 4002 013c 1213 debc 43ec 8bbb ca56 3dbc
00000290: 5660 14bd 480a 183a 3567 abbd a96e d73c
000002a0: 0714 d2bd 3a45 11be 8906 26be 205f 7abd
000002b0: 69c8 a5bd f214 1abd 92ad 2c3d 98f7 cabc
000002c0: 6fad 25bd b15b 8ebe b961 a739 8018 14be
000002d0: ca65 9aba bb40 1f3b f681 c7bc 14e9 abbd
000002e0: df94 21be c0ba 8d3c 61b1 dcbd 0c8e 0bbe
000002f0: 5d17 b0be 6d4c 3338 80b8 00be 74f3 23be
00000300: 88ba 15be b2c1 c6bd 2db1 f8bd 1a49 38bd
00000310: c06b 1ebe c5c5 09be 36f1 a1be 8c61 cfbd
00000320: e056 02be 2fcc 4e3d 88fa c1bd 1cd3 0bbc
00000330: 6910 4bbc 3e31 50bb 2bda 9abd 2a9b c0bd
00000340: b256 6cbb a8c4 02be c00a d1bd 8c2b 2abe
00000350: dd50 ccbd 5dc8 a1bd 9f22 51bd 9f7a 60bb
00000360: 60bb fcbd 89f6 b0bd af5c 73bc b7a9 27be
00000370: 22e4 883d 273a 76bd 5a6d 4abb eaa8 64bc
00000380: 2fb8 a5ba ff5c 23bc 8986 9fbc a8ab 20bb
00000390: 6680 1cbe 5d05 c3bc b791 c63b 5e4d 26bc
000003a0: 528f e83b 8660 b6bc c700 0a3c 2e9c 4b3c
000003b0: 857b 983d 41d3 03be bb6b 9dbb ee62 3dbd
000003c0: 23e7 18bc 361a 3dbe 82de 1dbe 2c87 adbe
000003d0: 5b8e bbbe 540b 83bd cac5 d6bd e2f6 2f3a
000003e0: 13d8 12bd 284b 8b3d 86de 03bd cd48 263b
000003f0: 1091 08be 38da ccbd ca63 69bd 9d28 95b9
-0.14343493 0.05117012 -0.16274162 -0.20786928 0.34334648 0.00095405465 0.25972024 0.13551466
-0.032170627 0.0043619764 -0.22522053 0.06880049 -0.17592986 -0.09223861 -0.1931234 0.25611418
-0.2544088 0.18360503 -0.004819396 0.29362497 -0.006586393 0.27344877 -0.015141964 0.2121314
-0.013293428 -0.22949521 0.059441343 0.27863663 -0.124259345 -0.19102907 -0.21468358 -0.21860713
-0.05398637 0.20462103 -0.024544807 -0.011115376 0.06341541 0.30953437 -0.20194045 0.29399845
-0.11477109 0.15509403 -0.18443742 -0.008972906 -0.09566958 -0.04508056 0.24335606 -0.2156914
-0.2436723 0.111084126 -0.03436082 -0.21067251 -0.019206788 0.008189678 0.18811221 -0.20573793
0.07405235 0.03193445 0.23019862 -0.17836228 0.051681336 -0.008791417 -0.2618483 0.2353725
0.24108964 -0.14709793 0.24011199 0.25593695 -0.22637966 -0.11859443 0.00035104057 -0.24512026
-0.15767838 -0.0032121262 -0.12544924 0.0667684 -0.06337868 -0.03435753 -0.19961533 -0.30696398
-0.00023637847 0.05221486 -0.21568908 0.24724963 0.2470191 0.20668568 0.15968317 -0.00054642494
-0.17256385 0.2197931 -0.011477032 -0.20924015 -0.15800186 -0.22552621 -0.0025994165 0.20852317
-0.004990838 -0.056735396 0.1898258 -0.010286881 -0.113557585 0.0038164228 0.18745203 -0.06750817
-0.15190245 -0.02403887 -0.03574683 0.0037097805 -0.16935992 -0.13538586 -0.23138413 0.22379906
-0.0062973294 -0.10044366 -0.17883733 0.011957558 0.029514262 -0.19201548 -0.30044013 -0.0024036653
-0.2522809 0.11419229 -0.18054248 -0.04027276 -0.12058484 -0.16964392 -0.20644926 0.0045481846
0.024730714 -0.0016311224 -0.23209058 -0.114114225 -0.036820583 0.003323632 -0.035472896 -0.16412497
-0.0049593924 -0.00011548495 -0.024455367 -0.017815568 -0.124569945 -0.029339196 -0.07389021 -0.08738954
0.08036022 0.08073676 -0.0010837017 -0.09243727 -0.013380545 -0.03485049 0.01803969 -0.10581405
-0.0026122995 -0.018889973 -0.33118495 -0.024700355 -0.24653225 -0.14714186 0.047688693 -0.014086661
0.007874072 -0.027108703 -0.004270108 -0.011556337 -0.036224686 0.0005799872 -0.083692946 0.026297884
-0.10257726 -0.14186564 -0.1621343 -0.061125875 -0.08094866 -0.03761763 0.042157717 -0.024776265
-0.040448602 -0.2780433 0.0003192553 -0.14462471 -0.0011779603 0.0024300057 -0.024353962 -0.083940655
-0.15779446 0.017300963 -0.1077602 -0.13628405 -0.34392825 4.2748103e-05 -0.12570381 -0.16010839
-0.14621937 -0.09704913 -0.121431686 -0.04499159 -0.15470791 -0.1345435 -0.31629342 -0.101260275
-0.12728453 0.050487693 -0.09471613 -0.008534219 -0.012394049 -0.0031767632 -0.075611435 -0.09404595
-0.0036062417 -0.12770331 -0.102071285 -0.16618174 -0.09976361 -0.078995444 -0.051058408 -0.0034252775
-0.123404264 -0.08640773 -0.01485364 -0.16373335 0.06684138 -0.060114052 -0.0030887933 -0.013956288
-0.0012643392 -0.009970902 -0.019473331 -0.0024516378 -0.15283355 -0.023806268 0.006059851 -0.010150282
0.0070971632 -0.022262823 0.008423037 0.012427373 0.074454345 -0.12873556 -0.0048041022 -0.046236925
-0.009332451 -0.1846703 -0.15416911 -0.3389219 -0.36632046 -0.06398645 -0.10486944 0.00067125086
-0.035850596 0.06801444 -0.032194637 0.0025372982 -0.13336587 -0.100025594 -0.056979932 -0.00028449754

bias f4 [3]
00000000: d972 9f3d 1d08 52be ae33 e5bc
0.07785577 -0.20510907 -0.027978744
