saved_trials/a2c-MiniWorld-MazeS3-v0-lr=0.00005-num_steps=160/MiniWorld-MazeS3-v0.pt (torch_old, 812358 bytes, 23 tensors)

weight f4 [32, 12, 5, 5]
0	0xbc481017	-0.012210867
1	0xbd5657cf	-0.052329835
2	0x3b1ef68b	0.0024255838
3	0xbe12ac33	-0.14323501
4	0xbca94009	-0.020660417
5	0x3d42d14f	0.047562893
6	0xbdc52a11	-0.09627164
7	0x3ca5f1bb	0.020256868
8	0x3d63c672	0.055609174
9	0xbe4ad4bb	-0.19807713
10	0x3cc70e01	0.02429867
11	0x3c00b103	0.007854703
12	0xbdb9cfb5	-0.0907282
13	0xbd909cad	-0.070611335
14	0xbd1323a3	-0.035922658
15	0xbca39adc	-0.019971304
16	0xbe3d925c	-0.18512863
17	0xbe4dd801	-0.2010193
18	0xbe2bd370	-0.16779876
19	0xbdb9f9ae	-0.09080826
20	0x3d0231c1	0.03178573
21	0x3dd9d889	0.10637004
22	0xbd02d6ac	-0.03194301
23	0xbc654f65	-0.01399598
24	0xbcc83759	-0.024440454
25	0x3cb42efd	0.021995062
26	0xbc51e892	-0.012811797
27	0xbb7ba0f1	-0.003839549
28	0x3ac03f01	0.0014667214
29	0x3b666f48	0.0035161544
30	0x3d8d3ee4	0.06896761
31	0x3c9ec2e3	0.019380039
32	0xbd880872	-0.06642236
33	0x3cd71ca9	0.026258783
34	0xbbe06b19	-0.0068487045
35	0xbd21f054	-0.039535835
36	0x3b1eb784	0.002421827
37	0xbd641dfb	-0.055692654
38	0xbc42015e	-0.011841146
39	0xbe2181e9	-0.15772213
40	0xbcd4f376	-0.025994997
41	0xbb70cc80	-0.0036742985
42	0x3dccc967	0.09999352
43	0xbd470c0b	-0.04859547
44	0xbd4b1fd4	-0.0495909
45	0xbd562488	-0.052280933
46	0xbe02ec4c	-0.12785453
47	0x3c6d8ad0	0.0144984275
48	0x3da96931	0.08272017
49	0xbd9d965e	-0.07694696
50	0xbb8f5b08	-0.0043748654
51	0x3dd4490b	0.10365494
52	0xbda37509	-0.07981307
53	0xbd91f72c	-0.071272224
54	0xbd286274	-0.041109517
55	0x3d7595c9	0.0599573
56	0x3c34d0a6	0.011036074
57	0x3dba0b62	0.09084202
58	0xbe42939e	-0.19001624
59	0xbca7c603	-0.020480162
60	0xbc98979c	-0.01862698
61	0xbd28afc5	-0.041183252
62	0x3c1c142b	0.009526293
63	0x3cf3bb25	0.029752323
64	0x3e24eabd	0.1610517
65	0x3d89b273	0.067234896
66	0x3d475447	0.048664358
67	0x3d8f96bb	0.070111714
68	0xbd6ff2f0	-0.058581293
69	0x3d9dadf9	0.07699198
70	0x3db7f19b	0.089816295
71	0xbdaf65f1	-0.08564366
72	0xbd88cb17	-0.06679361
73	0x3d89e086	0.067322776
74	0x3ca19051	0.019722136
75	0x39b12538	0.000337878
76	0xbd645ccc	-0.05575256
77	0xbd874ddd	-0.06606648
78	0xbd69fb8d	-0.057124663
79	0xbcb73b44	-0.022367127
80	0xbd6c37be	-0.057670347
81	0xbe03a669	-0.12856449
82	0xbe0de5be	-0.13857171
83	0x3cd23a82	0.025662664
84	0x3c2556eb	0.010091524
85	0x3b91c90e	0.0044490164
86	0xbe34c337	-0.17652594
87	0xbdb3bd72	-0.08776368
88	0x3d93c1de	0.072147116
89	0x3d72d593	0.05928571
90	0xbcb7c087	-0.022430671
91	0xbcf8d535	-0.030375103
92	0xbda6f536	-0.08152239
93	0x3b279a5b	0.002557418
94	0x3df18db3	0.11794605
95	0xbe0b5f68	-0.13610613
96	0xbe3d7041	-0.18499853
97	0xbda5e4f2	-0.081003085
98	0xbe00e109	-0.12585844
99	0xbdac6bb9	-0.08418984
100	0xbbf1af72	-0.007375651
101	0xbca51e26	-0.020155977
102	0xbd84e66b	-0.06489261
103	0xbcdf23b2	-0.0272387
104	0xbd3755b2	-0.04475946
105	0xbc560026	-0.013061559
106	0x3d880a82	0.06642629
107	0xbd7d6519	-0.061863992
108	0x3d8a044e	0.06739102
109	0x3de82726	0.11335592
110	0x3d9aff4b	0.075682245
111	0xbd378c5c	-0.04481159
112	0x3cbead18	0.023275897
113	0xbb9c4e45	-0.0047700726
114	0x3d2b2958	0.041787475
115	0xbc3529e3	-0.01105735
116	0xbd3e5541	-0.046468023
117	0xbb31c26a	-0.0027123936
118	0xbc1f330f	-0.009716763
119	0x3e16e501	0.14735796
120	0xbda953cf	-0.08267938
121	0x3cd561d3	0.026047623
122	0x3d87a0c6	0.06622462
123	0xbdbd29a3	-0.09236457
124	0xbca16e47	-0.019705905
125	0x3d9fdd1e	0.07805847
126	0xbdd42959	-0.10359449
127	0x3d890d87	0.06692033
128	0xbd468b4c	-0.048472688
129	0x3dbc3048	0.091888964
130	0x3dc50704	0.09620479
131	0xbd56811f	-0.052369233
132	0x3d6cf0e1	0.057846908
133	0xbe19ce3c	-0.15020078
134	0xbce59370	-0.028024405
135	0xbbcff7c4	-0.0063466746
136	0x3df8925b	0.1213729
137	0xbd78ec09	-0.060771976
138	0x3e286116	0.16443285
139	0xbd629cfc	-0.055325493
140	0x3bb8d57b	0.005640683
141	0x3e60b62d	0.21944495
142	0x3da06977	0.07832616
143	0x3c158ea2	0.009128245
144	0xbd41db39	-0.047328208
145	0x3d1f7371	0.038928453
146	0x3c4030a3	0.011730346
147	0x3e07fbb2	0.13279608
148	0xbc587b54	-0.0132129975
149	0x3dcce806	0.100051925
150	0x3c19dba6	0.009390747
151	0xbdf2f54a	-0.118631914
152	0xbd499c9e	-0.049221627
153	0xbd126a61	-0.035745982
154	0xbdf84268	-0.12122041
155	0xbb949498	-0.0045343153
156	0xbde3df4a	-0.111265734
157	0x3d2fede1	0.04295147
158	0xbd62fd29	-0.055417214
159	0x3d4b69ca	0.049661435
160	0x3d23e3c4	0.040012136
161	0x3dd0d10f	0.10196125
162	0x3d90fc95	0.07079426
163	0xbd619a7d	-0.055078972
164	0xbae6c807	-0.001760722
165	0x3dbc5a8c	0.09196958
166	0xbd31b93c	-0.043389544
167	0xbcb603c7	-0.022218598
168	0x3da05f74	0.07830706
169	0x3d6aea33	0.057352256
170	0x3d5a438b	0.05328707
171	0x3d45cf8c	0.048293635
172	0x3dd988a4	0.10621765
173	0xbdaaf22b	-0.08346971
174	0x3de13c0e	0.10997783
175	0x3d8e1c0d	0.06938944
176	0x3c003a46	0.0078263935
177	0x3d6d2796	0.05789908
178	0x3dfd85f5	0.12379066
179	0x3dfcaebb	0.12338015
180	0x3b685d39	0.0035455956
181	0x3d5c87da	0.053840496
182	0xbce63fe4	-0.028106637
183	0x3d0a0870	0.033699453
184	0xbd285a31	-0.04110164
185	0xbc227082	-0.009914519
186	0x3da37840	0.0798192
187	0xbdfe422a	-0.124149635
188	0x3e2ca871	0.1686113
189	0x3c203ca0	0.009780079
190	0xbd406d3c	-0.046979174
191	0x3c997221	0.018731179
192	0x3c336313	0.010948914
193	0x3b88ef42	0.0041789124
194	0x3c383b04	0.011244539
195	0x3d739779	0.059470627
196	0x3d7d000b	0.06176762
197	0xbd5f5688	-0.054525882
198	0xbdc2865c	-0.09498283
199	0xbdecc0ef	-0.11560237
200	0x3d82e9e1	0.06392265
201	0x3e770181	0.24121667
202	0xbcb6cfd9	-0.022315906
203	0xbc632398	-0.013863467
204	0xbd4d246d	-0.050083566
205	0xbe142ded	-0.14470644
206	0x3dfc587f	0.12321567
207	0xbdac4ca0	-0.084130526
208	0x3d345c92	0.044033594
209	0xbc1c3a45	-0.009535377
210	0xbe838cf4	-0.25693476
211	0x3dd19665	0.102337636
212	0xbe0c8dab	-0.13725917
213	0xbdccf174	-0.10006991
214	0xbe779763	-0.24178843
215	0x3c486450	0.012230948
216	0x3ca977c9	0.020687
217	0x3dbf6cb4	0.09346905
218	0x3c20e8b5	0.009821107
219	0xbd0cd89a	-0.034386255
220	0xbd6c25da	-0.057653286
221	0xbdc27275	-0.09494487
222	0xbdba4ccf	-0.09096681
223	0x3e117741	0.14205648
224	0x3ac41b80	0.0014961809
225	0x3cd2ae65	0.025717923
226	0x3ccd5806	0.025066387
227	0xbc85c568	-0.016329482
228	0x3d1648bb	0.036690455
229	0x3d2d6147	0.0423291
230	0xbb967312	-0.004591354
231	0xbde7e415	-0.113228
232	0xbb292618	-0.002581006
233	0xbdc4020f	-0.09570705
234	0x3d9f6830	0.07783544
235	0x3dffbcec	0.12487206
236	0x3e0f7b59	0.14011897
237	0xbc1ef2f4	-0.009701479
238	0xbdf78a7c	-0.12086961
239	0xbca65b0b	-0.020307085
240	0xbc33f3ec	-0.0109834485
241	0xbca77fa1	-0.0204466
242	0x3df90618	0.121593654
243	0x3d0c1015	0.034195025
244	0xbc468110	-0.012115732
245	0xbb4a7e0e	-0.0030897888
246	0x3d7f8a60	0.062387824
247	0x3d4d8166	0.050172232
248	0x3df4854d	0.119394876
249	0x3c50bbbc	0.012740072
250	0xbe0cefff	-0.13763426
251	0xbc4d137a	-0.012516851
252	0x3d9d2328	0.07672721
253	0xbd5a8202	-0.05334664
254	0xbd868f81	-0.0657034
255	0xbb3fc251	-0.0029260109

bias f4 [32]
0	0xb64142d3	-2.8798138e-06
1	0xb654cfcb	-3.1711413e-06
2	0x363e5978	2.8364284e-06
3	0xb5fbfde3	-1.8774848e-06
4	0xb59844b0	-1.1344873e-06
5	0xb4e7c5de	-4.317107e-07
6	0x35345bb9	6.71887e-07
7	0x32446bc9	1.1433209e-08
8	0xb6668362	-3.4349146e-06
9	0xb4a0df37	-2.9964733e-07
10	0x3506deab	5.0242915e-07
11	0xb517cbd9	-5.654852e-07
12	0x35853632	9.925045e-07
13	0xb58f726c	-1.0687631e-06
14	0xb5e71422	-1.7216701e-06
15	0xb653859e	-3.1519226e-06
16	0x359b80b7	1.1585861e-06
17	0xb5faffde	-1.8700919e-06
18	0x34c39cef	3.6435765e-07
19	0xb5f7ea46	-1.8471117e-06
20	0xb51b0f27	-5.776405e-07
21	0x35ace9bf	1.2883028e-06
22	0x33c7a676	9.296939e-08
23	0x34167968	1.4014006e-07
24	0xb5797c8c	-9.294097e-07
25	0xb61be042	-2.3227335e-06
26	0x34da1158	4.0618283e-07
27	0xb398dd77	-7.118336e-08
28	0x3515490c	5.561312e-07
29	0x337c2036	5.8702618e-08
30	0xb579dc2a	-9.308011e-07
31	0xb58fba1f	-1.0708499e-06

weight f4 [32]
0	0x3f81f093	1.0151542
1	0x3f7e821c	0.9941728
2	0x3f7d985b	0.990606
3	0x3f8052ad	1.0025231
4	0x3f7ffeef	0.9999837
5	0x3f8149d2	1.0100653
6	0x3f7bab36	0.9830812
7	0x3f7c2d5e	0.98506725
8	0x3f7c75ef	0.9861745
9	0x3f80686d	1.0031868
10	0x3f7d2c69	0.9889589
11	0x3f8094d6	1.0045421
12	0x3f80492b	1.0022329
13	0x3f7e1867	0.99255985
14	0x3f820af7	1.0159596
15	0x3f7dbb2d	0.9911373
16	0x3f805ed8	1.0028944
17	0x3f7d42d5	0.989301
18	0x3f7b7f78	0.98241377
19	0x3f7d4846	0.98938406
20	0x3f7fe09a	0.9995209
21	0x3f7b9d70	0.98287106
22	0x3f7fc188	0.9990468
23	0x3f7dfe58	0.9921622
24	0x3f7b88ba	0.98255503
25	0x3f800e07	1.0004281
26	0x3f8227ca	1.0168393
27	0x3f800de4	1.0004239
28	0x3f824052	1.0175879
29	0x3f7d87f6	0.99035585
30	0x3f80f6f1	1.007536
31	0x3f80b0fa	1.0054009

bias f4 [32]
0	0xbd2b19fc	-0.041772828
1	0xbcd6f410	-0.026239425
2	0xbb94c7c3	-0.004540415
3	0xbad145be	-0.0015966219
4	0x3bfef59b	0.0077807433
5	0x3c3107af	0.010805055
6	0xbac7faaf	-0.0015257205
7	0xbc2b55e4	-0.01045749
8	0xbd17d915	-0.03707226
9	0xba0e2c8a	-0.0005423507
10	0x3c20c4c3	0.009812537
11	0xbb24b65f	-0.0025133116
12	0x3c28808e	0.010284556
13	0xbcea7ae6	-0.028623056
14	0x3c5438da	0.012953008
15	0x3b4e06f6	0.0031437255
16	0x3bf1fc28	0.0073847957
17	0x3b8a2518	0.0042158477
18	0xbb954222	-0.004555003
19	0xbb1d83ea	-0.0024034926
20	0xbc34c5ce	-0.011033488
21	0xbd1a3501	-0.037648205
22	0xba7a1a17	-0.0009540631
23	0x3c160b18	0.009157918
24	0xbcb74d64	-0.02237577
25	0xbd5f2fd7	-0.054488983
26	0xbbb0d210	-0.005396135
27	0xbc3eb91c	-0.011640813
28	0x3b2c6e03	0.002631069
29	0xbcaa2d9a	-0.020773698
30	0x3c303c2a	0.010756532
31	0xba3f05e1	-0.0007286948

running_mean f4 [32]
0	0xbf0b5f0d	-0.5444191
1	0xbfa65ff5	-1.2998034
2	0xbd82428a	-0.063603476
3	0x3e45545b	0.1927046
4	0xbebc37c4	-0.36761296
5	0x3f77502f	0.96606725
6	0x3f7a678f	0.9781427
7	0xbf7eafa3	-0.9948675
8	0xbe3591a7	-0.17731343
9	0xbf438219	-0.7637039
10	0xbfd07ffc	-1.6289058
11	0x3ea2cb97	0.31795952
12	0x3cde9607	0.027171148
13	0xbfae22d9	-1.3604385
14	0xbe628087	-0.22119342
15	0x3f8b602e	1.0888727
16	0x3d9bfbce	0.07616387
17	0x3f09a228	0.53763056
18	0x3f530feb	0.82446164
19	0xbeda407c	-0.42627323
20	0xbf5d7f9e	-0.86522853
21	0x3e250784	0.16116148
22	0xbea36739	-0.3191469
23	0x3fb41e77	1.4071797
24	0x3f09011f	0.53517336
25	0xbe8c6535	-0.27420965
26	0x3ca37faf	0.019958345
27	0xbed6ad6a	-0.4192918
28	0x3f3be830	0.73401165
29	0xbf319142	-0.6936227
30	0x3f88edc0	1.0697556
31	0x3edc9944	0.43085682

running_var f4 [32]
0	0x3d24990b	0.040185016
1	0x3d9aa98a	0.07551868
2	0x3d0acf92	0.03388936
3	0x3dca67f3	0.09883108
4	0x3c759000	0.014987946
5	0x3d7d6e9a	0.061873056
6	0x3d839f6a	0.0642689
7	0x3d56f00f	0.05247503
8	0x3d598485	0.053104896
9	0x3d6afc37	0.057369437
10	0x3df70d9a	0.12063141
11	0x3cb660b7	0.022262914
12	0x3d990990	0.07472527
13	0x3d9d686a	0.07685931
14	0x3d95c13b	0.073122464
15	0x3d8eced2	0.069730416
16	0x3d5a2858	0.05326113
17	0x3d3cb599	0.046071623
18	0x3d9973c9	0.074927874
19	0x3d7097f3	0.05873866
20	0x3dba5c5f	0.0909965
21	0x3cb66563	0.022265142
22	0x3cad6a09	0.021168726
23	0x3dd0b26e	0.10190283
24	0x3d9294be	0.071572766
25	0x3c84d22b	0.016213497
26	0x3c96e2f6	0.01841877
27	0x3ce33795	0.027736465
28	0x3da143db	0.078742705
29	0x3ce076a3	0.02740032
30	0x3d911540	0.07084131
31	0x3d1a81dd	0.037721504

weight f4 [32, 32, 5, 5]
0	0x3c7e7b69	0.015532353
1	0x3d972da5	0.07381753
2	0xbd046c7c	-0.03233002
3	0xbdfdeccb	-0.1239868
4	0xbc754174	-0.0149692185
5	0xbc55c9d9	-0.0130486125
6	0x3ca92ade	0.020650323
7	0xbc45c792	-0.012071507
8	0xbd03fc70	-0.032223165
9	0x3d8d012e	0.06884991
10	0xbca59b4e	-0.020215657
11	0x3d22c825	0.039741654
12	0xbbbc7140	-0.005750805
13	0x3d4aaf41	0.04948354
14	0xbb21dfa2	-0.0024699946
15	0x3c3cfeef	0.01153539
16	0x3b38bcdf	0.0028188748
17	0x3d790cdd	0.060803283
18	0x3b25d790	0.0025305487
19	0xbd5c369a	-0.05376301
20	0xbbdb2f59	-0.006688994
21	0x3d2814a4	0.04103531
22	0xbcfb5d3a	-0.030684102
23	0x3d045616	0.03230866
24	0xbce87a01	-0.028378488
25	0xbd638b2a	-0.05555264
26	0x3c992998	0.018696591
27	0xbd28add3	-0.041181397
28	0x3bd6bcbe	0.0065532615
29	0x3b6ac679	0.0035823865
30	0xbc956d66	-0.018240642
31	0x3c50eb70	0.012751445
32	0xbcd2295e	-0.025654491
33	0x3d3952ee	0.045245104
34	0xbca84957	-0.020542784
35	0xbda8d843	-0.08244374
36	0xbdb77f33	-0.08959808
37	0xbbd6bf60	-0.0065535754
38	0x3c869220	0.0164271
39	0xbde5abe1	-0.11214424
40	0xbc81bc62	-0.015836898
41	0x3cbefaab	0.023312887
42	0x3c9638ec	0.01833769
43	0x3cb1d881	0.021709682
44	0xbd11e2ea	-0.035616793
45	0xbc671b07	-0.014105565
46	0x3b798362	0.0038072695
47	0xbd564751	-0.052314106
48	0x3a57bd9e	0.0008229854
49	0x3cdb16a7	0.0267442
50	0xbd40f0f6	-0.0471048
51	0xbce02236	-0.027360063
52	0x3ae86149	0.0017729189
53	0x3d11388a	0.03545431
54	0xbda3f243	-0.08005192
55	0xbd89f0b4	-0.067353636
56	0x3d4a51cb	0.04939441
57	0x3dba55bf	0.09098386
58	0x3c15783d	0.009122905
59	0xbcb3ede1	-0.021964015
60	0xbd8b1a5c	-0.06792137
61	0xbce74e0e	-0.028235462
62	0xbd461a35	-0.048364837
63	0x3d8ffc63	0.07030561
64	0xbdd2156a	-0.10257991
65	0x3c5cdeed	0.013480884
66	0xbd36a640	-0.044592142
67	0xbd6d4fb1	-0.057937328
68	0xbd23fcc1	-0.040035967
69	0x3ca53973	0.020168995
70	0xbd085357	-0.033282604
71	0x3d9aa4a5	0.07550935
72	0xbd501810	-0.050804198
73	0xbd6ead0d	-0.058270503
74	0xbd19a90e	-0.03751474
75	0xbd9db864	-0.07701185
76	0xbb8f84bc	-0.004379837
77	0x3dd28a95	0.10280339
78	0x3d99280b	0.07478341
79	0xbc53bdcc	-0.012923669
80	0x3d6834bb	0.056690913
81	0xbd82b8fe	-0.06382941
82	0xbcda2fbf	-0.026634095
83	0x3c6e9ca2	0.014563711
84	0xbd9d775e	-0.07688783
85	0xbd09f5ad	-0.03368156
86	0xbc4c2b3f	-0.012461483
87	0xbcfc7dce	-0.030821707
88	0xbccc3a0e	-0.024930026
89	0xbd3d77d1	-0.046256844
90	0xbc4b8ebd	-0.012424168
91	0x3dce9e4a	0.10088785
92	0x3da7d466	0.08194809
93	0x3ca05bc0	0.019575
94	0xbd1777d6	-0.03697952
95	0x3c3d6d86	0.011561757
96	0x3dc5f4f0	0.09665859
97	0xbcd06562	-0.025438968
98	0xba593526	-0.0008285813
99	0x3e012717	0.12612568
100	0xbab552fa	-0.0013833933
101	0x3cfe88e4	0.031071134
102	0x3c8d1a3d	0.017224425
103	0x3d1a7687	0.037710693
104	0x3da33389	0.07968814
105	0x3d2a50de	0.041581027
106	0x3c684fa4	0.014179144
107	0x3c55b1c7	0.013042874
108	0x3cdb1d99	0.026747512
109	0xbc21caea	-0.009875039
110	0xbd950775	-0.07276813
111	0xbc2df077	-0.010616413
112	0x3da1ec0c	0.079063505
113	0xbd971f11	-0.07378972
114	0x3c67006c	0.014099222
115	0xbcb830cd	-0.022484208
116	0x3bd6bab2	0.0065530175
117	0x3d3a6677	0.045507874
118	0xbd35054b	-0.0441945
119	0x3d9f3046	0.07772879
120	0x3d2f5b21	0.042811517
121	0xbca9ebbc	-0.02074229
122	0xbd88ef08	-0.066862166
123	0xbd413bfa	-0.04717634
124	0xbcc97d15	-0.024595777
125	0x3ccd80ed	0.02508589
126	0x3cd0962c	0.025462233
127	0x3c98775a	0.018611599
128	0xbcf92f74	-0.030418135
129	0xbba0c4d1	-0.004906275
130	0xbc0892e8	-0.008335806
131	0xbc06f992	-0.008238213
132	0xbd37e336	-0.04489442
133	0x3d84a556	0.06476848
134	0xbd0f97fa	-0.035057046
135	0x3d1610be	0.03663706
136	0x3c337678	0.010953538
137	0xbd15357d	-0.036427964
138	0x3ded88a3	0.11598327
139	0xbcd49f82	-0.025954966
140	0xbd6c9f37	-0.057769027
141	0xbd943097	-0.0723583
142	0xbc935582	-0.01798511
143	0x3d6e5bf0	0.058193147
144	0xbd18fc78	-0.037350148
145	0x3cfdffb4	0.031005718
146	0xbb816191	-0.0039483984
147	0xbd308b3e	-0.04310154
148	0x3ca3cf6f	0.019996373
149	0xbda63b89	-0.08116824
150	0x3d003fb9	0.03131077
151	0xbd060efd	-0.032729138
152	0x3ceee1ef	0.029160468
153	0x3d00257f	0.03128576
154	0xbd689773	-0.05678506
155	0xbd2c3c5b	-0.042049747
156	0x3b8f3b45	0.004371079
157	0x3c2ead67	0.0106614595
158	0xbc0b188c	-0.008489739
159	0xbd8bf58f	-0.06833946
160	0xbc92d0a1	-0.017921748
161	0xbd156511	-0.036473338
162	0xbceaf4d3	-0.028681194
163	0xbd888e61	-0.066677816
164	0x3c925f69	0.01786776
165	0x3d9e4c9b	0.07729455
166	0xbd484694	-0.048895434
167	0x3d7faa3d	0.06241821
168	0xbd9beff0	-0.07614124
169	0x3c89001a	0.016723681
170	0x3d9a7bb3	0.07543125
171	0x3c2a74de	0.01040384
172	0xbbd0da5b	-0.0063736863
173	0xbced98c2	-0.029003505
174	0xbd8a4ee0	-0.067533255
175	0xbca419d2	-0.020031843
176	0xbc66396e	-0.014051778
177	0x3b8b5636	0.0042522205
178	0xbc7dffa4	-0.015502844
179	0x3d6efc24	0.05834593
180	0x3d175762	0.03694857
181	0x3da77900	0.08177376
182	0xbd188562	-0.03723658
183	0xbd97325c	-0.07382652
184	0x3c746b66	0.014918184
185	0x3bb4e429	0.005520363
186	0x3cdb5487	0.026773704
187	0x3d115340	0.035479784
188	0x3d4a6429	0.049411926
189	0x3d1989fc	0.037485108
190	0xbd911494	-0.07084003
191	0xbc597d50	-0.013274506
192	0xbb83dea2	-0.0040243426
193	0x3c4a37e0	0.012342423
194	0x3db7bd1d	0.08971617
195	0xbcab0b94	-0.020879544
196	0x3cc45151	0.023964556
197	0xbcc319db	-0.02381604
198	0xbd2a30fe	-0.04155063
199	0xbc77861f	-0.015107661
200	0x3c5de9fb	0.013544555
201	0xbc6d9bd3	-0.014502483
202	0x3ca0370c	0.019557498
203	0x3de3a975	0.11116306
204	0xbc3ff57a	-0.011716241
205	0x3da4c74d	0.08045826
206	0x3c0d2c7c	0.008616563
207	0xbd1b92a1	-0.037981633
208	0xbb230f41	-0.0024880918
209	0x3e16c888	0.14724934
210	0x3c2169fd	0.00985193
211	0x3c975a5e	0.018475708
212	0x3d95c052	0.07312073
213	0x3da81de5	0.08208827
214	0xbd019615	-0.03163727
215	0x3cadbf76	0.02120946
216	0x3cd40e44	0.025885709
217	0xbc62c317	-0.013840458
218	0xbbec30ae	-0.0072079515
219	0xbc121cd1	-0.008918003
220	0xbc08d0c8	-0.008350559
221	0x3c902289	0.017594593
222	0x3e119963	0.14218669
223	0x3b0326a7	0.0020012052
224	0xbd299e94	-0.041410998
225	0x3d72be12	0.059263296
226	0xbd0a92c7	-0.033831384
227	0xbdef246b	-0.11676868
228	0x3dad598a	0.08464344
229	0x3c2bcc2d	0.010485691
230	0xbcf41c81	-0.029798748
231	0xbd380de8	-0.044935137
232	0x3dacb955	0.08433787
233	0x3d827e98	0.06371802
234	0xbbb74665	-0.0055931085
235	0xbdc4142f	-0.09574162
236	0xbcffda4e	-0.031232025
237	0x3d5d2aa1	0.053995732
238	0xbda42b2b	-0.08016046
239	0xbe16ecf1	-0.14738823
240	0xbd1b4089	-0.037903342
241	0x3d40a24e	0.047029786
242	0xbd230cb2	-0.03980703
243	0xbbc29a45	-0.0059388005
244	0xbdedee48	-0.11617714
245	0x3e2a37d2	0.16622856
246	0xbcd19b24	-0.025586672
247	0xbc063a58	-0.008192621
248	0xbd7e7f24	-0.06213297
249	0x3d3a643f	0.04550576
250	0xbc8b12fd	-0.016976828
251	0x3ce09a55	0.027417341
252	0x3cd71844	0.026256688
253	0x3b765d00	0.0037592053
254	0x3d029de3	0.031888854
255	0x3d8e4c4d	0.06948147

bias f4 [32]
0	0x30835b25	9.557409e-10
1	0x341a146e	1.43498e-07
2	0x3460bed3	2.0931047e-07
3	0x346536c6	2.1347213e-07
4	0xb38df235	-6.609881e-08
5	0x337394d8	5.671322e-08
6	0xb3e05a34	-1.0447221e-07
7	0xb3644cc4	-5.3155205e-08
8	0x33f1e9b3	1.1264947e-07
9	0xb3a0f9ca	-7.496017e-08
10	0xb31cd56d	-3.651569e-08
11	0xb42b63ef	-1.5961972e-07
12	0x339aa25e	7.200718e-08
13	0x3357c5cd	5.0238487e-08
14	0xb414e903	-1.3868343e-07
15	0x33b4dd7a	8.4221895e-08
16	0x330fd4d8	3.3488362e-08
17	0xb1fa668e	-7.2876167e-09
18	0xb26b9623	-1.37129375e-08
19	0xb354eb23	-4.9573952e-08
20	0xb405460d	-1.2412075e-07
21	0x33b62b80	8.482948e-08
22	0xb3980b84	-7.080146e-08
23	0x33535109	4.9200967e-08
24	0x34447972	1.8298104e-07
25	0x334e1495	4.7981832e-08
26	0x3364a555	5.3235755e-08
27	0xb35a7a8f	-5.0868547e-08
28	0x330a79da	3.2241452e-08
29	0x338fa9cc	6.689842e-08
30	0x33215bf1	3.7569354e-08
31	0xb34bcbde	-4.7450037e-08

weight f4 [32]
0	0x3f8022c1	1.0010606
1	0x3f7baeab	0.983134
2	0x3f8189b3	1.0120147
3	0x3f822ab6	1.0169284
4	0x3f7d48e8	0.9893937
5	0x3f81718c	1.0112777
6	0x3f7e4acd	0.99332887
7	0x3f7c902a	0.98657477
8	0x3f7eb92a	0.9950129
9	0x3f7d1e53	0.98874396
10	0x3f81ab74	1.0130448
11	0x3f7aad63	0.9792082
12	0x3f7ebeaf	0.9950971
13	0x3f80af73	1.0053543
14	0x3f812555	1.0089518
15	0x3f8049da	1.0022538
16	0x3f814d24	1.0101666
17	0x3f806649	1.0031215
18	0x3f81ba42	1.0134966
19	0x3f7f2e78	0.9968028
20	0x3f7dc93f	0.991352
21	0x3f7dfdd9	0.99215466
22	0x3f7c2b48	0.9850354
23	0x3f8156b8	1.010459
24	0x3f78677c	0.97032905
25	0x3f7b5523	0.98176783
26	0x3f804c3b	1.0023264
27	0x3f7e0a45	0.9923442
28	0x3f7ed0eb	0.99537534
29	0x3f800bea	1.0003636
30	0x3f7e5381	0.99346167
31	0x3f7e6f56	0.99388635

bias f4 [32]
0	0x3ba59957	0.00505368
1	0xbc07bf4e	-0.008285357
2	0xbd004d0b	-0.031323474
3	0xbc5c9597	-0.013463399
4	0x3b967b51	0.004592337
5	0xbb8e957b	-0.0043513156
6	0xb9a13580	-0.00030748174
7	0x3ad523d5	0.0016261289
8	0xbb88aa11	-0.004170664
9	0xbc4ad9fa	-0.012381071
10	0xbcc1dcae	-0.023664799
11	0xbc4831b7	-0.012218884
12	0x3ac2a89c	0.0014851275
13	0xbbd24367	-0.0064167264
14	0x3c02bdfa	0.007979864
15	0xbb235fc7	-0.0024928914
16	0xbb531db9	-0.003221376
17	0xbc1a776b	-0.0094278855
18	0xbcd312f9	-0.025765883
19	0x3b353141	0.0027647766
20	0xbaf16be8	-0.0018418999
21	0xbb126a70	-0.0022341274
22	0xbc23aab2	-0.009989427
23	0xbab52abd	-0.0013821941
24	0xbc29e41a	-0.010369325
25	0xbc1b4fcf	-0.009479477
26	0xbc14e9f3	-0.009088981
27	0xbaee2e2b	-0.0018171718
28	0xbb700fb1	-0.0036630447
29	0xbceea30d	-0.029130483
30	0xbb36ad64	-0.0027874345
31	0xbc9c4dc9	-0.01908006

running_mean f4 [32]
0	0xbf11e9b3	-0.5699722
1	0xbf9cf302	-1.226166
2	0x3f876173	1.0576614
3	0x3f8d81f0	1.1055279
4	0xbdbfba36	-0.09361689
5	0x3f3592b3	0.7092697
6	0xbe56dc35	-0.2098244
7	0xbe012f94	-0.12615806
8	0xbf2b02ec	-0.66801333
9	0xbeef85d8	-0.46781802
10	0x3f4bce18	0.7961135
11	0xbf46996f	-0.7757787
12	0xbfc96052	-1.573252
13	0x3fcc6afa	1.5970147
14	0xbf48e779	-0.784782
15	0x3f83c4b0	1.0294399
16	0x3f600194	0.8750241
17	0x3eae2a76	0.3401677
18	0x3fa2e0bb	1.2724832
19	0xbd797b06	-0.06090834
20	0xbf280555	-0.65633136
21	0xbf00994b	-0.50233907
22	0x3ef7a869	0.48370674
23	0x3f454ecb	0.77073354
24	0xbf4f831d	-0.8105944
25	0xbcda7f68	-0.02667208
26	0x3f5513b2	0.8323318
27	0x3e879ac5	0.26485267
28	0x3fa1dfb2	1.2646391
29	0x3da3c78b	0.07997044
30	0x3c1c0137	0.009521774
31	0x3fcbf6ad	1.5934654

running_var f4 [32]
0	0x409be964	4.87224
1	0x4013cbe8	2.3093204
2	0x3f22f5f4	0.63656545
3	0x3f7bac7d	0.9831007
4	0x405c6329	3.4435523
5	0x409ac361	4.83635
6	0x40027298	2.0382442
7	0x403d2bd8	2.955801
8	0x3f6ea91d	0.93226796
9	0x4046202f	3.0957143
10	0x3fa463ba	1.2842934
11	0x3fe36e49	1.7768031
12	0x3fe05408	1.7525644
13	0x40222e6d	2.5340836
14	0x40038802	2.0551763
15	0x3fc2dfcb	1.5224546
16	0x3f530b21	0.82438856
17	0x4055cebd	3.3407433
18	0x40865871	4.198296
19	0x3f75b633	0.9598114
20	0x400d6323	2.2091758
21	0x3fed5798	1.8542356
22	0x4032244e	2.7834659
23	0x3f562dec	0.8366382
24	0x3f76b7b8	0.9637408
25	0x40112654	2.2679644
26	0x3f36d5fb	0.7142026
27	0x405517f2	3.3295865
28	0x3fd6e6b1	1.6789151
29	0x40253cb9	2.5818312
30	0x40232135	2.5489018
31	0x402ca61a	2.697638

weight f4 [32, 32, 4, 4]
0	0x3e004703	0.12527089
1	0xbd281b0c	-0.04104142
2	0xbcd7e86f	-0.02635595
3	0x3debdb50	0.1151644
4	0x3db1c047	0.08679252
5	0x3d7d985f	0.06191289
6	0xbbe3401a	-0.0069351317
7	0xbde8d13a	-0.11368032
8	0x3c73c140	0.014877617
9	0x3c69ca91	0.014269487
10	0x3d805843	0.062668346
11	0xbdb3d83a	-0.08781476
12	0x3b9a8618	0.0047156923
13	0xbd6d7e2e	-0.057981662
14	0xbcad1340	-0.021127343
15	0xbd70373a	-0.05864642
16	0xbdaccae6	-0.08437137
17	0x3a66aa94	0.0008799222
18	0x3c91a7b1	0.017780157
19	0xbd5b3fd5	-0.05352767
20	0xbd0b8fa8	-0.03407255
21	0x3d4f7bc5	0.050655145
22	0x3d5cfdce	0.053952985
23	0xbd0134da	-0.031544544
24	0xbceda18f	-0.029007701
25	0x3bcabb2e	0.0061868643
26	0xbd899a98	-0.067189395
27	0x3b20247d	0.0024435811
28	0x3c5bc01a	0.0134125
29	0xbd2b8b47	-0.041880872
30	0x3ce63869	0.02810307
31	0x3dac7ced	0.08422265
32	0xbc932c88	-0.01796557
33	0x3dd06e2d	0.10177264
34	0x3d416153	0.047211956
35	0xbaafc08e	-0.0013408826
36	0xbdac8909	-0.08424575
37	0xbcdd162e	-0.026988115
38	0xbd1b0cb9	-0.03785393
39	0x3d9a216d	0.07525907
40	0x3d4616ab	0.04836146
41	0x3cc007b2	0.02344117
42	0xbd89a4a1	-0.067208536
43	0x3b3fbeb0	0.0029257946
44	0xbe043535	-0.12910922
45	0xbdeab9aa	-0.11461194
46	0x3d20bb9d	0.039241422
47	0x3d4f1123	0.050553452
48	0x3d946a38	0.07246822
49	0xbda13677	-0.078717165
50	0x3e13d17a	0.14435378
51	0x3dbfdb82	0.0936804
52	0xbcd2cc0e	-0.025732066
53	0xbc2f2727	-0.010690487
54	0x3e105820	0.14096117
55	0xbd8bbe6c	-0.068234295
56	0x3e11022e	0.14160988
57	0x3e1dcb13	0.15409498
58	0xba05af36	-0.0005099656
59	0x3ddda8a6	0.10823183
60	0x3cdd66ee	0.02702662
61	0xbd38ad29	-0.045087013
62	0x3d00671b	0.03134833
63	0x3d7e43aa	0.06207625
64	0xbc7b01b5	-0.015320231
65	0x3c903ee0	0.017608106
66	0x3d326418	0.043552488
67	0xbd726864	-0.059181586
68	0x3d7bbb85	0.06145813
69	0xbca28049	-0.019836562
70	0x3bc4a2c2	0.0060008476
71	0xbc47b8a2	-0.012190016
72	0x3d4050c7	0.046952035
73	0x3db203b9	0.08692116
74	0xbb95336f	-0.0045532505
75	0x3cdf5594	0.027262487
76	0xbb7848a9	-0.0037885106
77	0x3bf5b906	0.007498863
78	0x3d783c49	0.060604367
79	0xbdd828b7	-0.10554641
80	0x3cbb0753	0.02283064
81	0x3cd39fa3	0.025832957
82	0xbd9c3d86	-0.07628922
83	0x3d42ddae	0.04757469
84	0xbce4b599	-0.027918624
85	0xbd1cb5a8	-0.03825918
86	0xbe2988e6	-0.16556129
87	0xbcbfeb35	-0.023427585
88	0xbe176f5a	-0.14788571
89	0x3cdba82c	0.026813589
90	0xbdc7cb31	-0.097555526
91	0x3df1b222	0.11801554
92	0xbbebf7d5	-0.0072011747
93	0xbb4e7acd	-0.00315063
94	0x3d2d1674	0.04225774
95	0x3c1a6629	0.009423771
96	0x3d5829cb	0.052774232
97	0x3d68bf68	0.056823164
98	0x3d425be4	0.047450915
99	0x3d841355	0.06449
100	0x3c597c47	0.013274259
101	0xbcf5d6d3	-0.030009663
102	0xbd4ff2f6	-0.050768815
103	0xba9c9d9c	-0.0011948827
104	0xbd4cc35f	-0.049991008
105	0x3cedc2dc	0.02902358
106	0x3d91830c	0.07105073
107	0x3e1eedca	0.15520397
108	0x3d175e49	0.03695515
109	0x3c833c0a	0.01601984
110	0xbd66867f	-0.05628061
111	0xbda7b764	-0.08189276
112	0x3dce43e6	0.10071544
113	0xbe1174d9	-0.1420473
114	0x3dac2b1f	0.08406662
115	0x3ddd29d7	0.10798996
116	0x3d41ed49	0.047345433
117	0x3d204bf1	0.039134923
118	0x3cdee75f	0.027209936
119	0x3c6b14bb	0.014348204
120	0x3ddde725	0.10835103
121	0xbd65357b	-0.055959206
122	0x3d93f106	0.07223706
123	0xbca3b1d1	-0.01998225
124	0x3d20b47a	0.039234616
125	0x3b3ea56a	0.0029090294
126	0xbdc6ebf4	-0.09712973
127	0xbca5743a	-0.020197023
128	0xbe178ac3	-0.14799027
129	0xbe053a88	-0.13010609
130	0x3d88e4ae	0.06684242
131	0xbd6256f4	-0.055258706
132	0x3c323899	0.010877752
133	0xbdab5f16	-0.083677456
134	0xbbd4d4b0	-0.006495081
135	0x3b81c616	0.0039603813
136	0xbcfcb4cd	-0.030847931
137	0xbd599849	-0.053123746
138	0xbd7b0a62	-0.0612892
139	0x3ac8367b	0.0015275026
140	0xbd291f34	-0.041289523
141	0xbd48f6c0	-0.049063444
142	0x3d43ce74	0.04780431
143	0x3db003d4	0.0859448
144	0xbcd1394e	-0.02554002
145	0xbc4c1947	-0.012457198
146	0xbcc02c69	-0.023458676
147	0x3d760341	0.060061697
148	0x3d2759f7	0.04085728
149	0xbba9dbd2	-0.0051836753
150	0x3da03f5d	0.078245856
151	0xbcffe7b6	-0.031238418
152	0xbcec1132	-0.028816793
153	0xbc5992b1	-0.013279603
154	0x3d1f2feb	0.038864058
155	0x3dedf513	0.1161901
156	0xbc361270	-0.011112794
157	0xbb31f22f	-0.002715241
158	0x3e0df938	0.138646
159	0x3dc38048	0.09545952
160	0xbc8825fa	-0.016619671
161	0xbc293ac5	-0.010328953
162	0x3ceaf016	0.028678935
163	0x3d4d315f	0.050095912
164	0xbc9f9f30	-0.019485086
165	0x3d839a6e	0.064259395
166	0xbc2f8962	-0.010713907
167	0xbd8a65b2	-0.06757678
168	0x3c264c08	0.010149963
169	0x3d8987e8	0.06715375
170	0x3e0a6392	0.13514546
171	0x3d8aa8ae	0.06770454
172	0xbd716d75	-0.058942277
173	0x3baf6569	0.005352665
174	0x3df42e64	0.11922911
175	0x3dc81364	0.097693235
176	0xbca5ed5f	-0.020254789
177	0xbdc383a0	-0.0954659
178	0xbde4ac5e	-0.11165689
179	0x3d083461	0.033253077
180	0x3df78f43	0.12087872
181	0xbcfedbbb	-0.031110635
182	0xbd223e76	-0.03961035
183	0x3d3623ad	0.044467617
184	0x3d1f12a4	0.038836136
185	0x3d4bd737	0.04976579
186	0xbd4ee8a7	-0.050514843
187	0x3b9bcdde	0.004754766
188	0x3bd0a058	0.0063667707
189	0xba9d8397	-0.0012017366
190	0xbcdebe1b	-0.027190259
191	0xbd0aec3d	-0.0339167
192	0x3d80427a	0.062626794
193	0xbd582ae2	-0.05277527
194	0xbc5d7642	-0.013516964
195	0xbcb80073	-0.022461152
196	0x3d001afb	0.03127573
197	0x3d9fac73	0.07796564
198	0xbd39a8ba	-0.045326926
199	0xbd33c5f2	-0.043889947
200	0xbd029881	-0.03188372
201	0x3dfc9b44	0.12334302
202	0xbc1da6f0	-0.0096223205
203	0xbd085dd9	-0.033292625
204	0xbe0def66	-0.13860855
205	0x3c0a7412	0.008450525
206	0xbc560130	-0.013061807
207	0xbcf566ab	-0.029956182
208	0x3e135cb6	0.14390835
209	0x3d23681c	0.03989421
210	0xbd5ccda4	-0.05390705
211	0xbceb0935	-0.028690914
212	0xbdaf0328	-0.08545524
213	0x3c70b0af	0.014690562
214	0xbc3d1559	-0.011540734
215	0xbd53b3b0	-0.051685035
216	0xbce52875	-0.027973393
217	0xbdcc9e7e	-0.099911675
218	0xbd5e50f3	-0.054276418
219	0xbd3f1350	-0.046649277
220	0xbd70c0c6	-0.058777593
221	0x3dae7eca	0.08520277
222	0xbd8613d5	-0.065467514
223	0xbcac81b1	-0.021057935
224	0x3c3ef212	0.011654394
225	0x3dcee9a8	0.1010316
226	0xbda3ae61	-0.079922445
227	0x3c4ad182	0.012379052
228	0x3d2acde8	0.041700274
229	0x3babc978	0.005242523
230	0xbd86cb21	-0.065817125
231	0x3c729f01	0.014808417
232	0xbcbb17aa	-0.022838432
233	0xbdb172e1	-0.086644895
234	0xbd85191e	-0.06498931
235	0x3c2770b3	0.010219741
236	0xbb225711	-0.0024771134
237	0x3d7fb3ab	0.062427204
238	0x3d155342	0.036456354
239	0xbacdc040	-0.0015697554
240	0xbbada098	-0.0052986853
241	0xbd102ed4	-0.03520091
242	0x3d503e31	0.05084056
243	0x3d35d000	0.044387817
244	0xbe14d7b6	-0.14535412
245	0x3a432b11	0.0007445077
246	0xbd128362	-0.035769828
247	0x3d744821	0.0596391
248	0x3d810f4d	0.063017465
249	0xbcc81418	-0.024423644
250	0x3c6b182a	0.014349023
251	0x3e11c67b	0.1423587
252	0x3d6d7331	0.057971183
253	0xbd967247	-0.073460154
254	0x3cfd23aa	0.030900795
255	0x3cb6d8a5	0.022320101

bias f4 [32]
0	0x32dbb90e	2.5579109e-08
1	0xb25bc797	-1.2792859e-08
2	0x316982bd	3.3980279e-09
3	0x319379ae	4.2920965e-09
4	0x32c90074	2.3399686e-08
5	0xb33a59b6	-4.338809e-08
6	0xb206adfd	-7.839387e-09
7	0xb3153d73	-3.4747654e-08
8	0xb2973ba6	-1.7605839e-08
9	0x33b67728	8.49671e-08
10	0xb38a22b4	-6.432438e-08
11	0x31ef8e2c	6.9719786e-09
12	0xb3815dad	-6.02407e-08
13	0x33b3351a	8.344996e-08
14	0xb3687d17	-5.4130478e-08
15	0x32ca5434	2.3554186e-08
16	0x31fcc72a	7.3568076e-09
17	0x32905c8b	1.680589e-08
18	0x330c617d	3.2684955e-08
19	0x32b5ed60	2.1179119e-08
20	0xb325576c	-3.8496566e-08
21	0xb21150ac	-8.4584535e-09
22	0xb26b4825	-1.3695204e-08
23	0x32cbc1c0	2.3720418e-08
24	0xb38f02ee	-6.659489e-08
25	0xb3579223	-5.01915e-08
26	0x3320d854	3.7449652e-08
27	0xb30a29dd	-3.2168703e-08
28	0x32c49114	2.2883377e-08
29	0xb1a5d981	-4.8268594e-09
30	0xb2eb850f	-2.7418109e-08
31	0x33d964db	1.01231954e-07

weight f4 [32]
0	0x3f783451	0.9695483
1	0x3f7c7652	0.9861804
2	0x3f7b0d3c	0.9806707
3	0x3f76b2d4	0.9636662
4	0x3f7b44ea	0.9815203
5	0x3f7959a7	0.97402424
6	0x3f7cf357	0.9880881
7	0x3f78f645	0.9725078
8	0x3f7c9731	0.986682
9	0x3f7d86b4	0.99033666
10	0x3f7ac2da	0.9795357
11	0x3f7e367e	0.993019
12	0x3f7f646c	0.99762607
13	0x3f78d5ff	0.9720153
14	0x3f76fe23	0.9648153
15	0x3f7d20ca	0.9887816
16	0x3f7a2680	0.97714996
17	0x3f7c92c5	0.9866145
18	0x3f785db4	0.9701798
19	0x3f79c3e7	0.9756455
20	0x3f75341d	0.95782644
21	0x3f78c388	0.97173357
22	0x3f7b4408	0.9815068
23	0x3f78d07b	0.97193116
24	0x3f7b57ac	0.9818065
25	0x3f7cf8da	0.9881722
26	0x3f814109	1.0097972
27	0x3f7c8a34	0.9864838
28	0x3f79d4c0	0.97590256
29	0x3f7cdd82	0.98775494
30	0x3f7daef6	0.99095094
31	0x3f805dbf	1.0028609

bias f4 [32]
0	0xbc6cacfd	-0.0144455405
1	0xbb1a204e	-0.002351779
2	0xbc2faa17	-0.010721705
3	0xbc8626d4	-0.016375937
4	0xbc0d1fc9	-0.008613535
5	0xbca4ab31	-0.020101162
6	0x3b5ff593	0.0034173473
7	0xbc3c8119	-0.011505389
8	0x3bbaf408	0.0057053603
9	0xbb1d6f1d	-0.0024022528
10	0xbc2c0ede	-0.0105015915
11	0xbbfb2ba8	-0.0076651163
12	0x3c02b054	0.00797661
13	0xbc335ef4	-0.010947932
14	0xbd19e346	-0.03757026
15	0xbb6986c3	-0.0035633303
16	0xbc4ea7cc	-0.012613248
17	0xbbb38895	-0.0054789283
18	0xbba491e3	-0.005022274
19	0xbc1e92e8	-0.00967858
20	0xbc493cb3	-0.012282538
21	0xbccd2e64	-0.025046535
22	0xbc723be5	-0.014784788
23	0xbc374250	-0.011185244
24	0xbc0cb3ec	-0.008587819
25	0x3bf7bb54	0.007560173
26	0x3b2c2df9	0.002627252
27	0x3beced70	0.007230453
28	0xbb5a39f8	-0.0033298712
29	0xbbadf71e	-0.0053089997
30	0xbb3bc060	-0.00286486
31	0x3bbf1fe3	0.0058326586

running_mean f4 [32]
0	0x3f343bae	0.70403564
1	0xbfb3ffe3	-1.4062465
2	0xbf5fba82	-0.87393963
3	0x3e61522c	0.22004002
4	0x3f6fbc28	0.9364648
5	0x3e6bc3d8	0.23023927
6	0xbfa0afaa	-1.2553608
7	0x3f32eecb	0.6989562
8	0xbf5ce11a	-0.8628098
9	0xbf87d521	-1.0611917
10	0xbe855ac3	-0.26045808
11	0xbf803dfa	-1.0018914
12	0xbfb3e53e	-1.4054334
13	0x3e82edd5	0.25572076
14	0xbf2bbd2d	-0.67085534
15	0xbea5004c	-0.3222679
16	0x3f313359	0.69218975
17	0xbfc75ed6	-1.5575817
18	0x3f358b7f	0.7091598
19	0x3f234c09	0.63787895
20	0x3f7ec303	0.99516314
21	0xbfb4ba3b	-1.4119333
22	0x3ef9975a	0.48748285
23	0xbfab4481	-1.3380281
24	0xbe2f71bb	-0.17133228
25	0x3ee43b2f	0.44576403
26	0x3e8a753d	0.2704257
27	0xbfdd8586	-1.7306373
28	0xbe084634	-0.1330803
29	0x3ef1fa78	0.47261405
30	0xbe4de6b3	-0.20107536
31	0x3ef21855	0.4728419

running_var f4 [32]
0	0x40038574	2.0550203
1	0x40963e9a	4.695142
2	0x3f6b5ad3	0.9193546
3	0x3fc853c0	1.5650558
4	0x400e5f5a	2.2245698
5	0x3f0fe46e	0.5620793
6	0x40320e06	2.782106
7	0x3fb59849	1.4187099
8	0x405548da	3.3325715
9	0x401c97d4	2.4467669
10	0x3f31d4b2	0.6946517
11	0x3fa72aa1	1.3059884
12	0x401f3e1f	2.4881666
13	0x3f7a27b0	0.9771681
14	0x3f141c9e	0.57856166
15	0x3f896f11	1.073702
16	0x4022eea1	2.5458148
17	0x3f8913e9	1.0709201
18	0x400e41b0	2.2227592
19	0x3fa31644	1.274117
20	0x3fd9846e	1.6993539
21	0x40385401	2.8801272
22	0x3f843794	1.0329461
23	0x3ff3c61b	1.9044832
24	0x3f7a7e7f	0.9784927
25	0x40b99f48	5.8006935
26	0x40049583	2.0716255
27	0x40b94d6c	5.790701
28	0x3f9077b7	1.1286534
29	0x401ee07a	2.482451
30	0x3f67a053	0.9047901
31	0x3fb30aed	1.3987709

weight f4 [128, 1120]
0	0xbb7ccb11	-0.0038573185
1	0xbcdd4e71	-0.027014943
2	0x3d8a245a	0.06745215
3	0x3d8c1c35	0.068413176
4	0xbcfe1bc7	-0.031019105
5	0xbdebeb7b	-0.11519524
6	0x3c5f809a	0.013641501
7	0xbd6105d5	-0.054937202
8	0xbcef39ce	-0.029202368
9	0x3c964f8f	0.018348483
10	0xbcccfe70	-0.025023669
11	0xbc11f91a	-0.008909488
12	0xbb03b001	-0.002009392
13	0x3d27df76	0.040984593
14	0xbd5c113c	-0.053727373
15	0xbb898a7b	-0.0041974164
16	0xbd46badf	-0.048518058
17	0x3d50429a	0.050844766
18	0x3dae8a38	0.08522457
19	0xbc8812a4	-0.016610451
20	0xbc2a69c7	-0.010401196
21	0xbd30a079	-0.04312179
22	0x3d540500	0.05176258
23	0xbb624f94	-0.0034532296
24	0x3d651f55	0.055938084
25	0xbd1f9cd3	-0.03896792
26	0xba01a005	-0.0004944804
27	0x3d139380	0.03602934
28	0x3cdf230f	0.027238397
29	0xbc66bab5	-0.0140826
30	0x3d6c8882	0.05774737
31	0xbc86e88a	-0.016468305
32	0xbce5b866	-0.02804203
33	0xbbcd672a	-0.0062684016
34	0xbd9b7bc5	-0.075919665
35	0x3c81ba8b	0.015836021
36	0x3d8968c1	0.06709433
37	0x3cda5e0c	0.026656173
38	0xbca3fd8f	-0.020018367
39	0x3c53c29f	0.012924819
40	0x3d9cd56c	0.076578945
41	0xbc1f6275	-0.009728064
42	0xbd8e70ce	-0.069551095
43	0x3b01378f	0.0019716953
44	0xbc9d43ac	-0.019197308
45	0x3c78e7e9	0.01519201
46	0xbcbd9f73	-0.02314732
47	0x3d4d2f63	0.05009402
48	0xbc6584d7	-0.014008722
49	0xbb73f751	-0.003722627
50	0x3d18ab57	0.037272777
51	0xbd30ef79	-0.04319713
52	0xbdb89e49	-0.090145655
53	0xbc8946ad	-0.016757334
54	0x3d488e2d	0.048963714
55	0x3c3b4619	0.011430287
56	0x3c87af05	0.016562948
57	0xbcb67f2f	-0.022277443
58	0x3c031e52	0.008002834
59	0x3d7f3f8c	0.062316462
60	0xbd01ddc0	-0.031705618
61	0xbc5f9486	-0.013646251
62	0x392d6e7b	0.00016539723
63	0xbc8bf0ed	-0.017082656
64	0xbc85fb9e	-0.016355332
65	0xbd5cad0c	-0.053875968
66	0xbd553764	-0.052054778
67	0xbc4197a0	-0.011815935
68	0x3c90e4b2	0.017687175
69	0xbc0bc100	-0.0085299015
70	0xbd110bdf	-0.03541171
71	0xbd7eb45b	-0.06218372
72	0x3cd4ae45	0.025962004
73	0x3c5a3461	0.013318152
74	0x3d5cdaee	0.053919725
75	0x3ba3de34	0.005000854
76	0xbcf3d8e9	-0.029766517
77	0x3c0a604e	0.008445812
78	0x3c201a68	0.009771921
79	0xbd6bec4f	-0.05759841
80	0x3d7798b5	0.060448367
81	0xbd4d7f41	-0.050170187
82	0xbc28cc69	-0.010302641
83	0xbcb75507	-0.022379411
84	0xbd6b518e	-0.057450823
85	0x3cae8c55	0.02130715
86	0x3d27875a	0.040900566
87	0x3d1ef31d	0.03880607
88	0xbd42d961	-0.04757059
89	0xbdf29630	-0.11845052
90	0xbd48c3c7	-0.049014833
91	0x3cb85dfc	0.022505753
92	0xbcf71e9e	-0.030165967
93	0x3c907904	0.01763583
94	0xbcce3d35	-0.02517567
95	0xbd6db598	-0.05803451
96	0xbd1f5db7	-0.038907733
97	0x3d1fa418	0.03897485
98	0x3d3a2128	0.045441777
99	0xbd3d7eea	-0.046263613
100	0xbd4753bc	-0.04866384
101	0xbc9ca936	-0.019123655
102	0x3cd7a898	0.026325509
103	0xbc91a9ea	-0.017781217
104	0xbdab302c	-0.083587974
105	0xbd7c91a1	-0.06166232
106	0x3d10d498	0.035358995
107	0x3d0c33ee	0.03422921
108	0xbb4fad3e	-0.0031688954
109	0x3cc3ab61	0.02388543
110	0x3ca62a1c	0.020283751
111	0xbda4e109	-0.080507345
112	0x3d804baf	0.062644355
113	0x3c522581	0.012826324
114	0xbd35f779	-0.04442546
115	0xbd0048b1	-0.031319324
116	0xbbb6c0f0	-0.005577199
117	0xbc99507f	-0.018715141
118	0x3d223ef3	0.039610814
119	0xbdce57a9	-0.100753136
120	0x3b41b72a	0.0029558637
121	0xbcda5f90	-0.026656896
122	0x3b89a235	0.004200245
123	0xbd404e3b	-0.046949606
124	0x3c88342c	0.01662644
125	0x3b967065	0.004591035
126	0xbd51a3aa	-0.051181473
127	0xbc3446fe	-0.011003254
128	0x3c87ba64	0.01656837
129	0x3c89af9a	0.016807366
130	0x3c1d24d9	0.009591305
131	0xbd849de8	-0.06475431
132	0x3cc31fae	0.023818817
133	0x3c13f6d8	0.00903102
134	0x3c59a034	0.013282824
135	0x3c1afe1e	0.00946
136	0x3c25e0c6	0.010124391
137	0x3d65ed68	0.05613461
138	0xbb2d03dc	-0.0026400005
139	0x3c6f1d71	0.014594422
140	0xbd8a4d26	-0.06752996
141	0x3d5b1025	0.053482193
142	0xbdc31075	-0.09524623
143	0xbd43b68f	-0.047781523
144	0xbd398c16	-0.045299612
145	0xbd152b68	-0.03641835
146	0xbda9008c	-0.082520574
147	0x3d0f0644	0.034918085
148	0xbd796e01	-0.060895924
149	0x3af90804	0.0018999581
150	0x3d892bd2	0.06697811
151	0x3c0fb2e5	0.008770679
152	0x3c10cf8e	0.008838547
153	0x3d0c7a81	0.034296516
154	0xbb47ec46	-0.003050582
155	0x3cf8651a	0.030321646
156	0xbc8eed7d	-0.017447228
157	0x3d84d470	0.06485832
158	0x3c4502b0	0.0120245665
159	0x3d27f3f9	0.041004155
160	0xbcacd290	-0.021096498
161	0x3c485144	0.0122264065
162	0x3d0b7783	0.034049522
163	0xbb8aa9a3	-0.004231648
164	0x3d317ae9	0.043330107
165	0x3dd031fb	0.10165783
166	0xbd658833	-0.056038093
167	0x3dc34317	0.09534281
168	0xbcd50ed9	-0.026008056
169	0x3d773e61	0.060362224
170	0xbde009e8	-0.109393895
171	0x3d8f5343	0.06998303
172	0xbc4ce766	-0.012506342
173	0xbdabeb06	-0.083944365
174	0xbc2a7761	-0.010404439
175	0x3d3149d4	0.0432833
176	0xbdf2363d	-0.118267514
177	0xbcf97922	-0.030453268
178	0xbbba8aa9	-0.005692799
179	0xbc429c19	-0.011878037
180	0x3dbdcaac	0.09267172
181	0xbd01b469	-0.031666193
182	0x3cd5c883	0.026096588
183	0xbd762307	-0.060092
184	0xbd93c8ff	-0.07216071
185	0x3cf6e004	0.030136116
186	0x3c0862b5	0.008324315
187	0xbb869c9d	-0.004108025
188	0x3d08fd05	0.033444423
189	0x3cbfe290	0.023423463
190	0xbcd09da4	-0.025465794
191	0x3cee4eb0	0.029090255
192	0x3d2ffb54	0.042964295
193	0xbc084d33	-0.008319187
194	0xbd87f456	-0.066384
195	0xbb79e49b	-0.0038130644
196	0xbcca856b	-0.024721822
197	0xbda2b1c0	-0.07944059
198	0x3d979e92	0.07403292
199	0xbd27bd70	-0.040952146
200	0xbd07628e	-0.033052973
201	0x3d4a81af	0.049440082
202	0x3d6cdcb8	0.05782768
203	0x3d0ad19f	0.033891317
204	0xbd9e42f2	-0.077276126
205	0x3d4925cd	0.049108315
206	0x3d4c3c3f	0.049862143
207	0x3d9b6b5a	0.07588835
208	0x3d6b9889	0.057518516
209	0xbd88edfc	-0.06686017
210	0xbca218a8	-0.019787148
211	0xbaa9a22a	-0.0012942005
212	0xbca0a5ec	-0.019610368
213	0xbd9b10a1	-0.07571531
214	0xbcb3bd9c	-0.021940999
215	0xbd4a6cb0	-0.04942006
216	0xbd8cb839	-0.06871075
217	0xbd82f62a	-0.06394608
218	0x3d0e036b	0.03467123
219	0xbd8a272e	-0.06745754
220	0x3d305dc4	0.043058172
221	0xbd07bf69	-0.033141527
222	0x3d05c325	0.032656807
223	0x3c306d8c	0.0107683055
224	0x3ce72dd0	0.028220087
225	0x3da9b0b6	0.08285658
226	0xbd28d1d2	-0.041215725
227	0x3d1bd171	0.038041536
228	0x3ba43441	0.005011112
229	0x3c49bf0f	0.012313618
230	0xbd857870	-0.06517112
231	0x3d69a5ab	0.05704276
232	0xbd0742e5	-0.03302278
233	0xbd5fbc5a	-0.054622985
234	0x3c8c0d7e	0.017096277
235	0x3c760de8	0.015017964
236	0xbd2347b9	-0.039863322
237	0x3cc1bbd0	0.023649126
238	0xbd9c6097	-0.076356106
239	0x3cd10243	0.025513774
240	0x3cc0113b	0.023445716
241	0x3dc32585	0.09528641
242	0xbd807cb1	-0.06273783
243	0xbc19e9b9	-0.009394103
244	0x3bf61608	0.0075099505
245	0xbb378982	-0.0028005545
246	0xbd8425d9	-0.06452531
247	0x3ccc0b3c	0.0249077
248	0xbcb00740	-0.021487832
249	0xbc2e01ee	-0.010620577
250	0xbbfe5d92	-0.0077626193
251	0xbd81f4b2	-0.063455
252	0x3d5814c6	0.052754186
253	0xbb161bd0	-0.002290476
254	0xbdb9510c	-0.090486616
255	0xbd356848	-0.044288903

bias f4 [128]
0	0xbba950d1	-0.005167105
1	0xbbf6e708	-0.0075348653
2	0x3bc8e3ac	0.006130656
3	0xbbcc3d16	-0.006232868
4	0xbbeecc6b	-0.007287552
5	0xbc4e7a97	-0.01260247
6	0xbb561617	-0.0032666975
7	0x3a8594a2	0.0010191391
8	0xba1d775f	-0.00060068624
9	0xbbe1033f	-0.006866842
10	0x3b70b4a1	0.0036728757
11	0x3aee9bb9	0.0018204368
12	0x3b3000e0	0.002685599
13	0xbb96f982	-0.0046073804
14	0x3a43dba9	0.00074713916
15	0xbb425ede	-0.0029658596
16	0x3aed8194	0.0018120282
17	0xbb2d9aa1	-0.002648987
18	0xbc097858	-0.008390509
19	0xbbb67a82	-0.0055688033
20	0xbc1a703b	-0.009426172
21	0xbc64123d	-0.013920364
22	0xbc3ce7d6	-0.011529883
23	0xbc03bf96	-0.008041283
24	0xbb860e13	-0.0040910332
25	0xbb148bde	-0.0022666375
26	0x3b9e8044	0.004837068
27	0xbb385430	-0.0028126352
28	0xbbe282c5	-0.0069125616
29	0xb9c7078e	-0.00037961866
30	0xbb06b2dd	-0.0020553388
31	0xbc64ae81	-0.013957621
32	0xbb334a15	-0.0027357389
33	0xbbb3ebe5	-0.0054907673
34	0xbc0041ef	-0.00782822
35	0xbbeb3c30	-0.007178806
36	0xbc417944	-0.011808697
37	0xbc5bfcec	-0.0134270005
38	0xba5e4921	-0.0008479525
39	0xbbf2e5fb	-0.0074126697
40	0xb9b8d467	-0.00035253467
41	0xbb0ae133	-0.0021191358
42	0x3b2c34dd	0.0026276626
43	0xbbd36ba7	-0.006452042
44	0xbc1de9b5	-0.00963824
45	0xbb78d277	-0.0037967244
46	0xbbb0d6c1	-0.0053966944
47	0xbbf44daa	-0.0074555473
48	0x3bd408a2	0.0064707557
49	0x3c3c8c56	0.011508068
50	0x3b0dac52	0.0021617603
51	0x3b0a9744	0.002114729
52	0xbbb41fb7	-0.0054969448
53	0xbbb90682	-0.0056465277
54	0xbbcc3c3e	-0.0062327674
55	0x3b9afbb5	0.004729713
56	0x3b231af6	0.0024887896
57	0xbc254fa9	-0.010089793
58	0x3ad88958	0.0016520424
59	0xb99cb0aa	-0.00029886264
60	0x3c75df63	0.015006873
61	0xbafced1f	-0.0019296742
62	0xba99ffd1	-0.0011749213
63	0xbc1d1ab2	-0.009588884
64	0x3a878a1a	0.001034084
65	0xbbdea2e8	-0.0067943223
66	0xbc276eb0	-0.010219261
67	0xbbd60b20	-0.006532088
68	0xbbd88d23	-0.0066086217
69	0xbad8b083	-0.0016532097
70	0x3a9031a5	0.0011001123
71	0xbb874df3	-0.0041291653
72	0x3c87988e	0.016552236
73	0xbaaa25de	-0.0012981256
74	0xbc021e64	-0.007941816
75	0xbbdb029b	-0.00668366
76	0xbaa0d3aa	-0.0012270112
77	0xb894aeb3	-7.08973e-05
78	0xbb8b5c96	-0.0042529805
79	0x3c2b9b13	0.010473984
80	0xbba8faaa	-0.0051568346
81	0x3b02179f	0.0019850505
82	0x3b406db8	0.0029362272
83	0xbba57b12	-0.0050500715
84	0xbc137ae2	-0.0090014655
85	0xbc012f17	-0.007884762
86	0x3a8db14c	0.0010810285
87	0xbc349303	-0.011021378
88	0x3a855d2e	0.0010174864
89	0xbc2c48ce	-0.010515405
90	0xbbaa59ef	-0.005198709
91	0x3bcacb9f	0.0061888243
92	0x3b792922	0.0038018902
93	0xbbbb9e4c	-0.0057256576
94	0xbbe8def4	-0.007106656
95	0x3b4f3625	0.0031617966
96	0xbbb5aa12	-0.0055439556
97	0xbb2af0ea	-0.0026083537
98	0xbb9fe584	-0.0048796553
99	0xbbcb1f3b	-0.0061987913
100	0xbab573e5	-0.0013843743
101	0xbaf8f40b	-0.0018993629
102	0xbc5f0709	-0.013612517
103	0xb99c7566	-0.00029842107
104	0xbad791dd	-0.0016446669
105	0xba669c2a	-0.0008797074
106	0x39dc602f	0.00042033332
107	0xbbbef287	-0.0058272514
108	0x3b536d7e	0.0032261307
109	0x3a3a64fd	0.00071103853
110	0xba3ae02a	-0.000712874
111	0xbb978b0d	-0.0046247304
112	0xbc0921e2	-0.008369895
113	0x3a67b3da	0.00088387507
114	0xbb28eeae	-0.002577703
115	0x3bdf0475	0.0068059512
116	0xb930693f	-0.00016823875
117	0xbb209039	-0.0024500026
118	0x3c8c1b0d	0.017102743
119	0xbba3ddf4	-0.005000824
120	0xbb352ba4	-0.002764442
121	0xbb9619a5	-0.004580694
122	0x3864d117	5.4554166e-05
123	0xb984a9df	-0.00025303566
124	0xbbf88653	-0.007584372
125	0x3c7608c8	0.015016742
126	0xbb2fafac	-0.002680759
127	0xbc1c608c	-0.009544503

weight f4 [1, 128]
0	0xbd5d2fc0	-0.054000616
1	0xbdefbca2	-0.11705901
2	0x3c9a7fd9	0.01885979
3	0xbc18a5e8	-0.009316899
4	0xbd694220	-0.056947827
5	0xbe5a8f6c	-0.21343774
6	0xbd27d004	-0.040969864
7	0xbc4ed41b	-0.012623812
8	0x3ddffff0	0.10937488
9	0x3e030901	0.12796403
10	0x3cbad1f8	0.022805199
11	0x3c7668b1	0.015039609
12	0x3bcc7269	0.0062392247
13	0xbd806b45	-0.0627046
14	0x3cf05aee	0.029340234
15	0xbac5c972	-0.0015089943
16	0x3b76b11c	0.0037642187
17	0xbd6e5b88	-0.05819276
18	0x3e3be8a9	0.18350472
19	0xbdb0f5a6	-0.08640604
20	0x3e25db2b	0.16196887
21	0xbd38db3e	-0.04513096
22	0xbd9082ae	-0.07056175
23	0xbd923437	-0.071388654
24	0x3df0c3cf	0.117560975
25	0x3d984c14	0.07436386
26	0x3bb5ce75	0.0055482932
27	0xbd64d459	-0.055866573
28	0xbd26ea0d	-0.040750552
29	0x3d522b37	0.051310744
30	0x3da4d0f9	0.08047671
31	0xbd3b3adb	-0.045710426
32	0x3d6d7c49	0.057979856
33	0xbc266a3e	-0.010157166
34	0x3e3e0f47	0.18560515
35	0x3e3e8ad6	0.18607649
36	0xbe0c4f7b	-0.13702194
37	0xbd8f4f8e	-0.06997596
38	0x3d862522	0.06550051
39	0xbdc2609e	-0.094910845
40	0x3ceb8d38	0.028753862
41	0xbc309ad8	-0.010779105
42	0x3cd9c24d	0.026581908
43	0x3d9145e7	0.07093411
44	0xbd172b53	-0.03690655
45	0x3d8855e0	0.06657004
46	0xbe10c8e8	-0.1413914
47	0xbdcca452	-0.09992279
48	0x3cbc7a7c	0.023007624
49	0x3ce7a3c6	0.028276335
50	0x3d805206	0.06265645
51	0xbcee835b	-0.02911537
52	0x3e1940e4	0.1496616
53	0xbe1ebb8e	-0.15501234
54	0xbdd9897f	-0.106219284
55	0x3cf6a222	0.030106608
56	0x3c04b607	0.008100039
57	0xbda94b39	-0.08266301
58	0xbc875f7e	-0.016525026
59	0xbc3751e9	-0.0111889625
60	0x3c2cc398	0.01054468
61	0x3dbbb7a4	0.09165886
62	0xbce3b65d	-0.027796919
63	0xbd867ce4	-0.0656679
64	0x3c7b6c50	0.015345648
65	0xbc99ad8b	-0.01875951
66	0xbd09a226	-0.033601902
67	0xbd953352	-0.07285179
68	0xbc9aa52a	-0.018877584
69	0xbb241a1a	-0.0025039972
70	0x3cec328b	0.028832695
71	0xbc40aa24	-0.011759315
72	0x3bd5ede7	0.0065286043
73	0x3d342fa0	0.04399073
74	0xbc4898cf	-0.012243464
75	0xbd1d5784	-0.03841354
76	0x3db73d7f	0.08947276
77	0x3db5702d	0.088592865
78	0xbd261da4	-0.04055561
79	0x3c1d30fb	0.009594197
80	0x3e02cf4f	0.12774394
81	0x3c8dac7e	0.017294165
82	0x3d3a6a09	0.04551128
83	0xbd0a67cc	-0.033790395
84	0xbd0953cd	-0.033527184
85	0xbdf0f19d	-0.11764834
86	0x3cdf5680	0.027262926
87	0xbe596508	-0.21229947
88	0xbba6951d	-0.0050836937
89	0xbdce1f2f	-0.100645415
90	0xbdf7cc2e	-0.12099491
91	0x3a0b9720	0.00053249486
92	0x3d3520c7	0.044220712
93	0xbd3a972c	-0.045554325
94	0x3e1f132a	0.15534654
95	0x3ce58319	0.028016614
96	0xbdf896e6	-0.121381566
97	0x3e074c8a	0.13212791
98	0x3d439bea	0.047756113
99	0xbe18ddb2	-0.1492832
100	0xba8597c4	-0.0010192324
101	0x3d9ceff1	0.07662953
102	0xbde90f60	-0.11379886
103	0x3e08baa2	0.13352445
104	0x3dcb5c2f	0.09929692
105	0x3db18d46	0.08669524
106	0x3db301ed	0.08740602
107	0xbdd75b7b	-0.105154954
108	0x3d0e598b	0.034753364
109	0x3d0a4c8a	0.0337644
110	0x3ddc5d7b	0.107600175
111	0xbccccbd9	-0.024999546
112	0x3db155d8	0.086589515
113	0x3b3dc823	0.0028958402
114	0xbc05e47a	-0.008172149
115	0x3978d114	0.0002372901
116	0x3d4e0510	0.050297797
117	0xbd18be3c	-0.037290797
118	0x3c12f657	0.008969865
119	0xbd329f4a	-0.04360894
120	0x3d25bf12	0.040465422
121	0xbd6a7d2b	-0.057248276
122	0x3cf2fd90	0.029661924
123	0x3d6588b1	0.056038562
124	0xbd328c2d	-0.043590713
125	0x3b8bb83c	0.004263906
126	0xbb3e452e	-0.0029032934
127	0xbdebfd3c	-0.1152291
